pyCode/Autoencoder/model_state_dict.pth (torch, 94167 bytes, 16 tensors)

encoder.0.weight f4 [128, 3]
0	0xbf17811d	-0.59181386
1	0xbeb85165	-0.359996
2	0xbf034f89	-0.51293236
3	0xbf0eef5d	-0.5583399
4	0xbe9caf80	-0.30602646
5	0xbf10d206	-0.5657047
6	0xbe8869bc	-0.2664317
7	0xbe937977	-0.28803608
8	0x3db42444	0.087959796
9	0xbe89e132	-0.26929623
10	0x3eecfa0c	0.4628452
11	0x3f1b3850	0.606328
12	0xbe01f84d	-0.12692375
13	0xbeaaa581	-0.33329394
14	0xbe0cdc1e	-0.13755843
15	0xbdaabd48	-0.08336884
16	0x3e40659c	0.18788761
17	0x3d8fa388	0.07013613
18	0x3f0f1e58	0.55905676
19	0x3df71a1b	0.12065526
20	0xbee41b90	-0.4455228
21	0x3ec5b3af	0.3861365
22	0x3d66fa62	0.056391127
23	0x3f0cdfc6	0.5502895
24	0x3c815ab8	0.015790328
25	0xbb6502d1	-0.0034944306
26	0xbeb93f79	-0.36181238
27	0x3f1e978a	0.6194998
28	0xbec08f36	-0.3760926
29	0xbe131722	-0.14364293
30	0x3f069767	0.5257477
31	0x3ec258c0	0.37958336
32	0xbe41f16f	-0.18939756
33	0xbe8c76eb	-0.27434477
34	0x3f027101	0.5095368
35	0xbf213437	-0.629703
36	0x3f0d1edc	0.5512521
37	0xbebb020a	-0.36524993
38	0x3edf51a7	0.43616983
39	0xbecea93e	-0.40363497
40	0xbe455a86	-0.19272813
41	0x3ee27563	0.44230184
42	0x3e392a51	0.18082549
43	0xbe88af6b	-0.26696333
44	0xbd9e7632	-0.07737388
45	0x3ec56022	0.38549906
46	0x3e5e2688	0.21694386
47	0xbea4abb4	-0.3216225
48	0x3ef0a14d	0.46998063
49	0x3efdce5e	0.49571508
50	0xbefbcec8	-0.491812
51	0x3f0e411a	0.5556809
52	0x3d966e4d	0.07345257
53	0xbcb4d3e3	-0.022073692
54	0xbeb3c5dd	-0.35111895
55	0xbed8b9f5	-0.42329374
56	0xbe8e6ed4	-0.2781893
57	0xbeeffab7	-0.46870968
58	0x3e5815be	0.21102044
59	0xbeac54c5	-0.33658424
60	0x3ef7faab	0.48433432
61	0xbf058a56	-0.5216421
62	0xbe77c0a3	-0.24194579
63	0x3ed1caf4	0.40975153
64	0x3e96c617	0.29448006
65	0xbefc00bd	-0.49219313
66	0xbf1057f5	-0.5638421
67	0x3e638b01	0.22220995
68	0xbf0d8817	-0.5528578
69	0xbf260baa	-0.6486155
70	0xbeb0f528	-0.3456204
71	0xbe9e9d23	-0.3097926
72	0xbe8005e9	-0.2500451
73	0xbe053728	-0.13009322
74	0xbf0369ef	-0.51333517
75	0xbe55b61d	-0.20870252
76	0xbf007465	-0.50177604
77	0x3f032617	0.51229995
78	0x3f14e3e4	0.58160233
79	0xbd8f642b	-0.070015274
80	0xbe176b55	-0.14787038
81	0x3e47fcc2	0.19530013
82	0x3e0d4303	0.13795094
83	0x3dbfc1e1	0.09363151
84	0x3eaae868	0.33380437
85	0xbdd4bfce	-0.10388146
86	0xbf020957	-0.507955
87	0xbf0643ea	-0.5244738
88	0xbec4caf4	-0.3843609
89	0x3ecb3f6c	0.39696825
90	0x3c586058	0.013206564
91	0x3cfc8085	0.030823002
92	0xbee9cadd	-0.45662585
93	0xbeec8e4c	-0.46202314
94	0x3eb0dcea	0.34543544
95	0x3f0a84fd	0.54109174
96	0x3e50dda0	0.20397043
97	0xbed99614	-0.42497313
98	0x3ebf7b30	0.37398672
99	0xbd1feae3	-0.039042365
100	0x3eaaccde	0.33359426
101	0x3edc81a3	0.43067655
102	0x3e79832b	0.24366443
103	0x3e28b116	0.16473803
104	0x3de2a3f8	0.11066431
105	0xbefd33e8	-0.49453664
106	0xbd7d9eba	-0.06191895
107	0xbdbf8f59	-0.09353513
108	0xbebe7b1b	-0.37203297
109	0x3d81bafb	0.06334492
110	0x3dbfa987	0.09358507
111	0x3e226a32	0.15860823
112	0xbd487992	-0.048944063
113	0xbc619afb	-0.01376986
114	0x3e9593d4	0.29214346
115	0x3e58e008	0.21179211
116	0xbd6bfacd	-0.05761223
117	0xbef23ef3	-0.4731365
118	0x3ee5a726	0.44854087
119	0xbf2102c9	-0.62894875
120	0x3ebbb48b	0.3666118
121	0x3ecc318e	0.39881557
122	0x3f0188fe	0.5059966
123	0xbd1fd7f4	-0.03902431
124	0x3f2a1dbe	0.6645163
125	0x3ef159aa	0.4713872
126	0x3e942572	0.28934819
127	0xbee7a82f	-0.452455
128	0x3e3fa5ac	0.18715543
129	0xbef84bcd	-0.4849533
130	0x3e0fc953	0.14041643
131	0x3ec7ba16	0.3900916
132	0x3cf1ac07	0.029500974
133	0x3f006cf0	0.50166225
134	0xbe76f8a2	-0.24118283
135	0x3f07b45e	0.53009593
136	0xbea21d02	-0.31662756
137	0x3eee587d	0.46551886
138	0x3e15ad5d	0.14616914
139	0xbeee6072	-0.46557957
140	0x3eece11e	0.462655
141	0x3ec51900	0.38495636
142	0xbec759f9	-0.3893583
143	0x3e1cc87a	0.1531085
144	0x3daff81c	0.08592245
145	0x3f04e114	0.5190594
146	0x3d9ae144	0.07562497
147	0x3f0250c4	0.5090449
148	0xbf1e5c2c	-0.61859393
149	0x3eed8927	0.463937
150	0x3f13bf62	0.577139
151	0x3ec9f4a4	0.39444458
152	0xbf05773d	-0.5213507
153	0xbee254d9	-0.4420536
154	0x3e9e57d9	0.30926397
155	0x3ee8c331	0.4546142
156	0x3e3af94b	0.1825916
157	0xbed9c86e	-0.42535728
158	0xbea053f2	-0.31314045
159	0xbe56ca45	-0.20975597
160	0x3dd5e4b0	0.10444009
161	0xbe9dac7e	-0.30795664
162	0x3eab396a	0.3344224
163	0x3f313992	0.6922847
164	0x3ecaca39	0.3960741
165	0xbeb56d04	-0.35434735
166	0xbe66326d	-0.22480173
167	0xbed8a989	-0.42316845
168	0xbefdd64f	-0.49577567
169	0xbe606fc1	-0.2191763
170	0xbe99c779	-0.30034998
171	0x3e880a36	0.2657029
172	0x3ec44112	0.38330895
173	0x3f0137f0	0.5047598
174	0xbde5d0b2	-0.11221446
175	0x3e8163b1	0.2527137
176	0xbe90b22a	-0.28260928
177	0xbd857faa	-0.065184906
178	0x3e8e9523	0.27848157
179	0x3e84f41e	0.25967497
180	0x3ec93056	0.3929469
181	0x3ea49f24	0.32152665
182	0xbe80a4ce	-0.25125736
183	0x3e72fb76	0.23728737
184	0x3ebe57a0	0.37176228
185	0x3eff4fd5	0.49865595
186	0x3cfaeb06	0.030629646
187	0xbebc2e4c	-0.36754072
188	0x3e785122	0.242497
189	0xbec198f3	-0.37812003
190	0xbe49b590	-0.19698167
191	0x3ed2327f	0.4105415
192	0x3e33186a	0.17489782
193	0xbf15942d	-0.58429223
194	0x3e358b1b	0.17728846
195	0x3f0de12f	0.5542173
196	0x3f15ed56	0.5856527
197	0x3efdefc4	0.4959699
198	0xbf034d1d	-0.5128954
199	0x3f0ac625	0.54208595
200	0xbe906978	-0.28205466
201	0x3ecfe200	0.40602112
202	0xbc5524aa	-0.01300923
203	0x3f04c03e	0.5185584
204	0x3f09c80b	0.53820866
205	0xbf0ff6b3	-0.5623581
206	0x3e69ed5b	0.2284445
207	0xbf067d12	-0.5253459
208	0xbe436ab5	-0.19083674
209	0xbe6eb8a1	-0.23312618
210	0x3e179551	0.14803053
211	0x3f0d3c4a	0.5517012
212	0xbb891de8	-0.0041844733
213	0xbf006f19	-0.5016952
214	0x3d31e324	0.04342951
215	0x3ed3404b	0.4125999
216	0x3ef4cf18	0.4781425
217	0xbea6b460	-0.3255949
218	0xbf0487d7	-0.51769775
219	0xbf092450	-0.53571033
220	0xbd95763b	-0.07297941
221	0xbebb5f60	-0.36596203
222	0x3d651938	0.055932254
223	0xbeab8213	-0.33497676
224	0x3ec31a93	0.38106212
225	0xbe31d062	-0.17364648
226	0x3eede2c9	0.46462086
227	0x3e6abf71	0.22924592
228	0xbdde2f29	-0.10848839
229	0xbe92578e	-0.28582424
230	0xbe9abcb9	-0.3022211
231	0x3ec9cc69	0.39413765
232	0x3ed85631	0.4225326
233	0x3ee4c863	0.44684133
234	0x3e145ca1	0.1448846
235	0x3e34d314	0.17658645
236	0x3e5365fa	0.2064437
237	0xbec623b8	-0.38699126
238	0xbee856b1	-0.4537864
239	0x3ed17460	0.409091
240	0x3f0b0b84	0.54314446
241	0xbe386829	-0.18008484
242	0xbee9088f	-0.45514342
243	0x3e3593d9	0.1773218
244	0xbedb25d2	-0.42802292
245	0xbd77d010	-0.06050116
246	0x3f178737	0.59190696
247	0xbf1718d9	-0.5902229
248	0x3ece2214	0.40260375
249	0x3ef344f4	0.47513545
250	0x3ee3e8b2	0.4451347
251	0xbbc339ec	-0.0059578326
252	0xbe53237d	-0.20619006
253	0xbec6e62f	-0.3884749
254	0xbee6f66b	-0.45109877
255	0x3e960ad7	0.29305145

encoder.0.bias f4 [128]
0	0xbef35daa	-0.47532398
1	0x3e101b24	0.14072853
2	0x3e5497a2	0.20760968
3	0x3e2bb107	0.1676675
4	0x3ed2e992	0.41193825
5	0xbf0f9c44	-0.5609782
6	0xbd560ebc	-0.052260146
7	0x3e98a039	0.2980974
8	0x3d3f5ee0	0.04672134
9	0xbed7fdb9	-0.42185763
10	0x3e583624	0.21114403
11	0xbf0b5aa8	-0.54435205
12	0xbe31575b	-0.1731848
13	0xbe2e892a	-0.17044511
14	0xbe8fdde6	-0.28098983
15	0x3d77c2d6	0.060488544
16	0xbe62676e	-0.22109768
17	0xbdd67eba	-0.1047339
18	0xbe49ec10	-0.19718957
19	0xbee158dc	-0.44013107
20	0x3e90f5fb	0.28312668
21	0x3d380573	0.04492707
22	0x3e4402b7	0.1914166
23	0xbe44d46c	-0.19221658
24	0x3e92d735	0.28679815
25	0x3f204c08	0.62616014
26	0x3cbb7383	0.022882229
27	0x3f155dda	0.5834633
28	0x3cc381cd	0.023865605
29	0xbe0ac080	-0.13549995
30	0x3cc0e8d3	0.02354852
31	0x3f07ddd6	0.5307287
32	0xbda4514a	-0.08023317
33	0x3e9828c5	0.29718605
34	0xbea683a6	-0.32522315
35	0xbd99cf9b	-0.07510301
36	0x3dc2d2e8	0.095128834
37	0x3e90324b	0.2816337
38	0x3ea7805a	0.32715112
39	0xbea5bc3d	-0.32370177
40	0xbabbb545	-0.001432099
41	0xbda5baa6	-0.08092241
42	0xbe1b605a	-0.15173474
43	0xbe919d26	-0.28440207
44	0x3cdd3b11	0.027005704
45	0xbe6ea416	-0.23304781
46	0x3ecd1425	0.40054432
47	0x3e8149f0	0.25251722
48	0xbebb70b7	-0.36609432
49	0x3eec820c	0.46192968
50	0x3e88245c	0.2659024
51	0x3edc0ddf	0.42979333
52	0xbe7b2b69	-0.24528278
53	0x3f11cd6f	0.5695409
54	0xbef226f8	-0.47295356
55	0x3e104bad	0.14091368
56	0xbeb763d8	-0.35818362
57	0x3e2a9c4b	0.16661184
58	0x3d9d2007	0.07672124
59	0xbe14db5a	-0.14536801
60	0xbe694b1e	-0.22782561
61	0xbe4d44e3	-0.2004581
62	0x3f258081	0.64649206
63	0x3e173597	0.14766537
64	0x3eb175d8	0.3466022
65	0x3ea2f86a	0.3183015
66	0x3e89e66b	0.26933607
67	0x3f0f939a	0.560846
68	0x3f0cc025	0.5498069
69	0x3e361367	0.17780839
70	0xbb5c3a7b	-0.0033604193
71	0x3f1b5281	0.60672766
72	0x3eb41424	0.35171616
73	0xbea213bb	-0.31655678
74	0xbee571df	-0.4481344
75	0xbed19cb6	-0.40939873
76	0xbe911abe	-0.28340715
77	0xbe64cf5b	-0.22344725
78	0xbda8d68c	-0.082440466
79	0x3f14c76e	0.58116806
80	0x3f1f3375	0.6218789
81	0x3ebae131	0.36499932
82	0x3e1363a1	0.14393474
83	0x3c00388d	0.007825983
84	0xbe1dc82e	-0.15408394
85	0x3ad713f0	0.001640914
86	0xbebd86e9	-0.3701699
87	0x3e0184d7	0.1264833
88	0xbbfd68c8	-0.007733438
89	0xbd627044	-0.055282846
90	0x3f0970be	0.53687656
91	0xbf004f3b	-0.50120896
92	0x3f1f8f54	0.62328076
93	0x3f1c67d2	0.6109592
94	0xbe49de0b	-0.19713609
95	0xbdd1ce9c	-0.10244486
96	0x3e7b27ac	0.24526852
97	0x3e93b2ed	0.28847447
98	0xbd1f2093	-0.038849425
99	0x3e317c8c	0.17332667
100	0xbeb3a043	-0.35083207
101	0x3ca00871	0.019535275
102	0x3de09ecb	0.10967787
103	0xbe56621b	-0.20935862
104	0x3d984982	0.074358955
105	0x3da2ada7	0.07943278
106	0xbe1090f1	-0.14117791
107	0x3d2f25d4	0.042760685
108	0xbe2df249	-0.16986956
109	0x3ebe84c8	0.3721068
110	0xbea112df	-0.3145971
111	0xbeffa0ef	-0.4992747
112	0xbd2281f6	-0.03967472
113	0x3d7bf058	0.061508507
114	0xbcd28fd5	-0.02570335
115	0x3ea2878b	0.31744036
116	0xbeba2577	-0.36356708
117	0xbe9b660a	-0.30351287
118	0xbddd40e9	-0.10803396
119	0xbf040926	-0.5157646
120	0x3dd51824	0.10404995
121	0x3dd3cffd	0.10342405
122	0x3ee165c1	0.44022945
123	0x3efc1f67	0.49242708
124	0xbefe3ac0	-0.49654198
125	0xbd7c078f	-0.061530646
126	0x3ea48d9f	0.32139298
127	0x3e126bd4	0.14298946

encoder.2.weight f4 [64, 128]
0	0xbca99cc4	-0.020704634
1	0x3caf9bd8	0.021436617
2	0x3cdb23fe	0.02675056
3	0x3bdaeaa5	0.006680804
4	0x3dabdc3b	0.08391615
5	0xbcd73316	-0.026269477
6	0x3df06e06	0.11739735
7	0x3bba6c6a	0.0056891935
8	0x3e2046e6	0.15652046
9	0x3d9ba200	0.075992584
10	0xbc575d06	-0.013144737
11	0x3db1086f	0.08644187
12	0x3db390b4	0.08767834
13	0x3d004d7e	0.031323902
14	0x3cb5b4c6	0.022180926
15	0x3d9534c1	0.07285453
16	0xbd9919e5	-0.07475642
17	0x3d82cc8c	0.063866705
18	0x3dde2e03	0.1084862
19	0xbb1b9577	-0.002374021
20	0xbca6aaef	-0.02034518
21	0x3cd71627	0.02625568
22	0x3e01e056	0.12683234
23	0xbc80d05c	-0.015724353
24	0x3c62e1a0	0.0138477385
25	0x3dd51821	0.10404993
26	0x3d876cc7	0.066125445
27	0x3db235c6	0.08701663
28	0x3e0f4252	0.13990143
29	0x3d8a3761	0.06748844
30	0x3e09c405	0.13453682
31	0x3da3625b	0.07977744
32	0x3d895f36	0.06707613
33	0xbd107664	-0.035269156
34	0xbce03043	-0.027366763
35	0xbc7abc08	-0.015303619
36	0x3de3ef3d	0.111296155
37	0x3d2b85f0	0.04187578
38	0x3bc05732	0.0058697695
39	0xbd0381e5	-0.0321063
40	0xbda3740a	-0.07981117
41	0x3d266e2c	0.04063241
42	0x3dce9ece	0.10088883
43	0xbda7ca5f	-0.08192896
44	0x3c7ad72b	0.015310089
45	0x3b4924b6	0.0030692047
46	0x3dbcfdad	0.09228072
47	0xbd1a1592	-0.037618227
48	0xbddb2a90	-0.107014775
49	0x3d9b81e7	0.07593136
50	0x3d57192b	0.052514236
51	0xbcb6ec8f	-0.022329597
52	0x3dcc8df2	0.099880114
53	0x3e08b986	0.13352022
54	0xbe0947c5	-0.13406284
55	0x3db40697	0.087903194
56	0x3cf8b7d5	0.030361095
57	0xbdb7faed	-0.08983407
58	0xbd33fe32	-0.04394359
59	0x3ce4e9d5	0.027943531
60	0xbda6db17	-0.08147257
61	0xbc71e961	-0.0147651145
62	0x3cfe0c7a	0.031011809
63	0x3d582fce	0.052779965
64	0x3d1e7ee1	0.03869522
65	0xbda13a02	-0.07872392
66	0x3d4be0c0	0.049774885
67	0xbc635bd8	-0.013876878
68	0x3df40c7b	0.11916443
69	0x3c542b3c	0.012949761
70	0x3bb6e0fa	0.0055810185
71	0x3cbef582	0.023310427
72	0x3e017cbb	0.12645237
73	0x3d2fec38	0.042949885
74	0xbd0a75c6	-0.033803724
75	0xbe201f72	-0.15636995
76	0x3dd9960f	0.106243245
77	0xbdbc0c2c	-0.09182009
78	0x3c14bc49	0.009078094
79	0x3dc209dd	0.094745375
80	0x3d621e46	0.055204652
81	0x3c474cd0	0.01216431
82	0xbbb58df4	-0.005540604
83	0xbdc4332f	-0.09580075
84	0xbcaa929c	-0.020821862
85	0xbd2c63a8	-0.042087227
86	0x3d593e28	0.053037792
87	0xbb88a4f8	-0.0041700564
88	0xbbf101d2	-0.0073549533
89	0xbd7a080a	-0.061042823
90	0xbcb9e28b	-0.022691032
91	0xbc9d8c03	-0.019231802
92	0x3d832e61	0.064053304
93	0x3ce6261f	0.02809435
94	0x3d9ac5ac	0.07557234
95	0xbc465ac0	-0.012106597
96	0x3b203b76	0.0024449504
97	0x3c82dbe6	0.015973996
98	0x3ba913a4	0.005159812
99	0x3deefdd7	0.1166951
100	0x3dfdea1e	0.1239817
101	0xbda38863	-0.07984998
102	0x3da5df9b	0.0809929
103	0x3b420529	0.0029605126
104	0x3df79830	0.12089574
105	0x3bafdcbe	0.0053668907
106	0x3d0db10d	0.034592677
107	0xbd17088e	-0.036873393
108	0xbb9b0cdd	-0.004731758
109	0x3bf86844	0.007580789
110	0xbd10e42a	-0.035373844
111	0xbcfa9cc4	-0.03059233
112	0x3bf338ad	0.0074225278
113	0x3d9c8d06	0.076440856
114	0x3dfb9a31	0.12285269
115	0x3de47a7a	0.11156173
116	0xbdcb42ef	-0.09924876
117	0x3d75c73b	0.060004454
118	0x3c8b8221	0.017029824
119	0xbd9deb17	-0.077108555
120	0xbd57572b	-0.052573364
121	0xbd1a05f5	-0.037603337
122	0x3dcf6cad	0.1012815
123	0x3de37f60	0.11108279
124	0xbc863497	-0.016382499
125	0xbd892b39	-0.06697697
126	0xbd1821bd	-0.03714155
127	0x3b9bf29d	0.0047591464
128	0x3d737b57	0.059443798
129	0x3cd8b14f	0.026451735
130	0x3d6adea0	0.057341218
131	0x3deba378	0.115057886
132	0x3dd11006	0.10208134
133	0xbd62ab37	-0.055339064
134	0xbdcfdff4	-0.101501375
135	0x3bcecf55	0.006311337
136	0xbb876385	-0.0041317367
137	0xbc42af0e	-0.011882557
138	0xbd01437c	-0.0315585
139	0x3e010853	0.12600832
140	0xbd886532	-0.066599265
141	0x3e204cc7	0.15654288
142	0x3c23070b	0.00995041
143	0xbd0dddf2	-0.03463549
144	0xbcfc37b7	-0.030788286
145	0xbe39b4a2	-0.18135312
146	0x3dd095c2	0.10184814
147	0xbd5c4bf4	-0.053783372
148	0xbd991d46	-0.074762866
149	0xbd342c40	-0.043987513
150	0x3d083b96	0.03325995
151	0x3cb421f6	0.02198885
152	0xbce04130	-0.027374834
153	0x3d75cd11	0.06001002
154	0xbe0bed37	-0.13664709
155	0x3db42c42	0.08797504
156	0xbbebaa75	-0.007191951
157	0x3e29d77b	0.16586106
158	0xbd6c8db2	-0.05775232
159	0x3df0162c	0.11722979
160	0x3d877ec2	0.06615974
161	0xbd277ce3	-0.040890586
162	0x3c98aa54	0.018635906
163	0x3db5ed21	0.088831194
164	0x3df582c9	0.11987836
165	0x3c594aae	0.013262434
166	0xbd74f000	-0.059799194
167	0xbcaba9b7	-0.02095495
168	0x3ca36294	0.019944467
169	0x3c5dcd78	0.013537757
170	0xbdd93acd	-0.106069185
171	0x3e0545da	0.13014928
172	0x3cfcd240	0.030861974
173	0xbd7e7440	-0.062122583
174	0xbbabf5a8	-0.0052477904
175	0x3c962f4e	0.018333104
176	0xbd889d2f	-0.066706054
177	0x3d8e1208	0.06937033
178	0x3ca6ecd0	0.020376593
179	0x3e2e1d89	0.17003454
180	0x3d6ff2e2	0.05858124
181	0x3b8fed54	0.0043923054
182	0x3c3d66e2	0.011560174
183	0x3dce43f8	0.10071558
184	0x3d05ec2a	0.032695927
185	0x3b2b11fe	0.0026103253
186	0xbcb96130	-0.02262935
187	0x3cec7f8e	0.028869417
188	0x3d7d797c	0.061883435
189	0xbd994086	-0.0748301
190	0x3e1df174	0.15424138
191	0x3d92615a	0.071474746
192	0x3ccce3e8	0.025011018
193	0x3c954ad1	0.018224152
194	0x3d784820	0.06061566
195	0x3d0184a8	0.03162065
196	0xbd617b25	-0.05504908
197	0x3d6ca933	0.05777855
198	0xbd089abf	-0.033350702
199	0x3d8273e9	0.06369764
200	0xbcd932cd	-0.026513482
201	0x3ddb4d5b	0.10708114
202	0xbd854b48	-0.065084994
203	0xbda63f43	-0.08117535
204	0x3d041253	0.032244038
205	0xbcf3b939	-0.029751407
206	0x3c9c0ea8	0.019049957
207	0x3e19ec5b	0.15031569
208	0x3d9dc62f	0.07703816
209	0x3d84f856	0.06492679
210	0xbdb48a15	-0.088153996
211	0xbdf632f3	-0.120214365
212	0x3de894e4	0.11356524
213	0xbcd8af62	-0.026450817
214	0xbcb853ad	-0.022500837
215	0x3d285062	0.041092284
216	0x3d908bef	0.0705794
217	0xbd3196d3	-0.043356728
218	0x3daf7742	0.085676685
219	0x3d6e2fd2	0.058151074
220	0x3d19c76c	0.0375437
221	0x3d249d70	0.040189207
222	0xbdc26a39	-0.094929166
223	0x3e01f21f	0.12690018
224	0x3c00bb0d	0.007857096
225	0x3e342178	0.17590892
226	0x3df503bc	0.11963603
227	0xbcbb3bf3	-0.022855734
228	0xbde703b6	-0.11280005
229	0xbd9350be	-0.07193135
230	0x3c5019a7	0.0127014285
231	0x3db6743a	0.08908887
232	0xbd86069b	-0.06544229
233	0x3d884b46	0.06654982
234	0x3d5f0413	0.054447245
235	0x3e0bd3a0	0.13654947
236	0x3dfa6195	0.122256435
237	0x3da38ba4	0.07985619
238	0x3c8a53b1	0.01688561
239	0xbdf6fd65	-0.1206005
240	0x3e3190c5	0.17340381
241	0xbd37635d	-0.044772495
242	0xbc05ae47	-0.008159227
243	0x3a34d19e	0.00068976905
244	0x3d16ab8c	0.036784694
245	0x3ce647d3	0.02811042
246	0x3d266977	0.040627923
247	0x3e114417	0.1418613
248	0x3c3f4030	0.011673018
249	0xbcd520f6	-0.026016694
250	0x3d9f165d	0.07767937
251	0xbccfddee	-0.025374379
252	0x3c306b36	0.010767749
253	0x3cb26721	0.021777691
254	0xbdc305e9	-0.09522612
255	0x3cda6917	0.026661439

encoder.2.bias f4 [64]
0	0x3d97817f	0.07397746
1	0x3da81324	0.08206776
2	0x3c7dca47	0.015490121
3	0x3d1ba6ff	0.038001057
4	0xbd979857	-0.074021034
5	0xbd6f2264	-0.058382407
6	0xbc37875e	-0.011201708
7	0x3acb8f23	0.0015530329
8	0x3e031b44	0.1280337
9	0x3dafa701	0.08576775
10	0x3e05a049	0.13049425
11	0xbbdf68d8	-0.0068179183
12	0x3dabd525	0.083902635
13	0x3d87bab9	0.066274114
14	0xbd5ebdf9	-0.05438039
15	0xbd87f248	-0.06638008
16	0x3dc17c95	0.0944759
17	0x3d023caa	0.031796135
18	0x3e08080a	0.13284317
19	0xbb2839d3	-0.0025669232
20	0x3d7ef540	0.062245607
21	0x3e0ac732	0.1355255
22	0x3df6621c	0.12030432
23	0x3e1504fd	0.14552684
24	0x3bf65389	0.0075172824
25	0x3dd56c7a	0.10421081
26	0x3d3e4ab7	0.046457972
27	0x3dba0ce1	0.09084488
28	0x3d4a3c2e	0.049373798
29	0x3dde495a	0.108538345
30	0xbc1393e3	-0.009007427
31	0x3d7b53cf	0.061359223
32	0x3cf8bffa	0.030364979
33	0x3cea0670	0.028567523
34	0x3d8102fe	0.06299399
35	0x3de53f74	0.11193743
36	0x3dd077af	0.10179078
37	0xbd7d9b4b	-0.061915677
38	0xbd517595	-0.051137526
39	0xbb8bc5cc	-0.0042655226
40	0x3db0327b	0.086033784
41	0x3db6562b	0.08903154
42	0x3ca5668f	0.020190505
43	0x3cfdd929	0.03098734
44	0x3c6e9f88	0.014564402
45	0xbd8e081a	-0.06935139
46	0x3de44bf9	0.11147303
47	0xbdcfa868	-0.10139543
48	0xbc92ece6	-0.017935228
49	0x3d9c94b4	0.0764555
50	0x3df1bfde	0.11804174
51	0x3c03cde3	0.008044693
52	0x3d844850	0.06459105
53	0x3dec9cc2	0.11553337
54	0xbd2cea9f	-0.04221594
55	0xbd0c05d4	-0.034185246
56	0x3d98f490	0.074685216
57	0xbc56ab26	-0.013102328
58	0x3d71bcb3	0.05901785
59	0x3d6867fe	0.0567398
60	0xbccc719a	-0.024956513
61	0xbd8caa77	-0.06868451
62	0x3d704750	0.05866176
63	0x3b2d7c36	0.002647174

encoder.4.weight f4 [32, 64]
0	0xbe07922a	-0.13239351
1	0xbda1bd6c	-0.078974575
2	0x3b2e26f9	0.0026573522
3	0xbde58d4a	-0.112085894
4	0xbdefd9e1	-0.11711479
5	0x3db5a4a3	0.088692926
6	0x3cc2c6aa	0.023776371
7	0xbda6d449	-0.08145959
8	0x3b360996	0.002777671
9	0xbd8b2c3a	-0.06795545
10	0x3dafca5d	0.085835196
11	0x3d6ff2b1	0.058581058
12	0x3d91d882	0.07121374
13	0xbcac0a0c	-0.021000884
14	0x3c99664a	0.018725533
15	0x3d890cee	0.06691919
16	0xbc5c877f	-0.013460039
17	0xbba61297	-0.005068134
18	0xbcd86bd5	-0.026418606
19	0xbc7511df	-0.014957874
20	0x3b6b24d6	0.003588011
21	0x3cad692c	0.021168314
22	0xbd9510e3	-0.072786115
23	0xbddfba27	-0.109241776
24	0xbdd9f620	-0.10642648
25	0x3db95a49	0.09050424
26	0x3b882f11	0.0041560014
27	0x3db2bcd2	0.08727421
28	0xbdd17270	-0.10226905
29	0xbded0a9d	-0.1157429
30	0xbd99d840	-0.075119495
31	0xbd1b22dd	-0.037875045
32	0x3de7da00	0.11320877
33	0x3ddb8c38	0.10720104
34	0x3dae8cf0	0.085229754
35	0xbbd5bb69	-0.006522585
36	0xbdeebab5	-0.11656705
37	0xbdfa73bf	-0.12229108
38	0xbd89b9c7	-0.06724887
39	0x3dd0ce26	0.1019557
40	0xbd055b05	-0.032557506
41	0xbdbc58c3	-0.091966175
42	0x3ded3118	0.115816295
43	0x3cdbfa20	0.026852667
44	0xbe022cb7	-0.1271237
45	0x3d3f52c5	0.046709795
46	0x3dbefa6a	0.093251064
47	0x3d01ca98	0.03168735
48	0xbddf814c	-0.10913333
49	0xbd93f76f	-0.072249286
50	0xbe06d0c8	-0.13165581
51	0x3db9f737	0.090803556
52	0xbd95ea26	-0.07320051
53	0x3d2ab78b	0.041678946
54	0x3de02042	0.10943653
55	0xbde4d3d6	-0.11173217
56	0xbd01f340	-0.031726122
57	0xbe029b0f	-0.12754463
58	0xbd8f7317	-0.070043735
59	0xbc7a0765	-0.015260552
60	0xbe024e1e	-0.12725112
61	0xbd48fe90	-0.049070895
62	0x3b3839c1	0.0028110596
63	0x3cb37174	0.021904685
64	0x3e23c87c	0.15994447
65	0x3e57f3a8	0.21089041
66	0x3e3efb06	0.18650445
67	0xbd0e0367	-0.034671213
68	0x3ce90bac	0.028447948
69	0x3a1eb8dc	0.0006054768
70	0x3db72334	0.08942261
71	0xbd7aa657	-0.06119379
72	0x3cd883b0	0.026429981
73	0xbd04ee7d	-0.032454003
74	0x3e63c7da	0.22244206
75	0xbde998da	-0.11406107
76	0xb9f8ec32	-0.00047478225
77	0x3d89e98d	0.067339994
78	0x3da7fe5b	0.08202811
79	0x3d903a12	0.07042326
80	0xbdc3eb8c	-0.095664114
81	0x3e35ec3e	0.177659
82	0x3e0bba44	0.13645273
83	0x3dad430f	0.08460056
84	0xbdaa2a10	-0.08308804
85	0x3cb7e1bb	0.022446504
86	0x3d856827	0.06514006
87	0x3e01031d	0.12598844
88	0x3dde364f	0.10850202
89	0x3ad535aa	0.0016266603
90	0x3da6a225	0.08136395
91	0x3db6db7d	0.08928583
92	0xbc896ff2	-0.016777012
93	0x3d8ccc4c	0.06874904
94	0x3d4a07ae	0.04932373
95	0xbd1ba107	-0.037995365
96	0xbca07dba	-0.019591201
97	0x3e712b88	0.23551762
98	0x3dc59f14	0.09649482
99	0x3acbd993	0.0015552513
100	0x3e2555bc	0.16145986
101	0x3daf25f9	0.085521646
102	0xbde1fc05	-0.11034397
103	0x3dea367f	0.114361756
104	0xbdf9d9d2	-0.12199749
105	0xbcae27db	-0.021259239
106	0x3e44b9e8	0.19211543
107	0x3cb7a4fb	0.022417536
108	0x3d91873c	0.07105872
109	0x3db90de1	0.0903585
110	0xbde31c97	-0.110894375
111	0x3dae5152	0.08511604
112	0x3d78dc77	0.060757127
113	0xbe14e8ab	-0.14541881
114	0x3d0a7091	0.033798758
115	0x3cbf62cb	0.023362538
116	0x3d1ea688	0.038733035
117	0xbb84a9d1	-0.004048564
118	0xbc5fc889	-0.013658651
119	0x3e4b5acb	0.19858854
120	0xbe0c2f23	-0.13689856
121	0x3e50780a	0.20358291
122	0xbddea85e	-0.10871957
123	0x3cc48b25	0.02399213
124	0xbda4126c	-0.08011326
125	0x3e4ed474	0.20198232
126	0xbe300a74	-0.17191488
127	0x3deb4a06	0.11488728
128	0xbd1c2a72	-0.038126417
129	0xbc8a146e	-0.016855445
130	0xbd49e2fb	-0.04928873
131	0x3cdfb0fa	0.027306069
132	0x3dbb0a57	0.091328315
133	0x3d96f95a	0.07371779
134	0x3c03fe9f	0.008056312
135	0xbd7ef865	-0.062248606
136	0x3cbc1de8	0.02296348
137	0x3de8fd61	0.11376453
138	0x3df982d5	0.12183157
139	0xbde54d7e	-0.11196421
140	0x3dd742ae	0.10510765
141	0x3dc0e5d4	0.09418836
142	0xbe0f4a5b	-0.13993208
143	0x3dbc1ebf	0.09185552
144	0xbd81ad51	-0.063318856
145	0xbe124e28	-0.14287627
146	0xbcd7a7ce	-0.026325133
147	0x3d1f676a	0.038916983
148	0x3cf7b92c	0.030239664
149	0xbd8034c3	-0.062600635
150	0xbd903d9e	-0.070430025
151	0x3d6b9ac5	0.057520647
152	0xbdb932fb	-0.09042927
153	0xbd3e5ff9	-0.046478245
154	0x3de6f8f3	0.11277952
155	0x3b4f8a83	0.0031668253
156	0xbd7ad15c	-0.061234817
157	0x3e066e07	0.1312791
158	0xbd5e3746	-0.05425193
159	0xbdaae878	-0.08345121
160	0x3db7866d	0.089611866
161	0x3a2be28f	0.0006556892
162	0xbd51314b	-0.0510724
163	0x3c354643	0.011064115
164	0xbc569347	-0.013096637
165	0xbdcec570	-0.10096252
166	0x3dc87d45	0.09789518
167	0xbdd04014	-0.10168472
168	0xbe06f8a0	-0.1318078
169	0x3de5802c	0.112060875
170	0x3e377aae	0.17917892
171	0xbe11e439	-0.14247216
172	0xbc8d0ed9	-0.017218994
173	0x3cced89c	0.025249772
174	0x3d2c1401	0.042011265
175	0x3dac76ee	0.084211215
176	0xbdc8bba7	-0.09801417
177	0x3d0a0e7e	0.033705227
178	0xbd330ddd	-0.043714393
179	0xbd14947d	-0.036274422
180	0xbcb05bba	-0.021528114
181	0x3e2658ce	0.16244814
182	0xbda65b96	-0.081229374
183	0x3d09243b	0.033481818
184	0x3d725d30	0.0591709
185	0xbdb101db	-0.08642932
186	0xbc8591c6	-0.016304862
187	0x3d3631b7	0.044481006
188	0x3e00103a	0.1250619
189	0xbd085d10	-0.033291876
190	0x3e276d0f	0.16350196
191	0xbd61d302	-0.055132873
192	0x3e242cd9	0.16032733
193	0xbdde8c66	-0.108666226
194	0x3e171d72	0.14757326
195	0xbdc65cb7	-0.09685653
196	0xbe13c56a	-0.14430776
197	0xbca0d938	-0.019634828
198	0xbd544d5c	-0.05183159
199	0xbae897ab	-0.0017745396
200	0xbd2197e0	-0.03945148
201	0x3d81e144	0.06341794
202	0x3e045885	0.12924393
203	0x3e10bba8	0.14134085
204	0x3dc4401a	0.09582539
205	0x3c2c9c21	0.010535271
206	0x3c0c26c4	0.008554164
207	0x3d159439	0.03651831
208	0x3e23eb32	0.16007689
209	0x3dd55ccf	0.104180925
210	0xbd0dd43e	-0.034626238
211	0xbde33e5e	-0.1109588
212	0x3d79bd87	0.060971763
213	0xbda1d0cc	-0.07901153
214	0x3dab0042	0.083496585
215	0x3e0b329d	0.13593526
216	0x3c66c6b4	0.01408546
217	0x3dc57248	0.09640938
218	0x3e168708	0.14699948
219	0x3d4cb8f4	0.049981073
220	0x3d9292f5	0.07156936
221	0x3d936fdc	0.0719907
222	0x3d64bd39	0.05584452
223	0x3d949f76	0.07256977
224	0x3e0de4fb	0.1385688
225	0xbd39c51c	-0.045353994
226	0x3ce91499	0.028452205
227	0x3dbf8693	0.0935184
228	0xbd24f707	-0.040274646
229	0xbd409f44	-0.047026888
230	0xbda6ddd8	-0.08147782
231	0xbdd9ee5c	-0.106411666
232	0x3dea35b8	0.11436027
233	0x3d94ab8b	0.07259282
234	0xbda8cb65	-0.082419194
235	0xbc58d02b	-0.013233225
236	0x3c07d86a	0.008291343
237	0x3c51f4b1	0.012814687
238	0x3d18b5f5	0.037282903
239	0x3dd38c95	0.10329548
240	0x3dfa13e8	0.12210828
241	0x3ce2daa3	0.027692145
242	0xbc71f99b	-0.014768983
243	0x3d3c1874	0.045921758
244	0x3bc7faa0	0.006102875
245	0xbc9b5756	-0.018962543
246	0xbdb65107	-0.089021735
247	0x3df1420c	0.117801756
248	0x3d39c082	0.045349605
249	0xbdc6762d	-0.09690509
250	0x3e0efe24	0.13964134
251	0xbd02fa69	-0.03197709
252	0x3ddf8615	0.10914246
253	0xbd5a280c	-0.053260848
254	0x3be1ffdf	0.0068969573
255	0x3d92f00d	0.07174692

encoder.4.bias f4 [32]
0	0x3db7ae96	0.089688465
1	0x3d2298c8	0.039696485
2	0x3da64f26	0.08120565
3	0xbd89e4aa	-0.06733067
4	0x3d0cb976	0.034356557
5	0x3cb6ae75	0.022299984
6	0xbc8473a5	-0.016168425
7	0xbd89df64	-0.067320615
8	0x3d677c57	0.056515064
9	0x3d188fd6	0.037246548
10	0x3e2d4006	0.16918954
11	0x3e40103c	0.18756193
12	0x3dcd0bf6	0.10012047
13	0xbd18018a	-0.037110843
14	0xbd6e7ab4	-0.058222488
15	0x3e29cf93	0.1658309
16	0x3e0ccd94	0.13750297
17	0x3c1b1706	0.009465938
18	0xbc8c60f2	-0.01713607
19	0xbd51ae14	-0.051191404
20	0x3d62c009	0.05535892
21	0xbe031663	-0.12801509
22	0x3cc871db	0.024468353
23	0xbb8f28d0	-0.004368879
24	0x3e216f8c	0.15765208
25	0xbd11f292	-0.035631724
26	0xbbdaf5e0	-0.0066821426
27	0x3c969a28	0.018384054
28	0xbbf4b2a3	-0.007467584
29	0xbdb1fbbd	-0.086905934
30	0x3e0810b0	0.13287616
31	0x3c92bbe7	0.017911864

encoder.6.weight f4 [8, 32]
0	0x3e0d4d61	0.13799049
1	0x3db1a000	0.08673096
2	0x3e35c45f	0.17750691
3	0x3e785b0e	0.24253485
4	0x3e5a70c3	0.21332078
5	0x38f2c566	0.000115762276
6	0x3d311815	0.043235857
7	0x3e18a4c5	0.14906605
8	0xbce6cb6b	-0.02817317
9	0xbc7ae766	-0.015313959
10	0xbd3fcb8f	-0.046824988
11	0x3e4ad319	0.1980709
12	0xbe2b441c	-0.167252
13	0xbca054b9	-0.019571649
14	0x3d782524	0.060582295
15	0x3e14e286	0.14539537
16	0x3e07062b	0.13185947
17	0x3de9d841	0.114182
18	0xbd8740fe	-0.06604193
19	0x3e1d5b95	0.15366967
20	0xbdc75e40	-0.09734774
21	0x3d7c4295	0.061586935
22	0x3e8829a0	0.26594257
23	0xbd1eb910	-0.038750708
24	0x3d9a97e8	0.07548505
25	0x3d6af37e	0.05736112
26	0x3c8d401a	0.01724248
27	0x3d811c18	0.063041866
28	0x3d4e05ac	0.050298378
29	0xbdb8338d	-0.089942075
30	0x3e146d88	0.14494908
31	0xbcc0d973	-0.023541188
32	0x3de2063c	0.11036345
33	0x3b1b0c27	0.0023658366
34	0xbe1ed989	-0.1551267
35	0xbcdbb87a	-0.026821364
36	0xbdfbb7a9	-0.1229089
37	0xbd9e68c4	-0.07734826
38	0x3df0c559	0.11756391
39	0xbd737bdb	-0.05944429
40	0xbe5d2a17	-0.21598087
41	0x3dbbe5ce	0.09174691
42	0xbd38dd4c	-0.04513292
43	0xbe4ad4c2	-0.19807723
44	0x3e8042cf	0.2505097
45	0xbb8bae67	-0.0042627337
46	0x3cb3e8f4	0.021961667
47	0xbe2feb3e	-0.17179582
48	0xbd619ec6	-0.05508306
49	0xbca8c9c0	-0.020604014
50	0x3c185eb1	0.00929992
51	0x3df704eb	0.12061485
52	0x3e3cdb0a	0.18442932
53	0x3de76c5b	0.11299964
54	0xbd832d6b	-0.06405147
55	0x3e063d40	0.13109303
56	0xbdb71599	-0.08939666
57	0xbd244dac	-0.040113136
58	0xbdd57cd8	-0.10424203
59	0x3d9ea1bb	0.077456914
60	0xbe566c63	-0.20939784
61	0xbe0a90a2	-0.13531736
62	0xbe05121f	-0.12995194
63	0x3e49a927	0.19693433
64	0xbd900cb6	-0.070336744
65	0xbe1ab175	-0.15106757
66	0x3d2b1d88	0.04177621
67	0x3dccd96f	0.1000241
68	0x3daa976a	0.08329661
69	0x3d9e7dac	0.07738814
70	0x3daab4da	0.08335276
71	0x3e1ca415	0.15296967
72	0xba4d3a76	-0.0007828841
73	0x3e60a0a0	0.21936274
74	0x3e683df7	0.22679888
75	0x3e003082	0.12518504
76	0x3c5ddf1c	0.013541963
77	0xbe651c55	-0.22374089
78	0x3e8609fc	0.26179492
79	0x3e2bda93	0.16782598
80	0x3e52e992	0.20596913
81	0x3e334b4c	0.17509192
82	0xbb2c3398	-0.002627587
83	0xbdf75463	-0.12076642
84	0xbdd85cf1	-0.10564602
85	0x3d12b637	0.035818305
86	0x3e5dcdc2	0.21660522
87	0xbe4fa3e3	-0.20277362
88	0x3d7626cb	0.06009559
89	0x3d64246c	0.055698797
90	0x3e11e759	0.14248408
91	0xbdb1ed91	-0.0868789
92	0x3e0fd23c	0.14045042
93	0x3e623ce6	0.22093543
94	0x3e0ab16d	0.13544245
95	0xbe0b9a35	-0.13633044
96	0xbde976c8	-0.11399609
97	0x3e89a54d	0.26883927
98	0xbe54f604	-0.20796973
99	0x3d23dd4a	0.04000596
100	0x3e559977	0.20859323
101	0x3e0f237e	0.13978383
102	0x3d8f4dfe	0.06997298
103	0xbdacac9a	-0.08431359
104	0x3dcbefa5	0.09957818
105	0x3e208349	0.15675081
106	0x3e085d8d	0.13316937
107	0xbdaf3c34	-0.08556405
108	0xbd4974f2	-0.049183793
109	0x3d22026f	0.039553102
110	0xbe68994a	-0.22714725
111	0xbe0e4f3f	-0.13897417
112	0xbd12a1ba	-0.035798766
113	0xbd5133dd	-0.05107485
114	0x3d0cf292	0.03441102
115	0x3e81baf5	0.2533795
116	0x3e4fb1c3	0.20282654
117	0xbe2d1b3c	-0.1690492
118	0x3dc4a8eb	0.09602531
119	0x3e24947c	0.16072267
120	0xbe0066e8	-0.12539256
121	0xbda2d17d	-0.07950113
122	0xbd92ec6c	-0.07174
123	0x3d44b6a8	0.048025757
124	0xbbb9cbbc	-0.005670039
125	0xbd51316c	-0.051072523
126	0x3d2a4619	0.041570757
127	0x3d0ce555	0.034398396
128	0x3bae8b03	0.00532663
129	0xbc3efc02	-0.011656763
130	0xbc7c7ace	-0.015410138
131	0x3d3d9dcb	0.04629306
132	0xbe443c05	-0.1916352
133	0x3db88000	0.09008789
134	0xbb8eeb52	-0.0043615485
135	0xbe0037cf	-0.1252129
136	0x3e80da65	0.25166622
137	0x3d30f0d1	0.04319841
138	0xbdeae50c	-0.114694685
139	0x3de36d4e	0.111048326
140	0xbc8abc36	-0.01693545
141	0xbe1c9ae1	-0.15293457
142	0x3e22f013	0.15911894
143	0x3dbb9dcd	0.091609575
144	0x3b1a6b56	0.0023562512
145	0x3c7f5e22	0.015586408
146	0x3e557da1	0.20848705
147	0xbe5e8d1f	-0.21733521
148	0xbe39a8ac	-0.1813075
149	0xbdaff0a2	-0.08590819
150	0xbdf61586	-0.12015824
151	0x3bbbb81f	0.005728736
152	0x3dc6e440	0.09711504
153	0xbde8aaf5	-0.113607325
154	0xbd9103ff	-0.0708084
155	0x3df8b376	0.121436045
156	0x3e6078f1	0.21921135
157	0x3d54042e	0.0517618
158	0x3dacaa35	0.08430902
159	0x3da3be41	0.079952724
160	0xbdec610e	-0.11541949
161	0x3d93c210	0.07214749
162	0xbe137010	-0.14398217
163	0x3d87e5f5	0.06635658
164	0xbdef96e3	-0.11698701
165	0xbd26bd0f	-0.040707644
166	0x3d8b547d	0.06803224
167	0xbe28acb8	-0.16472137
168	0x3db3054d	0.087412454
169	0xbe38e0a2	-0.1805444
170	0xbdfa3613	-0.12217345
171	0xbe099836	-0.1343697
172	0x3d5d46e9	0.054022703
173	0x3e368455	0.17823918
174	0xbe23933b	-0.15974133
175	0x3dffc79f	0.124892466
176	0x3dadcc7d	0.08486269
177	0x3dd03dcc	0.10168037
178	0x3c81968d	0.015818859
179	0x3d043625	0.0322782
180	0x3e8a12ce	0.26967472
181	0x3d53eb06	0.051737808
182	0x3d5cd56c	0.053914472
183	0xbd86bbd9	-0.06578798
184	0xbb936d30	-0.0044991
185	0x3e18da19	0.14926948
186	0x3d7da461	0.061924342
187	0x3e8055a5	0.25065342
188	0xbcfdaad0	-0.030965239
189	0xbd8617a4	-0.06547478
190	0xbe2f7bde	-0.17137095
191	0x3dac8795	0.08424298
192	0x3dde6fe6	0.10861187
193	0xbe760f7a	-0.24029341
194	0xbe35c3c4	-0.1775046
195	0x3e4f8fb2	0.20269659
196	0x3e24da5e	0.16098925
197	0x3d0cd349	0.034381185
198	0xbe16323c	-0.146676
199	0x3e259346	0.16169462
200	0xbe3da9f9	-0.1852187
201	0x3c8bf0ea	0.01708265
202	0x3e1d9399	0.15388335
203	0xbe21f00b	-0.15814225
204	0x3cd4d207	0.025979055
205	0xbc9e0fd3	-0.019294655
206	0xbbc6cb23	-0.0060666963
207	0x3d320707	0.043463733
208	0x3e45c46f	0.19313215
209	0x3e659977	0.22421823
210	0xbc0a7f8e	-0.008453263
211	0x3e10c58c	0.14137858
212	0xbc5d3f39	-0.013503843
213	0x3e00fc45	0.12596233
214	0xbd8208c8	-0.06349331
215	0x3dfbe4f3	0.12299528
216	0x3e154f12	0.14580944
217	0xbe182f5c	-0.14861816
218	0x3e7d4f42	0.24737266
219	0xbd432ec6	-0.04765203
220	0xbd271f46	-0.04080131
221	0x3db4b9cc	0.088245004
222	0xbd7ad090	-0.061234057
223	0x3c89603c	0.016769521
224	0x3dabcfa4	0.08389214
225	0x3d8ac30d	0.06775484
226	0xbdb79ea5	-0.08965806
227	0xbe80b17b	-0.25135407
228	0x3cdd9af4	0.027051426
229	0xbe0c8902	-0.1372414
230	0x3e10f9b5	0.14157756
231	0xbc90f7fa	-0.01769637
232	0x3e1a088d	0.15042324
233	0xbdb68815	-0.08912674
234	0xbdd1b2f6	-0.10239212
235	0xbd2c85b1	-0.042119686
236	0x3dd451ae	0.10367142
237	0xbd8e76c2	-0.06956245
238	0x3dc84f3f	0.0978074
239	0x3c4e110d	0.012577307
240	0xbe0e844a	-0.13917652
241	0x3d60ac0e	0.054851584
242	0xbbb99178	-0.005663093
243	0xbc26d0ce	-0.010181619
244	0xbddfb0c0	-0.10922384
245	0xbdb7c1d8	-0.0897252
246	0xbd152cd3	-0.0364197
247	0x3d8cf9a1	0.068835504
248	0xbe5ea4d7	-0.21742569
249	0xbdd7e0bb	-0.10540911
250	0x3ca72cd6	0.020407122
251	0x3d8881e6	0.06665401
252	0xbe4bdf57	-0.19909416
253	0xbe2e434f	-0.17017864
254	0xbc0c050b	-0.008546124
255	0x3dd0b6ec	0.101911396

encoder.6.bias f4 [8]
0	0x3ce344d6	0.027742784
1	0xbd8d9d5b	-0.06914779
2	0x3e498789	0.19680609
3	0x3d619f23	0.055083405
4	0x3e2664ce	0.16249391
5	0xbc8072d3	-0.015679752
6	0x3d8d054d	0.06885777
7	0xbdc9660c	-0.09833917

decoder.0.weight f4 [32, 8]
0	0xbbd6d13b	-0.006555704
1	0x3ec17e1b	0.37791523
2	0xbeaf2d53	-0.34214267
3	0xbe99e247	-0.30055448
4	0xbeac0900	-0.33600616
5	0xbe18b239	-0.14911737
6	0xbcf49afa	-0.029859055
7	0xbdcd6d0f	-0.10030567
8	0x3ec3a3e9	0.3821099
9	0xbea614e1	-0.32437804
10	0xbe85ee1e	-0.26158231
11	0xbdb3cefd	-0.08779714
12	0x3e9fa9b1	0.31184152
13	0x3e14638c	0.14491099
14	0xbd00b2bd	-0.031420458
15	0xbe251249	-0.16120256
16	0x3e1d1ac5	0.15342243
17	0xbe5830d3	-0.21112375
18	0x3eab5a2a	0.33467227
19	0xbd86bccf	-0.06578981
20	0xbdecaa77	-0.11555951
21	0xbe51a4b4	-0.20472986
22	0x3e331374	0.1748789
23	0xbe72b9a4	-0.23703629
24	0x3cebf458	0.028803036
25	0xbcab47e3	-0.020908302
26	0x3ec287b8	0.3799417
27	0xbcdf971e	-0.027293738
28	0xbd40f37e	-0.047107212
29	0xbbd975ba	-0.0066363486
30	0x3eb00aca	0.3438323
31	0xbd31221c	-0.04324542
32	0x3e436176	0.19080147
33	0xbe60a74c	-0.21938819
34	0xbc026396	-0.007958313
35	0xbe9311bd	-0.2872447
36	0xbe175a52	-0.14780548
37	0xbebb0915	-0.36530367
38	0xbe8cb8d5	-0.27484766
39	0xbe8a7505	-0.27042404
40	0xbd239bb8	-0.039943427
41	0x3e2c7b6c	0.16843957
42	0xbe51e80a	-0.20498672
43	0x3e4c9087	0.19977008
44	0xbeb44f56	-0.3521678
45	0x3e93d191	0.28870824
46	0x3eb25f0c	0.3483814
47	0xbed6610a	-0.4187091
48	0x3e1ff702	0.1562157
49	0x3da1bfee	0.07897936
50	0x3e5ddbfb	0.21665947
51	0xbe989ccc	-0.29807127
52	0x3e710455	0.23536809
53	0xbe16cf11	-0.14727427
54	0x3e91ae10	0.28453112
55	0x3e57e812	0.21084622
56	0x3eb7ec2a	0.35922366
57	0x3dbc318f	0.0918914
58	0xbe45440c	-0.19264239
59	0x3e80a4f0	0.25125837
60	0x3e9a01d3	0.30079517
61	0xbdb7f69e	-0.08982585
62	0xbeb96d7d	-0.36216345
63	0xbd395443	-0.045246374
64	0xbda623ca	-0.08112295
65	0x3e9ff276	0.3123967
66	0xbe5d01d9	-0.21582736
67	0x3d2110aa	0.039322533
68	0xbc7acb70	-0.015307292
69	0xbe21acaf	-0.1578853
70	0xbeade7b8	-0.3396585
71	0xbbb04b7c	-0.005380092
72	0xbda478db	-0.08030864
73	0x3e9c9918	0.3058555
74	0xbe762ce3	-0.2404056
75	0x3eb04d16	0.34433812
76	0x3e5027bc	0.20327657
77	0x3d196076	0.037445508
78	0x3e9f16ba	0.31072026
79	0x3e2e833f	0.17042254
80	0x3e715a28	0.23569548
81	0xbe392381	-0.1807995
82	0x3d1f2da3	0.038861882
83	0x3ea12012	0.3146978
84	0x3e90e229	0.28297547
85	0xbe25b054	-0.16180545
86	0xbea2ec46	-0.31820887
87	0xbeb39291	-0.3507276
88	0xbea39a79	-0.3195379
89	0x3df6b70b	0.120466314
90	0xbeb4674a	-0.35235053
91	0xbe8a0127	-0.26954004
92	0xbdd5d3c1	-0.104407795
93	0xbe2e51fd	-0.17023464
94	0xbe26188d	-0.16220303
95	0xbe0d91e6	-0.13825187
96	0xbdf4a8f0	-0.11946285
97	0x3e1acb45	0.15116604
98	0xbe49d548	-0.19710267
99	0xbdcf1351	-0.10111106
100	0xbea55961	-0.32294753
101	0x3dd23e94	0.10265842
102	0xbe90ba95	-0.2826735
103	0x3e491fd6	0.1964105
104	0x3d5169fb	0.05112646
105	0x3e944d3e	0.2896518
106	0x3e189253	0.14899568
107	0xbd9b2596	-0.07575528
108	0xbec92f40	-0.3929386
109	0x3e4e1e9f	0.20128869
110	0xbdd5c9a5	-0.10438851
111	0xbd06388d	-0.032768775
112	0xbe07244c	-0.1319744
113	0xbdcf04c5	-0.101083316
114	0x3eb75b57	0.35811874
115	0xbda92a4f	-0.08260023
116	0x3eb0b85c	0.34515655
117	0xbd896ba2	-0.067099825
118	0x3dd4e8df	0.10395979
119	0xbea2916e	-0.3175158
120	0xbe016920	-0.12637758
121	0x3e9ae6f6	0.30254334
122	0xbebd751b	-0.37003407
123	0xbd445afd	-0.047938336
124	0x3e9ca7ae	0.3059668
125	0x3d181e47	0.03713825
126	0xbcc6ae65	-0.02425308
127	0x3dd51a16	0.10405366
128	0x3d99eb51	0.07515586
129	0xbec42fd3	-0.38317737
130	0x3e916c60	0.28402996
131	0x3dd53a7a	0.10411544
132	0x3eb029fd	0.34407035
133	0xbebb4e9b	-0.3658341
134	0xbe720166	-0.23633346
135	0x3d90c373	0.07068529
136	0x3e1e45f0	0.15456367
137	0xbe2ff80f	-0.1718447
138	0x3e3ec704	0.18630606
139	0xbed028da	-0.40656167
140	0x3e969b10	0.29415178
141	0x3cdfd2a0	0.027322114
142	0x3e5fb805	0.21847542
143	0xbeaabac5	-0.3334562
144	0x3e383c6c	0.17991799
145	0xbeca7c81	-0.39548114
146	0x3a1fde8e	0.0006098532
147	0xbd9e9b43	-0.077444576
148	0x3c59771e	0.013273029
149	0xbe9e3880	-0.3090248
150	0x3ecac5a9	0.39603928
151	0xbeae187a	-0.3400305
152	0xbe234931	-0.15945889
153	0x3e6966dd	0.22793145
154	0xbe4526f8	-0.19253147
155	0x3d514c84	0.05109836
156	0x3e9da8ba	0.3079279
157	0x3d26324f	0.04057532
158	0x3e033793	0.12814169
159	0x3ec685b4	0.38773882
160	0xbd2b5295	-0.041826803
161	0xbe184ec4	-0.14873797
162	0x3ea90765	0.33013454
163	0x3e549434	0.2075966
164	0x3eb5639c	0.35427558
165	0x3e85622b	0.2605146
166	0xbe425b06	-0.18980035
167	0xbda8a3fc	-0.082344025
168	0x3e257e14	0.16161376
169	0x3e13525e	0.1438689
170	0x3e21485f	0.15750264
171	0x3e84281e	0.25811857
172	0xbc776f50	-0.015102223
173	0xbe795745	-0.24349697
174	0x3dbf5e74	0.093441874
175	0xbe30aefe	-0.17254254
176	0xbe236275	-0.15955527
177	0xbe0bf3ad	-0.13667174
178	0x3d68fb64	0.05688037
179	0x3ef247d8	0.47320437
180	0xbdb2c9cf	-0.08729898
181	0x3eb40f82	0.35168082
182	0xbd9e9148	-0.07742554
183	0x3e52f1f7	0.20600115
184	0x3ea779b0	0.32710028
185	0x3e673ed4	0.22582561
186	0xbdce28dc	-0.10066387
187	0x3dadc3f5	0.084846415
188	0xbe9af91a	-0.30268174
189	0x3ecca034	0.39965975
190	0xbe70d2e6	-0.23517951
191	0x3c8a6933	0.016895866
192	0xbccbf680	-0.024897814
193	0x3e57b9ad	0.21066923
194	0x3ea6ad6a	0.3255418
195	0xbe7abe5f	-0.24486683
196	0x3e8175a8	0.25285077
197	0xbeaa3033	-0.33239898
198	0x3ed4af29	0.41539887
199	0xbd59c912	-0.05317027
200	0x3c87a1e6	0.016556691
201	0xbe74b978	-0.23898876
202	0xbeb73a86	-0.35786837
203	0x3e38d2a8	0.18049109
204	0x3e3a9d08	0.18223965
205	0x3e0e97c2	0.13925079
206	0x3e858e09	0.26084927
207	0xbe095d63	-0.1341453
208	0xbdc86d24	-0.09786442
209	0x3e9a7a17	0.30171272
210	0xbe73ae37	-0.23796926
211	0xbdf9c39c	-0.12195513
212	0xbccfd0aa	-0.025368053
213	0x3ed6c585	0.4194757
214	0x3e7c3769	0.24630512
215	0x3cf4866f	0.02984926
216	0xbe880816	-0.2656867
217	0xbe9b6c0c	-0.3035587
218	0x3eb3e941	0.35138896
219	0xbe96d1d3	-0.29456958
220	0x3bb184c9	0.0054174406
221	0x3b58032d	0.0032960877
222	0xbcdd97d7	-0.027049942
223	0x3e256540	0.16151905
224	0xbec36b23	-0.38167676
225	0x3ea4b3ba	0.3216837
226	0x3bc969cf	0.0061466466
227	0x3d10a44c	0.035312936
228	0xbeaf9923	-0.34296522
229	0x3e5200de	0.20508143
230	0xbea9cb2d	-0.33162823
231	0xbe759610	-0.23983026
232	0xbdeb4334	-0.11487427
233	0x3bd17d80	0.0063931346
234	0x3d26cde0	0.04072368
235	0x3e17774a	0.14791599
236	0xbd2cc0c0	-0.04217601
237	0xbe7215be	-0.23641106
238	0x3d988f64	0.074492246
239	0x3e803161	0.25037673
240	0x3ed9e108	0.42554498
241	0xbe9544f8	-0.2915418
242	0x3e6276c3	0.22115617
243	0x3e3b0eca	0.1826736
244	0xbe38787c	-0.18014711
245	0xbd997866	-0.07493667
246	0x3ceef01c	0.029167227
247	0xbea24875	-0.31695905
248	0xbe8952f3	-0.26821098
249	0xbdb657aa	-0.08903439
250	0x3db19fb0	0.08673036
251	0xbeb6649a	-0.35623628
252	0xbe84eb38	-0.25960708
253	0x3c57dcae	0.013175173
254	0xbd24e64d	-0.040258694
255	0x3e8c5c81	0.27414325

decoder.0.bias f4 [32]
0	0x3e1c4410	0.15260339
1	0x3e819e30	0.25316
2	0x3ea15eab	0.31517538
3	0x3e589783	0.21151547
4	0x3dc9ea59	0.098591514
5	0x3df73e28	0.12072402
6	0x3e865990	0.26240206
7	0x3e995788	0.29949594
8	0x3dad56aa	0.084637955
9	0xbe9498d5	-0.29022852
10	0xbe1b5bc7	-0.15171729
11	0xbea7b25e	-0.3275327
12	0x3d12fc46	0.035885118
13	0xbe1a5193	-0.1507018
14	0x3bf3817f	0.0074312086
15	0x3ea6cf30	0.32579947
16	0x3bc45b11	0.0059923013
17	0xbdd7b576	-0.10532658
18	0x3e9ce89f	0.30646226
19	0xbe813590	-0.25236177
20	0x3d2e990d	0.04262643
21	0x3e9aab82	0.30208975
22	0x3c0da7cd	0.008645964
23	0x3daf2b2b	0.085531555
24	0xbd228fdf	-0.039687987
25	0xbe7fc8f0	-0.24978995
26	0xbdb2cf97	-0.08731001
27	0x3b89171d	0.0041836635
28	0xbe8d7689	-0.27629498
29	0xbe9ad154	-0.3023783
30	0x3ea89493	0.32925853
31	0x3e9fd295	0.3121535

decoder.2.weight f4 [64, 32]
0	0xbdaaaac7	-0.083333544
1	0xbe1878cd	-0.14889832
2	0x3e4d301f	0.20037888
3	0x3dc8372e	0.0977615
4	0xbc8c3efe	-0.01711988
5	0x3e108968	0.14114916
6	0x3d230c3c	0.03980659
7	0xbdd2c957	-0.10292309
8	0xbe26138c	-0.16218394
9	0x3cd6a199	0.026200103
10	0xbc3fce50	-0.011706904
11	0x3c68c310	0.014206663
12	0xbcdd0121	-0.026978077
13	0x3e03f0bc	0.12884802
14	0xbd60fa0d	-0.054925967
15	0xbdb234c5	-0.08701471
16	0xbe59b936	-0.21262059
17	0x3e1427b9	0.14468278
18	0x3df7308b	0.12069806
19	0x3df937a6	0.12168817
20	0xbe5053dc	-0.2034449
21	0x3e0a636e	0.13514492
22	0x3cf44e87	0.029822601
23	0x3d7725e4	0.06033887
24	0x3d201a70	0.039087713
25	0x3e03e6a8	0.12880957
26	0x3dfa3fe6	0.12219219
27	0x3b69b438	0.0035660397
28	0xbc57972f	-0.013158604
29	0xbd017520	-0.03160584
30	0x3e4da00a	0.20080581
31	0xbd9ead5b	-0.07747909
32	0x3de7482a	0.11293061
33	0x3e2903b9	0.16505326
34	0x3e379fc5	0.17932041
35	0xbcdac6f1	-0.02670619
36	0x3e48cef6	0.196102
37	0xbe0b1d73	-0.13585453
38	0xbd418b97	-0.047252264
39	0xbd803e81	-0.06261922
40	0x3e24759e	0.16060492
41	0x3c2818fa	0.010259861
42	0x3e597d44	0.21239191
43	0x3e2c3293	0.16816168
44	0x3e24bea2	0.16088346
45	0x3e0151fe	0.12628934
46	0xbdba9220	-0.091099024
47	0xbdbb5c61	-0.09148479
48	0x3e08c2e9	0.13355602
49	0x3e5659fc	0.20932764
50	0x3e2c8b34	0.16849977
51	0xbc8c25a8	-0.0171078
52	0xbd6a18d5	-0.057152588
53	0x3dd61403	0.10453036
54	0xbd6c863f	-0.057745215
55	0xbdcc6315	-0.09979836
56	0x3e1f3e19	0.15551032
57	0x3df7299f	0.120684855
58	0xbdf6c8ba	-0.12050004
59	0x3c886b7e	0.016652819
60	0xbdf13a1e	-0.11778663
61	0xbb824100	-0.0039750338
62	0xbe087f66	-0.13329849
63	0x3c7ecec0	0.015552223
64	0xbe24e072	-0.16101244
65	0x3e0a2560	0.1349082
66	0x3e2ba588	0.16762364
67	0xbb0a3f69	-0.0021094924
68	0x3cac585b	0.021038225
69	0xbe0c328d	-0.13691159
70	0x3e4558d2	0.19272164
71	0xbb8a6977	-0.004223998
72	0xbdcd48fb	-0.100236855
73	0x3e3ca799	0.18423308
74	0x3d2cc06d	0.0421757
75	0x3db9a183	0.09064009
76	0xbc49073b	-0.01226979
77	0x3d855005	0.06509403
78	0xbd09a2ad	-0.033602405
79	0xbdf1435f	-0.11780428
80	0x3e00073c	0.1250276
81	0x3e2d92cf	0.16950534
82	0x3e5e3ce9	0.21702923
83	0xbd8257e2	-0.063644186
84	0x3e634cdc	0.22197288
85	0xbdd16a2e	-0.1022533
86	0x3e45e284	0.1932469
87	0x3d4568ce	0.048195653
88	0xbd290772	-0.041266866
89	0xbd8fbba4	-0.070182115
90	0x3d61f262	0.055162795
91	0x3dc4db9c	0.096122
92	0xbdc004d1	-0.09375919
93	0xbdba05e2	-0.09083153
94	0x3e16a9c0	0.14713192
95	0x3caf9745	0.021434436
96	0x3db3bec9	0.08776624
97	0x3d3d8234	0.04626675
98	0xbc5cbcf5	-0.013472785
99	0xbd62b206	-0.055345558
100	0x3c9ff65b	0.019526651
101	0xbdd23025	-0.10263089
102	0x3e101e3d	0.14074035
103	0xbe6da702	-0.2320824
104	0xbdb67917	-0.08909815
105	0xbe2878f3	-0.16452388
106	0xbda151cb	-0.07876929
107	0xbd11ee50	-0.035627663
108	0xbe2b93b9	-0.1675557
109	0xbe046b95	-0.12931664
110	0x3e19121f	0.14948319
111	0xbe2fc66f	-0.1716554
112	0x3e0e0adc	0.1387133
113	0xbdce767d	-0.100811936
114	0x3db1a8a0	0.08674741
115	0x3e21b59b	0.15791933
116	0xbde2ffbe	-0.11083935
117	0x3dcf1db6	0.10113089
118	0xbda0098e	-0.078143224
119	0xbdb030a6	-0.08603029
120	0x3e383fdb	0.17993109
121	0xbe46187b	-0.19345276
122	0x3e628ce1	0.22124054
123	0x3def36c3	0.11680367
124	0xbdc74b1a	-0.09731121
125	0x3d3688d8	0.044564098
126	0x3e4e31ed	0.20136233
127	0xbe157f7d	-0.14599414
128	0xbe193978	-0.14963329
129	0xbd7ba929	-0.06144062
130	0x3e475fc5	0.19470127
131	0x3b7fad59	0.0039013235
132	0x3e61e4c3	0.22059922
133	0xbe40b2a4	-0.18818146
134	0x3e4c5ae5	0.19956549
135	0xbe01c500	-0.12672806
136	0x3dbd2dab	0.09237226
137	0xbe5a5b3d	-0.21323867
138	0x3df797b0	0.12089479
139	0x3d5a47e8	0.05329123
140	0xbdb492b4	-0.08817044
141	0xbe42263b	-0.18959896
142	0x3dd78f8d	0.10525427
143	0x3da6e3f0	0.081489444
144	0x3d38f19c	0.04515229
145	0x3e6467d7	0.22305237
146	0x3e6b1d4d	0.22960396
147	0xbdddd6ed	-0.108320095
148	0x3df5d498	0.1200344
149	0x3dd11015	0.102081455
150	0xbe17af6a	-0.14813009
151	0xbcf778fa	-0.030209053
152	0x3e27212a	0.16321245
153	0xbe28403e	-0.16430756
154	0x3de61b1e	0.11235641
155	0x3d34b844	0.044121042
156	0x3c993b00	0.018704891
157	0x3e339317	0.17536579
158	0x3e38ce7d	0.18047519
159	0x3e1ef5e7	0.15523492
160	0x3de63009	0.11239631
161	0xbc9bd5aa	-0.019022781
162	0x3d8b7335	0.06809083
163	0x3e6d6109	0.23181547
164	0x3e32beb2	0.17455557
165	0x3e0af3f9	0.1356963
166	0x3dd2b3d9	0.102882095
167	0xbde69348	-0.112585604
168	0xbe42ed29	-0.19035782
169	0x3c58c668	0.0132308975
170	0x3d89ce30	0.0672878
171	0xbd78c046	-0.06073024
172	0x3e16aaae	0.14713547
173	0x3e34304f	0.17596553
174	0xbdccf58d	-0.100077726
175	0xbe2ac9ac	-0.16678494
176	0x3e2ea77a	0.17056075
177	0xbb83183e	-0.0040006926
178	0xbd2abe8d	-0.04168563
179	0x3e03cf13	0.12871961
180	0x3d077e5f	0.0330795
181	0xbdc5ad65	-0.09652213
182	0x3d56f256	0.052477203
183	0xbc84df47	-0.016219748
184	0x3e42460c	0.18972033
185	0x3e4fd34c	0.20295447
186	0x3e3e8103	0.18603902
187	0x3cb8e33c	0.022569291
188	0xbe30445b	-0.17213576
189	0x3de7bae2	0.11314942
190	0x3e0a7d59	0.13524379
191	0x3d40377e	0.04692792
192	0xbe2ec1c8	-0.17066109
193	0x3e6b100a	0.22955337
194	0x3e31efa1	0.17376567
195	0xbd19607a	-0.037445523
196	0x3d4d0d2e	0.050061397
197	0xbe478af6	-0.19486603
198	0x3df1a23a	0.117985204
199	0x3e539e75	0.20665915
200	0xbe0f38ae	-0.13986465
201	0xbc852a8b	-0.016255638
202	0x3e1b42f8	0.15162265
203	0xbda22843	-0.079178356
204	0xbdb852de	-0.09000181
205	0x3d08deb4	0.03341551
206	0xbced55cf	-0.02897158
207	0x3e57c65f	0.21071766
208	0x3e798b8e	0.24369642
209	0x3e5d7517	0.21626697
210	0xbe0abc7f	-0.13548468
211	0x3deeef24	0.11666706
212	0x3e88691e	0.26642698
213	0x3e1a5c34	0.15074235
214	0x3e25208c	0.16125697
215	0x3d0d1fc8	0.034454137
216	0x3e51235a	0.20423642
217	0x3e479648	0.19490921
218	0xbdc1496c	-0.09437832
219	0x3e4cb185	0.19989593
220	0x3d3ea0b0	0.046539962
221	0x3d509b18	0.05092916
222	0x3e4b3927	0.1984602
223	0xbdfcb827	-0.12339812
224	0x3cf83eb3	0.030303335
225	0xbca430ea	-0.020042855
226	0xbd44295d	-0.04789101
227	0xbd0ce74c	-0.03440027
228	0x3cabf065	0.020988652
229	0x3e10a641	0.14125921
230	0xbe21ae41	-0.15789129
231	0xbdf101ba	-0.117679074
232	0x3e0971f6	0.13422379
233	0xbd7a1b1f	-0.06106102
234	0x3dfb0dd5	0.122584976
235	0x3e3f401a	0.18676797
236	0xbd87e69e	-0.066357836
237	0x3e1ee12c	0.15515584
238	0x3da2ca1d	0.07948706
239	0x3e118f4e	0.14214823
240	0xbde55104	-0.11197093
241	0xbda05739	-0.078291364
242	0x3d602653	0.05472405
243	0xbdabbf5a	-0.08386107
244	0xbded39ef	-0.115833156
245	0xbd8cdc01	-0.068779
246	0xbcd3d8e1	-0.025860252
247	0x3e4ce30f	0.20008491
248	0x3e05a050	0.13049436
249	0x3df65510	0.12027943
250	0x3e811a6e	0.25215477
251	0x3c9952e8	0.01871629
252	0x3ca1b3bb	0.019739022
253	0x3d8b7610	0.06809628
254	0x3df80f6c	0.121123165
255	0xbd858e2c	-0.06521258

decoder.2.bias f4 [64]
0	0xbdc6839c	-0.09693071
1	0xbe169a97	-0.14707409
2	0x3db8497d	0.08998392
3	0x3dda23e1	0.106513746
4	0xbd5f333b	-0.054492217
5	0xbdcea4ab	-0.10090002
6	0x3dc1acea	0.09456809
7	0x3dff231c	0.124578685
8	0xbe05c570	-0.13063598
9	0xbdcbb25a	-0.09946127
10	0x3de02712	0.10944952
11	0x3e1a23a5	0.1505266
12	0x3db46bc5	0.08809618
13	0x3cab1196	0.020882409
14	0xbe0a511e	-0.13507506
15	0xbcb63707	-0.022243036
16	0x3db87b3b	0.09007879
17	0x3e0765ea	0.13222471
18	0x3d149138	0.036271304
19	0x3e334237	0.17505728
20	0x3daf7c4c	0.085686296
21	0x3e1b668a	0.15175834
22	0x3e0feeb1	0.14055897
23	0x3e423fff	0.18969725
24	0x3e275182	0.16339687
25	0xbdd48acc	-0.10378036
26	0xbd0e926e	-0.034807615
27	0xbd958b28	-0.073019326
28	0xbe32c44e	-0.17457697
29	0x3e2764fa	0.16347113
30	0x3e21cb5b	0.1580023
31	0xbbe7a99b	-0.007069779
32	0x3cfafa3a	0.030636895
33	0x3d7d53aa	0.061847366
34	0x3e0058b6	0.1253384
35	0xbde2fe08	-0.11083609
36	0x3ceb20c2	0.028702144
37	0xbe31f2f3	-0.17377834
38	0x3e2944bd	0.16530128
39	0x3dda589d	0.10661433
40	0xbc24d250	-0.010059908
41	0xbdc4a0ad	-0.09600959
42	0xbd817e54	-0.06322923
43	0x3e2d6d24	0.16936165
44	0x3e035881	0.1282673
45	0x3c4302e9	0.011902549
46	0x3dbfaac8	0.09358746
47	0x3e01e639	0.12685479
48	0xbe2021dc	-0.15637916
49	0xbded0886	-0.11573891
50	0x3b818e0a	0.0039537
51	0x3de5a464	0.11212996
52	0xbe1d6255	-0.15369542
53	0x3e3ddfcc	0.18542403
54	0x3d969ae4	0.07353762
55	0xbdf26f93	-0.11837687
56	0xbdea79db	-0.11449023
57	0xbdeb4e23	-0.11489513
58	0x3e37db04	0.17954642
59	0x3e0b2abc	0.1359052
60	0xbdb81a0d	-0.08989344
61	0x3e2fdab7	0.17173277
62	0xbddb9b04	-0.10722926
63	0xbd8c4587	-0.06849199
