pyCode/CNN/Autoencoder4HighFre.pth (torch, 94733 bytes, 16 tensors)

encoder.0.weight f4 [128, 4]
0.00814165 -0.2841739 0.25465932 0.19469032 -0.09684802 0.368052 -0.30633926 0.16536328
-0.045552902 -0.09122507 -0.43899518 0.40247166 0.28731585 -0.27788326 0.25756362 -0.18872495
0.19812177 -0.080371685 0.46374252 -0.40854672 -0.14813328 0.16638854 -0.36821333 -0.2862266
-0.49627677 -0.2688044 0.2005769 0.44272915 -0.5417725 -0.24800444 -0.5577619 0.41739705
-0.10391175 -0.19873255 0.13530357 0.5188345 0.3233213 -0.23471284 0.443513 -0.46692058
-0.48154503 -0.20404646 0.2083274 0.504188 -0.19443856 -0.11446674 -0.29677767 0.46959835
-0.35865584 -0.14098035 -0.52036065 0.18150067 -0.3515598 0.44769832 -0.108683735 0.2690462
-0.2470415 0.36637917 -0.2924244 0.18145424 0.39684817 0.42155993 0.29109067 0.32314086
0.36085042 0.13106182 0.39326885 0.17928304 -0.14311798 -0.06281484 0.046371825 -0.28955963
0.11422649 0.3805691 0.24899638 -0.42300484 0.34347922 -0.39746904 -0.4317189 0.008653279
-0.23069298 0.48760697 -0.026491161 -0.43143502 0.4756763 0.23962179 -0.41499913 0.21289594
-0.23674749 0.032062948 -0.2999248 -0.15652665 0.008015401 -0.1572122 0.13493402 -0.23274636
0.09624482 0.34669825 0.5486355 0.2963153 0.48213214 0.15708378 0.009073375 -0.28393963
-0.06361684 -0.10897874 -0.21865979 0.1943249 0.49562687 -0.45155552 -0.3665545 -0.27032223
0.21858643 0.12441408 0.2541622 -0.48063955 -0.49874333 0.24971211 -0.29597908 -0.092528276
-0.053194407 -0.43768865 -0.5024955 0.073007554 -0.54198533 -0.33506644 0.3701748 -0.21849109
0.60649836 0.13515039 0.31386483 0.15755154 0.015795901 -0.29180005 -0.03891114 -0.45657444
-0.13696153 -0.38210112 0.032050587 -0.3004051 0.35159922 0.37413812 -0.23334335 0.015393469
0.37042013 0.30047652 -0.28924742 -0.18347128 -0.40920752 -0.0485637 0.5249548 -0.28073898
-0.37969476 -0.4299185 0.09694669 0.41261435 -0.54188627 -0.5872395 -0.07417833 0.3104355
0.30129415 -0.5434811 0.35329956 0.16820179 0.020490322 0.16245773 0.2272842 -0.11927854
-0.1765306 0.25418046 -0.09885646 0.18709663 0.1295382 0.24787034 -0.37730983 -0.26140526
-0.32914376 0.23617381 -0.25822067 0.24190821 0.12702125 0.15053 -0.37279817 0.33464602
0.38660717 0.05780954 -0.24658355 0.36637837 -0.13809082 0.40250322 -0.23889144 -0.22225723
0.47957146 0.28329208 0.30194628 -0.01883105 0.22938646 0.25911695 0.22537844 -0.17689237
-0.22476186 0.38286492 0.22464782 -0.1754331 -0.016538316 0.031595524 -0.46302396 0.44206485
-0.2641392 0.031679846 -0.41670635 0.0932738 0.2288107 -0.07806133 0.047036085 0.40751883
-0.6187037 -0.2303269 -0.031363484 0.17727222 -0.037000757 -0.433761 0.36641312 -0.3819094
0.0819489 0.23792005 -0.39612585 -0.33736658 0.35532328 -0.03228368 0.5132844 0.14752302
0.3724005 0.20785275 -0.0642132 0.35522982 0.16491553 -0.3597184 -0.22037338 0.48818752
-0.41655627 0.21039057 0.33523607 0.2124844 -0.39007127 0.15034384 0.3726338 0.2045004
-0.22189957 -0.13739507 0.17374693 -0.56202465 -0.36215782 0.48483804 -0.008374323 -0.026015114
00000000: 8e64 053c 3e7f 91be b562 823e e65c 473e
00000010: 4158 c6bd 5071 bc3e 80d8 9cbe fe54 293e
00000020: ae95 3abd 36d4 babd fac3 e0be c410 ce3e
00000030: 101b 933e b746 8ebe 61df 833e 1d41 41be
00000040: 6fe0 4a3e e999 a4bd a96f ed3e 092d d1be
00000050: 40b0 17be c261 2a3e 7586 bcbe 4b8c 92be
00000060: fd17 febe bba0 89be 0864 4d3e 65ad e23e
00000070: 9ab1 0abf e0f4 7dbe 7cc9 0ebf 11b5 d53e
00000080: afcf d4bd 8c80 4bbe 058d 0a3e 56d2 043f
00000090: 5f8a a53e 9058 70be 2314 e33e 3710 efbe
000000a0: 128d f6be 8ef1 50be c753 553e 7712 013f
000000b0: e71a 47be 8a6d eabd 3ef3 97be 326f f03e
000000c0: bda1 b7be 275d 10be 5b36 05bf 50db 393e
000000d0: a5ff b3be b738 e53e 9495 debd 6cc0 893e
000000e0: 72f8 7cbe 0d96 bb3e a7b8 95be 24cf 393e
000000f0: af2f cb3e b4d6 d73e d609 953e b872 a53e
00000100: 63c1 b83e 1235 063e 895a c93e f995 373e
00000110: 858d 12be 11a5 80bd 62f0 3d3d 2941 94be
00000120: 94ef e93d f4d9 c23e e8f8 7e3e 1794 d8be
00000130: 82dc af3e 1081 cbbe 420a ddbe 7cc6 0d3c
00000140: c83a 6cbe 9fa7 f93e fe03 d9bc 0de5 dcbe
00000150: d88b f33e 6a5f 753e c47a d4be 6501 5a3e
00000160: ef6d 72be 7054 033d be8f 99be 8648 20be
00000170: 0753 033c 3cfc 20be 252c 0a3e 1055 6ebe
00000180: 011c c53d 6f82 b13e 6073 0c3f a4b6 973e
00000190: 06da f63e 92da 203e 7ea8 143c 8960 91be
000001a0: 8c49 82bd 3f30 dfbd 5ae8 5fbe 1bfd 463e
000001b0: cec2 fd3e 4932 e7be 08ad bbbe ad67 8abe
000001c0: 1fd5 5f3e cfcc fe3d 8c21 823e 6316 f6be
000001d0: 495b ffbe 88b4 7f3e 928a 97be 777f bdbd
000001e0: 61e2 59bd ba18 e0be 8ca3 00bf fc84 953d
000001f0: 8dbf 0abf d48d abbe 8d87 bd3e 21bc 5fbe
00000200: 7a43 1b3f dd64 0a3e e4b2 a03e 3155 213e
00000210: 6866 813c d166 95be 4a61 1fbd 20c4 e9be
00000220: a53f 0cbe c2a2 c3be 7a47 033d b3ce 99be
00000230: d004 b43e 088f bf3e 8ff1 6ebe e334 7c3c
00000240: b5a7 bd3e 0fd8 993e 3d18 94be e5df 3bbe
00000250: a683 d1be bbea 46bd 7063 063f 05bd 8fbe
00000260: 5a67 c2be 471e dcbe fc8b c63d 3042 d33e
00000270: 0fb9 0abf 5455 16bf cfea 97bd 67f1 9e3e
00000280: 3a43 9a3e 9421 0bbf aee3 b43e 173d 2c3e
00000290: 52db a73c 525b 263e 30bd 683e 4f48 f4bd
000002a0: 70c4 34be f123 823e 4175 cabd 4296 3f3e
000002b0: a9a5 043e b9d1 7d3e c12e c1be e9d6 85be
000002c0: 8885 a8be 8cd7 713e 8035 84be c9b6 773e
000002d0: dc11 023e 8924 1a3e 67df bebe b956 ab3e
000002e0: 60f1 c53e b2c9 6c3d 6680 7cbe f295 bb3e
000002f0: ae67 0dbe e714 ce3e f59f 74be 6697 63be
00000300: 648a f53e a90b 913e b498 9a3e 9343 9abc
00000310: 49e4 6a3e faaa 843e 9bc9 663e 4623 35be
00000320: f927 66be df06 c43e 140a 663e bca4 33be
00000330: 5d7b 87bc 4f6a 013d 7a11 edbe 5356 e23e
00000340: 413d 87be bac2 013d 895a d5be 5606 bf3d
00000350: 5a4d 6a3e 9ede 9fbd e9a8 403d 4fa6 d03e
00000360: 5e63 1ebf d1da 6bbe ff76 00bd d986 353e
00000370: 1b8e 17bd ec15 debe 809a bb3e a189 c3be
00000380: d3d4 a73d 50a1 733e 02d1 cabe 50bb acbe
00000390: efec b53e e43b 04bd 9b66 033f 4610 173e
000003a0: 47ab be3e 5ad7 543e 3682 83bd afe0 b53e
000003b0: 9edf 283e 032d b8be 8fa9 61be b7f3 f93e
000003c0: dd46 d5be a070 573e 10a4 ab3e 8395 593e
000003d0: 6cb7 c7be bcf3 193e dcc9 be3e 8e68 513e
000003e0: a439 63be 4bb1 0cbe b7ea 313e d9e0 0fbf
000003f0: c06c b9be b13c f83e 7534 09bc a61d d5bc

encoder.0.bias f4 [128]
0.37910655 0.16603322 -0.30389112 0.30313662 0.06930414 0.18896435 -0.2971034 -0.35070404
0.22141178 -0.11687404 0.14682515 -0.094718 -0.13030908 0.42146298 -0.07474576 0.027593572
0.43492386 0.23558617 0.18797754 -0.118496254 -0.3480079 0.07379925 0.2760128 0.107577704
-0.2880764 -0.37535468 0.16239008 0.098762035 -0.064596556 -0.5114494 -0.11515923 -0.5951244
-0.08291247 0.34017706 -0.32436514 -0.65033865 0.19155219 0.21235521 0.2172029 -0.36561868
-0.4297283 0.32975924 0.1970727 0.32521406 0.42183304 -0.22403817 -0.29351905 -0.17308545
-0.118915126 0.3325214 0.35019264 -0.05339289 -0.27534798 0.25133297 -0.14427508 0.39660108
0.3363747 0.101547204 -0.099316366 0.39530566 -0.12472048 0.3699127 0.118207864 0.3749306
-0.013181955 -0.3900318 -0.0073329224 -0.5749178 -0.21499938 -0.450104 0.23083363 0.30730134
0.4803413 -0.2355848 -0.06299027 -0.3570909 0.035317387 -0.17446037 0.31609732 -0.35171622
0.5117684 -0.36601308 0.28363913 0.25385204 0.44263065 0.35424727 0.32572654 -0.14438799
-0.0856607 0.1830902 0.05533575 -0.3364592 -0.51085234 0.3197608 0.016662735 0.15859564
-0.09584079 -0.3591684 0.18229134 -0.23770866 0.05136651 -0.15550154 0.16160326 0.13131668
0.095007464 0.04400365 -0.2855404 -0.12164254 0.37701038 -0.26352718 0.23208362 0.33387935
-0.46636596 -0.2526084 -0.025581714 0.14891678 -0.062302556 0.14326665 -0.2826183 0.42945656
0.34573823 -0.11628843 -0.117529266 0.06856218 -0.11796693 0.14766306 0.23964575 0.22727467
00000000: 411a c23e 9d04 2a3e 9e97 9bbe b934 9b3e
00000010: 54ef 8d3d df7f 413e f01d 98be 7b8f b3be
00000020: c5b9 623e a85b efbd 5559 163e 83fb c1bd
00000030: be6f 05be ffc9 d73e 4e14 99bd ea0b e23c
00000040: 57ae de3e 803d 713e 2f7d 403e 2aae f2bd
00000050: 172e b2be 1024 973d 8d51 8d3e b351 dc3d
00000060: c07e 93be 7d2e c0be 9649 263e c043 ca3d
00000070: 334b 84bd 59ee 02bf 9ad8 ebbd 135a 18bf
00000080: 03ce a9bd b02b ae3e 3013 a6be 987c 26bf
00000090: 4226 443e a573 593e 706a 5e3e 5f32 bbbe
000000a0: 5905 dcbe 34d6 a83e 6dcd 493e 7582 a63e
000000b0: 80fa d73e 436a 65be 2148 96be 503d 31be
000000c0: c689 f3bd 3f40 aa3e 734c b33e 81b2 5abd
000000d0: 69fa 8cbe b7ae 803e d9bc 13be 4c0f cb3e
000000e0: 4e39 ac3e fbf7 cf3d 6166 cbbd 8165 ca3e
000000f0: 736d ffbd 3365 bd3e f716 f23d e7f6 bf3e
00000100: 20f9 57bc 40b2 c7be 0349 f0bb d02d 13bf
00000110: cc28 5cbe 0874 e6be a75f 6c3e 9a56 9d3e
00000120: 4bef f53e 243d 71be 0b01 81bd 9ed4 b6be
00000130: f7a8 103d bda5 32be 82d7 a13e 2614 b4be
00000140: 4103 033f 1166 bbbe 2639 913e e5f8 813e
00000150: 7ca0 e23e e65f b53e a1c5 a63e 72da 13be
00000160: e16e afbd ff7b 3b3e bda7 623d 6144 acbe
00000170: 38c7 02bf b0b7 a33e 4a80 883c e566 223e
00000180: 2d48 c4bd ece4 b7be 95aa 3a3e e669 73be
00000190: b165 523d cc3b 1fbe 537b 253e e177 063e
000001a0: 4693 c23d 2c3d 343d 5a32 92be b91f f9bd
000001b0: 8107 c13e 09ed 86be 54a7 6d3e 3cf2 aa3e
000001c0: 85c7 eebe e355 81be be90 d1bc a47d 183e
000001d0: f730 7fbd 7eb4 123e 59b3 90be bbe1 db3e
000001e0: 9a04 b13e a128 eebd 2fb3 f0bd 546a 8c3d
000001f0: a598 f1bd fc34 173e b265 753e b1ba 683e

encoder.2.weight f4 [64, 128]
0.07655363 -0.004989873 -0.10766064 -0.113514185 -0.14639878 -0.021226589 0.025954576 -0.06606921
0.07073701 -0.1639495 -0.0038374427 0.081833996 -0.23185714 0.026178373 0.10692346 -0.13478139
-0.022797177 0.010520593 -0.07268042 0.09456712 -0.048932 0.013222786 0.068982735 -0.055112302
0.04021312 -0.037500188 0.111775495 -0.0097102625 -0.017572548 0.097330265 -0.0072445055 0.084359266
0.01292669 -0.05547405 -0.043845173 0.1758547 0.032078482 -0.09328496 0.1002333 0.035967708
-0.01909551 -0.06256964 0.05347173 -0.0069433614 0.06823646 0.05232875 0.038628712 -0.0207338
-0.0026858833 0.025950253 0.026080666 -0.018272944 -0.021100663 -0.024396064 0.086431414 -0.20634352
0.027456809 -0.0014802287 0.05533746 -0.015498438 0.03808009 0.070580274 -0.07023701 -0.04318592
0.020806476 -0.088780925 0.0654902 -0.010635847 0.0075582545 -0.04193475 -0.033692326 -0.003916796
-0.0697083 -0.11926883 -0.029554186 -0.00815392 0.105229214 -0.03689981 -0.070592396 -0.0022419048
0.006203392 -0.0030645067 -0.016748361 0.02773863 0.017990392 0.017242093 0.098331995 -0.21608588
0.0506663 -0.04707727 -0.06977671 0.14518002 -0.07672937 -0.019722218 0.047791462 -0.078911915
-0.0019139629 0.032613687 -0.06432581 0.075370505 -0.07278909 0.070595615 0.07447031 0.0045662536
-0.01598695 -0.010091371 -0.037472747 -0.028888257 0.021557154 -0.09321674 -0.015650125 -0.053917356
-0.08553378 -0.017225778 0.0780004 0.06523139 -0.089915365 0.06972445 0.05745152 0.07853134
0.08085892 0.011810236 0.06306466 -0.08655335 0.03190053 0.082790725 -0.01716251 0.03783943
0.042128433 0.06497946 0.0076388996 -0.13097714 -0.107592165 -0.11167594 0.12518167 0.15697102
-0.050917648 0.026663955 0.06836505 -0.0060319193 0.1405654 0.05702026 0.061165106 -0.06334825
-0.06475261 -0.032802667 -0.09580718 -0.104529016 -0.06032757 -0.07259666 0.06655234 -0.073118545
-0.10286254 -0.03226016 0.085531384 -0.13321722 -0.12271088 0.089673676 -0.11774854 -0.072552495
0.016660644 0.021657145 -0.0355579 0.026018657 -0.042668853 -0.073502205 0.06338537 -0.017042905
0.0019049867 0.07481606 0.034594983 -0.0058536194 0.014448031 -0.094807684 0.073187105 -0.013276198
-0.035887312 -0.053132117 0.07751056 0.063204765 0.10746171 -0.05521008 0.16187848 -0.054672927
-0.08949601 0.08739408 0.06122762 0.06796342 0.06227102 0.07846745 -0.058402907 -0.05401994
0.023053553 0.26839963 -0.094739355 -0.106752485 -0.022736132 -0.16536975 0.009662409 0.034502167
-0.10193361 -0.04029786 0.0090945605 0.015830362 0.05334495 0.14365783 0.007638959 -0.003451616
-0.025977379 -0.033872254 0.06594012 -0.03192437 -0.06361229 -0.029773962 -0.04827591 -0.13429864
-0.00051201554 -0.1320314 -0.012462244 -0.15623519 -0.021634532 -0.08339337 -0.09600183 -0.1124786
-0.03822155 -0.11591224 -0.04257194 0.02468018 -0.18162622 -0.15183303 0.053995214 0.012869632
0.09091833 0.08086683 0.055650666 0.031226808 0.075179785 -0.005922795 -0.06318202 0.099855855
-0.0960971 -0.098376036 -0.019490782 -0.045090944 0.050060526 -0.08937504 -0.017127845 0.071971335
0.12683727 -0.014634261 0.10302067 -0.05417696 -0.07218984 -3.0278701e-05 -0.06102655 0.07153456
00000000: 26c8 9c3d 1782 a3bb 2e7d dcbd 207a e8bd
00000010: 90e9 15be 62e3 adbc b19e d43c 4b4f 87bd
00000020: 91de 903d 61e2 27be 9b7d 7bbb 9598 a73d
00000030: f56b 6dbe 0774 d63c b0fa da3d 2204 0abe
00000040: 25c1 babc 915e 2c3c 79d9 94bd 68ac c13d
00000050: ec6c 48bd 62a4 583c d246 8d3d 70bd 61bd
00000060: 83b6 243d cc99 19bd 8dea e43d cb17 1fbc
00000070: 4ef4 8fbc 1755 c73d 5163 edbb 8dc4 ac3d
00000080: 78ca 533c c238 63bd ff96 33bd 4113 343e
00000090: ba64 033d 2f0c bfbd 1e47 cd3d e052 133d
000000a0: 306e 9cbc 8324 80bd 2c05 5b3d 2385 e3bb
000000b0: 8fbf 8b3d ac56 563d 2439 1e3d eed9 a9bc
000000c0: a505 30bb a095 d43c 1fa7 d53c 24b1 95bc
000000d0: 4cdb acbc 41da c7bc f402 b13d b74b 53be
000000e0: 1aed e03c 3c04 c2ba 88a9 623d 29ed 7dbc
000000f0: def9 1b3d 648c 903d 6cd8 8fbd b8e3 30bd
00000100: 5872 aa3c c6d2 b5bd ba1f 863d fa41 2ebc
00000110: 3cab f73b c6c3 2bbd f700 0abd 7758 80bb
00000120: 3ac3 8ebd 3743 f4bd 9f1b f2bc 0598 05bc
00000130: 6a82 d73d 4124 17bd bf92 90bd ecec 12bb
00000140: d345 cb3b e4d5 48bb dc33 89bc 203c e33c
00000150: 9660 933c 4a3f 8d3c 4962 c93d 9e45 5dbe
00000160: 7787 4f3d 18d4 40bd 17e7 8ebd 12aa 143e
00000170: 4a24 9dbd 7d90 a1bc fbc0 433d 929c a1bd
00000180: f0dd faba ee95 053d 40bd 83bd da5b 9a3d
00000190: 7212 95bd 6f94 903d e483 983d 83a0 953b
000001a0: 10f7 82bc 4756 25bc 067d 19bd 11a7 ecbc
000001b0: a198 b03c 6be8 bebd b134 80bc 72d8 5cbd
000001c0: 562c afbd 131d 8dbc acbe 9f3d 0998 853d
000001d0: 8c25 b8bd b1cb 8e3d 4952 6b3d 0ad5 a03d
000001e0: 5d99 a53d b87f 413c 0b28 813d e242 b1bd
000001f0: 21aa 023d 2f8e a93d 6498 8cbc 85fd 1a3d
00000200: dd8e 2c3d f313 853d bc4f fa3b df1e 06be
00000210: 4859 dcbd 5bb6 e4bd a02f 003e 03bd 203e
00000220: 068f 50bd 5e6e da3c fa02 8c3d 68a7 c5bb
00000230: 60f0 0f3e 138e 693d 4388 7a3d babc 81bd
00000240: 049d 84bd 175c 06bd 8e36 c4bd 4f13 d6bd
00000250: 0b1a 77bd 8fad 94bd 984c 883d 2dbf 95bd
00000260: 98a9 d2bd 3b23 04bd 142b af3d 186a 08be
00000270: d84f fbbd d5a6 b73d 2626 f1bd 6796 94bd
00000280: e77b 883c 536a b13c 29a5 11bd 1425 d53c
00000290: 89c5 2ebd 5388 96bd 30d0 813d 909d 8bbc
000002a0: bfb0 f93a 2a39 993d 78b3 0d3d b8cf bfbb
000002b0: 6fb7 6c3c 882a c2bd 1fe3 953d 6984 59bc
000002c0: 93fe 12bd 10a1 59bd dbbd 9e3d 8071 813d
000002d0: e314 dc3d f723 62bd 79c3 253e b8f0 5fbd
000002e0: af49 b7bd abfb b23d d0c9 7a3d 6830 8b3d
000002f0: e60f 7f3d 8bb3 a03d e337 6fbd 0344 5dbd
00000300: ceda bc3c ad6b 893e b506 c2bd 0ca1 dabd
00000310: 2041 babc b056 29be 154f 1e3c 2552 0d3d
00000320: 92c2 d0bd 5e0f 25bd 5a01 153c adae 813c
00000330: 3c80 5a3d 0a1b 133e 3c50 fa3b 8234 62bb
00000340: 83ce d4bc a2bd 0abd 9d0b 873d 21c3 02bd
00000350: 2947 82bd 86e8 f3bc f6bc 45bd 9585 09be
00000360: c838 06ba 3d33 07be 712e 4cbc 1efc 1fbe
00000370: e73a b1bc 25ca aabd 9c9c c4bd 2e5b e6bd
00000380: 338e 1cbd 6663 edbd ea5f 2ebd 172e ca3c
00000390: 39fc 39be 1e7a 1bbe 162a 5d3d 26db 523c
000003a0: 6433 ba3d 829d a53d f4f1 633d 5dcf ff3c
000003b0: dcf7 993d 0114 c2bb 9365 81bd 3a81 cc3d
000003c0: 8ece c4bd 6079 c9bd 22ab 9fbc 48b1 38bd
000003d0: 440c 4d3d 430a b7bd b24f 8cbc b565 933d
000003e0: a1e1 013e 8ac4 6fbc 80fc d23d a9e8 5dbd
000003f0: 44d8 93bd 04ff fdb7 faf6 79bd b680 923d

encoder.2.bias f4 [64]
-0.05792513 -0.0008027506 0.064052105 -0.03279316 0.081288174 0.00047626713 -0.10815233 -0.053396128
0.099713646 0.05488416 -0.009964999 -0.033866864 -0.0059970706 0.104898535 0.0030535962 0.004190026
-0.05443462 -0.0033889762 0.050844446 0.020151734 -0.018670384 -0.007590385 0.11519933 -0.045013387
0.09293527 0.04054986 0.0317148 0.11786788 0.066862375 -0.050861835 0.023285123 0.1265234
0.016394388 0.09865285 0.010290727 0.057722367 0.08194215 0.045857728 0.012680746 0.019149942
0.044788778 -0.08663508 0.044584665 -0.065528266 0.07239391 -0.094645455 -0.05837086 -0.110767834
0.075253926 0.03422028 0.013282316 0.016062658 -0.024751227 -0.05378952 0.04346562 0.0073411902
-0.02986642 -0.0013429627 0.030252807 0.0748769 0.07944234 0.057931643 -0.009981505 -0.029785613
00000000: e742 6dbd ae6f 52ba c02d 833d 1f52 06bd
00000010: 6a7a a63d 7eb3 f939 f87e ddbd e6b5 5abd
00000020: ab36 cc3d 37ce 603d 3c44 23bc fbb7 0abd
00000030: 1383 c4bb 0bd5 d63d d81e 483b 7c4c 893b
00000040: d6f6 5ebd 9619 5ebb 4442 503d 4015 a53c
00000050: a2f2 98bc c4b8 f8bb a0ed eb3d f55f 38bd
00000060: d954 be3d 9c17 263d 61e7 013d b764 f13d
00000070: 24ef 883d 8054 50bd 71c0 be3c 5a8f 013e
00000080: 864d 863c 810a ca3d 709a 283c 4a6e 6c3d
00000090: 49d1 a73d 50d5 3b3d e7c2 4f3c 57e0 9c3c
000000a0: 7074 373d bc6d b1bd 699e 363d af33 86bd
000000b0: 4243 943d 7ad5 c1bd 4816 6fbd 3fda e2bd
000000c0: bb1e 9a3d 902a 0c3d 129e 593c d695 833c
000000d0: 16c3 cabc 6652 5cbd 0209 323d 5e8e f03b
000000e0: 6caa f4bc 5a06 b0ba bcd4 f73c 0f59 993d
000000f0: aab2 a23d bb49 6d3d 7789 23bc f500 f4bc

encoder.4.weight f4 [32, 64]
-0.07524556 -0.12155369 -0.04418871 -0.008444039 -0.08688222 -0.051688693 0.067677826 -0.15414974
-0.18811737 0.063961156 -0.088189036 -0.015728703 -0.17766565 -0.03912108 -0.020599473 0.067807496
-0.18377443 0.15085706 0.11881763 0.12452569 -0.17345499 -0.08449958 0.026299005 -0.097250156
-0.070340246 -0.07714628 0.044554196 -0.16308828 -0.047297593 -0.0067228847 0.06139109 0.015399825
0.06857513 -0.04127045 0.15311521 -0.14593036 0.03742484 0.13484429 0.1771046 -0.07069205
-0.081008546 -0.08249022 0.12588419 0.022153508 0.022703044 0.06651807 0.05962167 -0.19247797
-0.078442626 0.17133175 0.100222446 -0.017274363 -0.14356834 -0.023764696 0.11320307 0.03811189
0.1918668 -0.12573652 -0.03832309 0.04772277 0.049769577 0.10737932 -0.086212225 -0.021090582
0.050144073 0.1195662 -0.0047868937 -0.069374055 0.14017092 0.07244605 -0.028334143 0.10234237
0.122245334 0.13186964 -0.034022365 -0.064626485 -0.029772466 -0.038601544 -0.09767741 -0.004505843
-0.05851872 0.13170084 0.09113331 0.084484465 -0.034697954 0.07341238 0.13490175 0.15173724
-0.03250967 -0.065775156 0.09473016 0.11810209 0.056768775 0.083205365 0.08240432 0.14585811
-0.016947407 0.027549809 0.12720844 -0.28102204 0.08409181 -0.068813205 -0.0905899 0.14008406
0.061518718 0.046385225 -0.017583212 -0.016042583 -0.0789157 -0.1147738 -0.037965003 -0.06338518
0.106093064 0.09851788 0.10050434 -0.0864691 -0.012066058 0.04281713 -0.08011217 0.0016023825
-0.047777817 0.1359182 0.13063097 -0.022351444 0.06582972 -0.0028220832 0.004617664 0.060500532
-0.030603005 0.07082083 -0.04186621 -0.051860847 0.110260926 -0.043550838 -0.0790023 0.012919047
-0.07945034 0.0041111317 0.058877707 0.04972733 0.16848195 0.029698504 0.013714812 -0.08260502
0.06549059 0.019868847 -0.031072224 -0.13016447 0.19664165 -0.03567299 0.08334988 -0.12250181
0.10513827 -0.044529814 -0.13716143 -0.09602378 0.15507565 -0.012312167 -0.10902588 0.042067133
0.020623231 -0.06751527 -0.13210155 -0.043701515 -0.12483641 -0.053161796 0.071174555 0.04187729
-0.08148429 -0.08666146 -0.049982563 0.041185863 -0.12478571 0.08537395 0.018342497 0.054434787
-0.15324262 -0.059554588 0.013413877 0.04773374 -0.007073382 -0.09926858 0.023732582 -0.047359772
-0.039484184 -0.071438275 -0.027776841 -0.03693007 -0.0033176208 0.0069530746 -0.14886208 0.036997706
-0.07843369 0.09108745 -0.10006989 -0.10017704 0.06544521 0.011318534 0.05202733 -0.016986297
-0.06179033 0.097422525 -0.028510947 0.05145611 0.07174217 0.15053818 0.038154222 -0.11846477
-0.0369395 0.107028544 0.010499544 0.14554702 0.15171115 -0.0015200614 0.08917149 0.1474433
0.010585528 -0.019289788 -0.039313164 0.016090007 -0.059844527 0.14658973 0.14451136 0.14446157
-0.053524047 0.049949933 0.15219004 -0.10838016 0.12376937 0.08789577 0.04650868 -0.08890561
-0.022966439 0.041969914 -0.10424675 -0.121826455 0.058915004 0.08895025 0.08824412 -0.08294336
0.060811933 -0.006113493 0.03491409 0.07576667 -0.020134678 0.13281877 -0.13557597 -0.09159971
-0.043916035 -0.108972356 0.08064581 -0.10661776 0.031933352 0.035006884 0.23033409 0.11113779
00000000: 581a 9abd 24f1 f8bd 39ff 34bd de58 0abc
00000010: 4eef b1bd 86b7 53bd ac9a 8a3d 6ed9 1dbe
00000020: d7a1 40be 11fe 823d 749c b4bd 7bd9 80bc
00000030: fced 35be 6d3d 20bd 3ac0 a8bc a8de 8a3d
00000040: 5d2f 3cbe 467a 1a3e a856 f33d 5307 ff3d
00000050: 2f9e 31be 1e0e adbd 0371 d73c 172b c7bd
00000060: 8c0e 90bd defe 9dbd 767e 363d 9d00 27be
00000070: 1fbb 41bd a54b dcbb 3975 7b3d 8c4f 7c3c
00000080: 1e71 8c3d 340b 29bd 3cca 1c3e c56e 15be
00000090: ca4a 193d 9f14 0a3e e95a 353e fec6 90bd
000000a0: cfe7 a5bd a2f0 a8bd c9e7 003e 467b b53c
000000b0: bcfb b93c a03a 883d da35 743d f218 45be
000000c0: 87a6 a0bd 9771 2f3e 6d41 cd3d f782 8dbc
000000d0: 9403 13be 2eae c2bc 03d7 e73d 371b 1c3d
000000e0: bb78 443e 13c1 00be acf8 1cbd f478 433d
000000f0: 2fdb 4b3d b0e9 db3d 0990 b0bd 28c6 acbc
00000100: df63 4d3d 20df f43d 60db 9cbb fc13 8ebd
00000110: f788 0f3e 985e 943d 011d e8bc e098 d13d
00000120: c35b fa3d d608 073e 095b 0bbd e45a 84bd
00000130: 63e5 f3bc a71c 1ebd 180b c8bd c0a5 93bb
00000140: 53b1 6fbd 96dc 063e 1aa4 ba3d 3106 ad3d
00000150: 711f 0ebd 3b59 963d af23 0a3e 0261 1b3e
00000160: dc28 05bd 20b5 86bd e301 c23d 82df f13d
00000170: 6086 683d 9367 aa3d 99c3 a83d d45b 153e
00000180: 4ad5 8abc 23b0 e13c ee42 023e 1fe2 8fbe
00000190: 5438 ac3d f0ed 8cbd 3387 b9bd 3272 0f3e
000001a0: 0dfb 7b3d 6ffe 3d3d ab0a 90bc bc6b 83bc
000001b0: 8e9e a1bd 870e ebbd 3181 1bbd 17d0 81bd
000001c0: 5247 d93d bec3 c93d 38d5 cd3d b616 b1bd
000001d0: b7b0 45bc 0461 2f3d d911 a4bd 0907 d23a
000001e0: acb2 43bd 242e 0b3e 20c4 053e 601a b7bc
000001f0: bbd1 863d b3f2 38bb c64f 973b 68cf 773d
00000200: 27b3 fabc 830a 913d e77b 2bbd 0a6c 54bd
00000210: 7bd0 e13d 5d62 32bd f5cb a1bd 69aa 533c
00000220: dcb6 a2bd acb6 863b c029 713d e3ae 4b3d
00000230: 8886 2c3e 474a f33c 17b4 603c d22c a9bd
00000240: ee1f 863d fec3 a23c 2d8b febc d649 05be
00000250: 6e5c 493e d71d 12bd 58b3 aa3d 3be2 fabd
00000260: bc52 d73d e564 36bd 0c74 0cbe 1ea8 c4bd
00000270: 27cc 1e3e f9b8 49bc f648 dfbd 964e 2c3d
00000280: 0df2 a83c 7245 8abd a145 07be 5c00 33bd
00000290: 3baa ffbd 2fc0 59bd f7c3 913d 8587 2b3d
000002a0: 3ce1 a6bd 907b b1bd 84ba 4cbd 82b2 283d
000002b0: a68f ffbd 8ad8 ae3d 0143 963c 03f7 5e3d
000002c0: a2eb 1cbe 83ef 73bd e1c5 5b3c 7484 433d
000002d0: d4c7 e7bb 534d cbbd d56a c23c 52fc 41bd
000002e0: 2bba 21bd 3b4e 92bd 428c e3bc fc43 17bd
000002f0: 716c 59bb 9ed6 e33b 4d6f 18be e88a 173d
00000300: d8a1 a0bd 0f8c ba3d 71f1 ccbd 9f29 cdbd
00000310: 2308 863d 5f71 393c 9c1a 553d d926 8bbc
00000320: db17 7dbd 7685 c73d ca8f e9bc a4c3 523d
00000330: 8fed 923d ae26 1a3e 9a47 1c3d a89d f2bd
00000340: e04d 17bd c831 db3d 4806 2c3c 470a 153e
00000350: 2b5a 1b3e cc3c c7ba 8b9f b63d 60fb 163e
00000360: ec6e 2d3c 9e05 9ebc d706 21bd 31cf 833c
00000370: 891f 75bd 9e1b 163e c9fa 133e bced 133e
00000380: 083c 5bbd 4d98 4c3d b5d7 1b3e 6bf6 ddbd
00000390: cc7a fd3d b302 b43d e37f 3e3d 2514 b6bd
000003a0: 1d24 bcbc a5e8 2b3d 527f d5bd 2680 f9bd
000003b0: dc50 713d 8c2b b63d 55b9 b43d 35de a9bd
000003c0: ef15 793d b253 c8bb 1402 0f3d 8e2b 9b3d
000003d0: 7bf1 a4bc a501 083e 6dd4 0abe a198 bbbd
000003e0: 4de1 33bd e62c dfbd a129 a53d 6a5a dabd
000003f0: 8ccc 023d 6163 0f3d b3dc 6b3e 369c e33d

encoder.4.bias f4 [32]
0.069219574 0.1004874 0.04289349 -0.04159554 0.12382694 0.1462068 -0.05324763 -0.061155137
-0.087610945 -0.055009045 -0.061927907 0.13801873 -0.13164908 -0.0011683446 0.10162482 0.04480616
0.07925231 0.08517798 0.10885434 0.16185169 -0.08331303 0.100190856 0.16366953 0.0042934134
-0.12448702 -0.0023704781 0.10516977 -0.13576384 -0.11082926 -0.10747596 -0.008639327 -0.1179266
00000000: fec2 8d3d 57cc cd3d 16b1 2f3d 1660 2abd
00000010: fb98 fd3d 3cb7 153e 301a 5abd cf7d 7abd
00000020: 5e6d b3bd 2a51 61bd 1ea8 7dbd c854 0d3e
00000030: 04cf 06be 2423 99ba ac20 d03d aa86 373d
00000040: 094f a23d cb71 ae3d 06ef de3d 73bc 253e
00000050: 06a0 aabd dd30 cd3d fc98 273e c3af 8c3b
00000060: 0df3 febd 065a 1bbb 4063 d73d ad05 0bbe
00000070: 73fa e2bd 5b1c dcbd f78b 0dbc 8083 f1bd

encoder.6.weight f4 [8, 32]
0.06448625 0.023152925 0.14519006 0.08784833 -0.21357408 0.09445868 -0.048847783 0.0062180148
-0.15838344 0.1212456 -0.15324832 0.1318302 -0.13374586 -0.021816019 0.16332494 -0.09001514
-0.0063356934 -0.1676263 -0.005039396 0.037986077 0.16399248 0.1736814 0.16786933 0.10824936
-0.122292474 0.06051524 0.006321657 -0.16069484 0.176943 0.11874359 0.002604207 -0.10018066
0.06452868 -0.128054 -0.11394354 -0.18880738 0.020518383 0.15392391 -0.016073737 0.16761488
0.10151586 0.11267 0.051836953 -0.18357602 0.015467778 -0.17952037 -0.18234031 -0.023004672
0.04783599 -0.077162005 0.011411311 0.11027594 0.013247304 0.10977469 -0.074348934 0.14908633
0.05428899 0.10528237 -0.11333526 -0.09819006 0.08609542 0.11028368 0.03787149 -0.003999067
0.21721087 -0.043282628 -0.16855462 0.15748757 -0.081643514 0.18928806 0.121496476 0.101868056
-0.1273962 0.1581751 -0.054373354 -0.04698352 -0.026643813 0.046757296 -0.1788686 0.10265893
0.052741386 0.061611164 -0.09083177 -0.079104595 0.11079939 -0.03768753 0.09344931 0.1747046
0.006555317 0.08065515 0.1273563 0.10854128 0.14152347 0.058596395 -0.1879183 -0.037515026
-0.17955916 0.13641009 -0.1018207 0.014233505 0.19800805 -0.0072794273 -0.08776737 0.12000946
0.14909118 0.096323125 0.09865029 0.14001778 -0.0024692249 0.08275582 0.1536565 0.08949011
-0.09296384 0.017236965 -0.03805405 -0.028916445 0.094785474 -0.15714571 0.10714092 -0.02538048
0.057265606 0.10845236 -0.13745064 -0.12700878 0.05699897 -0.041346896 0.12064078 0.17020707
0.029300803 -0.100084506 0.046143044 -0.1000596 0.10699699 -0.16710356 -0.1790477 0.0075386143
0.13686378 -0.18925908 0.017017296 -0.070115715 0.05325553 0.13064207 -0.05712996 0.14536366
-0.16455351 0.18435939 0.11349961 -0.20335318 0.037119333 -0.0037402047 -0.0024999941 -0.15094948
-0.01644931 0.0073475325 -0.11896367 -0.108639106 -0.12321939 -0.07844439 0.18339103 -0.031065699
-0.004848843 -0.17103052 0.12181336 -0.113500126 -0.016665475 -0.14069588 0.10824773 -0.21257672
0.0002520947 0.0014341064 0.037971545 0.025157211 0.019250033 -0.07090284 -0.03975457 -0.16458133
-0.04280567 0.007725738 0.039174553 0.16379067 0.08432533 -0.018887648 -0.20244958 -0.06575848
0.10489426 0.1740026 0.02614255 0.13060898 -0.02824487 0.038902562 -0.06059022 -0.062244702
0.013707212 -0.21669446 0.16419062 -0.13206723 -0.020279404 -0.015137383 -0.06714304 -0.09378963
0.083192214 -0.10459989 0.15673113 -0.12402206 -0.06925484 0.099835284 -0.049765054 0.10529116
0.14547856 0.10235035 -0.042630993 0.19380914 -0.12103988 -0.09120421 -0.016398538 0.111474365
-0.14661726 0.074426234 0.02384699 -0.006635985 0.12842143 -0.1546451 -0.010203793 0.16880132
-0.042005915 -0.004448366 -0.06928085 -0.016815532 0.095718406 -0.09588622 0.20141216 -0.1392632
-0.0354899 -0.11973049 0.14604177 -0.020009134 -0.07795359 -0.10776457 -0.15730207 0.012676603
-0.02509432 0.06844496 -0.01150215 0.027882768 0.029181244 -0.030136252 -0.17382713 0.10769782
-0.13034382 0.12003855 -0.081027605 -0.10113789 -0.041583836 0.17744893 0.034175433 0.04916594
00000000: 5e11 843d 34ab bd3c b4ac 143e d3e9 b33d
00000010: 2ab3 5abe 8d73 c13d 9d14 48bd 7dc0 cb3b
00000020: 452f 22be 9d4f f83d 21ed 1cbe 7ffe 063e
00000030: adf4 08be 82b7 b2bc a73e 273e dc59 b8bd
00000040: a69b cfbb 3ba6 2bbe 8521 a5bb 4a97 1b3d
00000050: a5ed 273e 89d9 313e f0e5 2b3e d7b1 dd3d
00000060: 7a74 fabd d4de 773d e725 cf3b 308d 24be
00000070: 8c30 353e d72f f33d 58ab 2a3b 852b cdbd
00000080: 9d27 843d 9620 03be 3b5b e9bd b956 41be
00000090: 2b16 a83c 3b9e 1d3e 12ad 83bc 3ca3 2b3e
000000a0: 8ce7 cf3d 87bf e63d fc52 543d 5afb 3bbe
000000b0: 906c 7d3c 30d4 37be 6bb7 3abe 4b74 bcbc
000000c0: acef 433d 1d07 9ebd 82f6 3a3c 5ad8 e13d
000000d0: 380b 593c 8dd1 e03d 4144 98bd 16aa 183e
000000e0: 225e 5e3d 489e d73d 511c e8bd df17 c9bd
000000f0: cc52 b03d 69dc e13d 231f 1b3d 9b0a 83bb
00000100: 876c 5e3e 2049 31bd 9599 2cbe 6c44 213e
00000110: b734 a7bd bbd4 413e 25d3 f83d 33a0 d03d
00000120: 2674 02be a7f8 213e 98b6 5ebd cb71 40bd
00000130: 2044 dabc 9484 3f3d 5529 37be d83e d23d
00000140: 5a07 583d fd5b 7c3d 0206 babd 9701 a2bd
00000150: caea e23d 3d5e 1abd 5a62 bf3d c3e5 323e
00000160: fccd d63b 872e a53d b169 023e e44a de3d
00000170: 87eb 103e c602 703d a86d 40be 5ba9 19bd
00000180: 5bde 37be 16af 0b3e 5f87 d0bd a633 693c
00000190: 9fc2 4a3e 4388 eebb 61bf b3bd 85c7 f53d
000001a0: 5cab 183e 0f45 c53d 2a09 ca3d d260 0f3e
000001b0: b8d2 21bb e27b a93d 2158 1d3e 9746 b73d
000001c0: d363 bebd 8934 8d3c 90de 1bbd 2ee2 ecbc
000001d0: e31e c23d ceea 20be b36c db3d b9ea cfbc
000001e0: 578f 6a3d 451c de3d dcbf 0cbe 970e 02be
000001f0: c177 693d 5d5b 29bd 8312 f73d c34a 2e3e
00000200: 3d08 f03c 1bf9 ccbd 7d00 3d3d 0cec ccbd
00000210: 3d21 db3d 321d 2bbe 4858 37be 7b06 f73b
00000220: 0526 0c3e 22cd 41be db67 8b3c d498 8fbd
00000230: 7822 5a3d 09c7 053e 1b01 6abd 36da 143e
00000240: b780 28be b5c8 3c3e 7c72 e83d d13b 50be
00000250: 710a 183d 391e 75bb f1d6 23bb 8092 1abe
00000260: b4c0 86bc 92c3 f03b 3aa3 f3bd 2e7e debd
00000270: 735a fcbd 74a7 a0bd dcca 3b3e 7e7d febc
00000280: 0be3 9ebb a022 2fbe 4879 f93d c172 e8bd
00000290: 0986 88bc 9512 10be fcb0 dd3d b6ad 59be
000002a0: 942b 8439 a0f8 bb3a 0d88 1b3d 7f16 ce3c
000002b0: 3fb2 9d3c 8235 91bd b0d5 22bd 0288 28be
000002c0: 0055 2fbd 3028 fd3b 7f75 203d beb8 273e
000002d0: c2b2 ac3d 45ba 9abc f14e 4fbe 62ac 86bd
000002e0: cdd2 d63d bd2d 323e e728 d63c 5cbe 053e
000002f0: c961 e7bc 4b58 1f3d 732d 78bd 4df4 7ebd
00000300: 3794 603c 27e5 5dbe 9621 283e a23c 07be
00000310: fe20 a6bc c902 78bc 4a82 89bd c714 c0bd
00000320: ae60 aa3d 7838 d6bd 207e 203e 47ff fdbd
00000330: 7bd5 8dbd 7176 cc3d 71d6 4bbd e4a2 d73d
00000340: 55f8 143e 0f9d d13d d69d 2ebd e775 463e
00000350: c2e3 f7bd 46c9 babd 3a56 86bc ac4c e43d
00000360: d622 16be c86c 983d c35a c33c ad72 d9bb
00000370: e880 033e 495b 1ebe cf2d 27bc 41da 2c3e
00000380: 650e 2cbd 99c3 91bb 1ee3 8dbd bac0 89bc
00000390: 0308 c43d ff5f c4bd fd3e 4e3e 039b 0ebe
000003a0: db5d 11bd 4235 f5bd f98b 153e 32ea a3bc
000003b0: 22a6 9fbd acb3 dcbd cb13 21be 87b1 4f3c
000003c0: 9a92 cdbc df2c 8c3d 8473 3cbc 676a e43c
000003d0: 810d ef3c 4de0 f6bc bdff 31be ad90 dc3d
000003e0: da78 05be c5d6 f53d cdf1 a5bd 6221 cfbd
000003f0: d053 2abd 2cb5 353e 8afb 0b3d 3a62 493d

encoder.6.bias f4 [8]
0.14224498 -0.030247254 0.13771933 -0.13581741 0.12715712 0.106307015 -0.15816116 0.003344026
00000000: aba8 113e 17c9 f7bc 4c06 0d3e b813 0bbe
00000010: 7a35 023e 7eb7 d93d 00f5 21be 7227 5b3b

decoder.0.weight f4 [32, 8]
0.2936096 -0.00042707578 0.1996022 0.05630668 -0.14372693 0.43263242 0.33303344 0.16868483
0.27320722 0.31182984 -0.28029197 -0.23960575 -0.066848084 -0.3331091 -0.1831943 -0.23341094
-0.40150273 0.24656321 0.043524574 0.27112293 -0.1407585 -0.2496562 0.0064020907 0.23998365
0.021185871 -0.032543104 0.13527346 0.2117311 0.3691658 -0.21506397 0.30140576 -0.063775495
-0.3636913 0.30153805 0.05356186 -0.1693084 -0.23486702 0.2070444 0.04332921 -0.030899016
0.29838163 0.3936548 0.3786221 -0.38827795 -0.27859464 -0.23466943 -0.19091661 0.1693794
-0.33964804 -0.26270327 -0.0067952476 0.2643053 0.14979938 -0.040238496 -0.15560466 -0.27128932
-0.19367698 -0.19838478 -0.067477204 0.2942065 -0.084998846 -0.059788484 -0.075383365 0.0873838
-0.13554926 0.10285959 -0.17479973 -0.23333605 -0.17114112 -0.29063702 -0.22966431 0.20872039
-0.13435762 -0.13374956 0.06866803 0.042452313 0.28170142 -0.14785144 0.037581094 0.0680506
-0.32575464 0.1577115 0.07162827 -0.013676046 0.24748757 0.25647864 0.23071049 0.0741254
-0.2634957 0.028426817 -0.039622 0.036155052 -0.23537463 0.12109187 0.30090487 0.109192185
-0.05679694 0.20853086 -0.24791177 0.24893029 0.11150607 -0.20010419 0.27834728 -0.3018793
0.33489117 -0.19551691 0.17940237 0.15654609 -0.09519474 -0.16345508 -0.14161785 -0.24018246
0.28114578 -0.35782114 -0.14414604 -0.098159984 0.15407066 -0.058368806 -0.020052943 -0.040284045
-0.15786211 -0.16409265 0.017260158 0.20838496 -0.13575156 0.3155 -0.078587405 0.36720127
-0.23491532 0.15052912 -0.012744111 0.19576328 0.023764761 -0.26608303 -0.21965314 -0.2784562
-0.24712916 -0.11353818 0.1725248 -0.19547395 -0.0075658592 -0.12158538 0.023016844 -0.22924961
-0.08761387 -0.37429565 -0.2701462 -0.16506894 0.26425254 0.17138122 -0.104286484 0.28284138
-0.2654994 0.35706303 0.018353095 0.057796508 -0.17066413 0.08663856 0.26614368 -0.34182876
0.2088418 0.005051343 0.15572265 -0.1598159 0.1058585 -0.35204527 0.21347183 -0.09494802
0.17466737 -0.18447262 -0.18607229 0.17091565 -0.1280608 -0.012391492 0.19401179 0.35084176
0.30811 -0.14395155 0.103910625 -0.11246834 -0.18428527 -0.32752675 0.14198303 -0.34897855
-0.36668327 0.5069166 -0.26252487 -0.0071857693 0.11867994 0.35715994 0.14542238 0.210717
-0.27252576 0.06605653 0.12475504 0.042516693 0.10782266 -0.31091243 0.16587426 -0.075037435
-0.15792452 0.138342 -0.09391606 0.0789819 0.12439997 0.16796696 -0.12739344 -0.27538285
0.26078436 0.12941036 -0.05865425 0.17062601 0.23096387 -0.18327504 -0.08853713 0.11980942
-0.28081018 0.3169413 0.046903066 0.24937822 -0.0099882055 0.18359274 0.15941525 0.17881466
0.33039656 -0.048736256 0.08917453 0.020295488 -0.052349858 -0.23413847 -0.30758858 -0.19016474
0.2086527 -0.15122007 0.12109032 0.118308626 -0.18518549 0.17391817 0.09009724 0.32824105
0.32560477 0.20501769 -0.32374245 0.3300909 0.009645766 0.32770348 0.19105935 0.12845476
0.19927375 -0.07461833 -0.2794256 0.34434563 -0.22656357 0.09897802 -0.01561003 -0.24750158
00000000: ff53 963e 24e9 dfb9 8564 4c3e d5a1 663d
00000010: 272d 13be ff81 dd3e 5c83 aa3e b7bb 2c3e
00000020: d1e1 8b3e 29a8 9f3e 6e82 8fbe 365b 75be
00000030: a6e7 88bd 478d aabe 4997 3bbe 4703 6fbe
00000040: c491 cdbe 117b 7c3e d346 323d a0d0 8a3e
00000050: ff22 10be e0a5 7fbe a1c8 d13b 46be 753e
00000060: fe8d ad3c eb4b 05bd 2085 0a3e 0ad0 583e
00000070: 4d03 bd3e bb39 5cbe db51 9a3e ba9c 82bd
00000080: bf35 babe 3263 9a3e ae63 5b3d 2e5f 2dbe
00000090: fb80 70be 7203 543e f879 313d ef1f fdbc
000000a0: 7ac5 983e 1f8d c93e c2da c13e 5ecc c6be
000000b0: f5a3 8ebe 2f4d 70be a57f 43be cb71 2d3e
000000c0: 59e6 adbe 0b81 86be abaa debb 0653 873e
000000d0: 0265 193e 1fd1 24bd d456 1fbe 6fe6 8abe
000000e0: 4253 46be 6125 4bbe 7d31 8abd 3ca2 963e
000000f0: e013 aebd c5e4 74bd 9862 9abd 47f6 b23d
00000100: 6dcd 0abe 0ca8 d23d b3fe 32be a5ef 6ebe
00000110: 9e3f 2fbe 60ce 94be 1f2d 6bbe ccba 553e
00000120: 0b95 09be a5f5 08be d3a1 8c3d 7ae2 2d3d
00000130: 2b3b 903e 5e66 17be a2ee 193d 1d5e 8b3d
00000140: 50c9 a6be 207f 213e d8b1 923d 7f11 60bc
00000150: 626d 7d3e 2b51 833e 5f3f 6c3e 0fcf 973d
00000160: e9e8 86be 5bdf e83c ae4a 22bd 5217 143d
00000170: 0c06 71be 04ff f73d 3410 9a3e 27a0 df3d
00000180: e8a3 68bd 1d89 553e 95dc 7dbe 95e7 7e3e
00000190: 4b5d e43d 1de8 4cbe 8983 8e3e ec8f 9abe
000001a0: db76 ab3e 9635 48be 41b5 373e 9e4d 203e
000001b0: 76f5 c2bd c560 27be 4504 11be 64f2 75be
000001c0: 57f2 8f3e 5534 b7be 059b 13be 1a08 c9bd
000001d0: b3c4 1d3e 2114 6fbd 1246 a4bc e200 25bd
000001e0: 9ba6 21be e707 28be 2d65 8d3c de62 553e
000001f0: 7502 0bbe 3789 a13e 6ff2 a0bd ce01 bc3e
00000200: a48d 70be 4e24 1a3e adcc 50bc 2b76 483e
00000210: 51ae c23c 093c 88be c1ec 60be d091 8ebe
00000220: 6d0f 7dbe b586 e8bd 57aa 303e 532a 48be
00000230: 07eb f7bb c101 f9bd d28d bc3c 69c0 6abe
00000240: e76e b3bd aea3 bfbe 9a50 8abe d507 29be
00000250: 1c4c 873e 8f7e 2f3e 2794 d5bd 96d0 903e
00000260: 8aef 87be f7d0 b63e 3b59 963c 08bc 6c3d
00000270: 94c2 2ebe 8f6f b13d fc43 883e 2e04 afbe
00000280: a0da 553e bc85 a53b c275 1f3e c7a6 23be
00000290: 57cc d83d 473f b4be 5c98 5a3e 1c74 c2bd
000002a0: 01dc 323e 64e6 3cbe bc89 3ebe 8304 2f3e
000002b0: 5f22 03be af05 4bbc 07ab 463e 88a1 b33e
000002c0: 98c0 9d3e 0968 13be 18cf d43d cd55 e6bd
000002d0: 47b5 3cbe 96b1 a7be 0064 113e 51ad b2be
000002e0: e9bd bbbe 49c5 013f a969 86be 9a76 ebbb
000002f0: 780e f33d abdd b63e 9be9 143e 32c6 573e
00000300: 7f88 8bbe a548 873d 927f ff3d fc25 2e3d
00000310: 20d2 dc3d ea2f 9fbe f1da 293e 3aad 99bd
00000320: f7b6 21be 86a9 0d3e 1057 c0bd 43c1 a13d
00000330: 69c5 fe3d 88ff 2b3e 6d73 02be fbfe 8cbe
00000340: 8785 853e 2684 043e 703f 70bd 96b8 2e3e
00000350: cb81 6c3e 74ac 3bbe f452 b5bd a45e f53d
00000360: 5ac6 8fbe 2146 a23e 6e1d 403d 015d 7f3e
00000370: 92a5 23bc bcff 3b3e c03d 233e 311b 373e
00000380: bd29 a93e ab9f 47bd 23a1 b63d b942 a63c
00000390: ce6c 56bd ffc1 6fbe 407c 9dbe 8cba 42be
000003a0: 0ea9 553e 6fd9 1abe 34fe f73d cb4b f23d
000003b0: 44a1 3dbe 9b17 323e e784 b83d 360f a83e
000003c0: abb5 a63e 28f0 513e 92c1 a5be ad01 a93e
000003d0: 4609 1e3c c0c8 a73e 10a5 433e a589 033e
000003e0: 6b0e 4c3e 7fd1 98bd df10 8fbe 124e b03e
000003f0: 4800 68be fdb4 ca3d 36c1 7fbc 0e71 7dbe

decoder.0.bias f4 [32]
0.26014477 -0.26115966 -0.101393685 -0.21153589 -0.1737398 0.39042318 -0.26160425 -0.28930396
-0.18515429 0.104214765 0.27546635 -0.0015327288 0.30826876 -0.025100904 0.022153158 -0.20543705
-0.2152535 -0.31569308 0.17686632 -0.25485235 -0.2806514 -0.051583864 -0.104332455 -0.09986468
0.3666774 0.27849543 0.14894572 -0.14279215 -0.32060757 -0.1850026 0.15398619 -0.0075834882
00000000: b231 853e b8b6 85be 7ea7 cfbd dd9c 58be
00000010: d9e8 31be 8ce5 c73e fef0 85be a61f 94be
00000020: 1699 3dbe 8d6e d53d ed09 8d3e d8e5 c8ba
00000030: 67d5 9d3e 69a0 cdbc 8a7a b53c 175e 52be
00000040: 6a6b 5cbe 86a2 a1be 721c 353e 027c 82be
00000050: 8ab1 8fbe 9a49 53bd 41ac d5bd da85 ccbd
00000060: 24bd bb3e f496 8e3e 3a85 183e 1b38 12be
00000070: ad26 a4be 5271 3dbe 8eae 1d3e e97e f8bb

decoder.2.weight f4 [64, 32]
0.17810215 0.07062673 0.26071635 0.15210888 -0.11103759 0.049746722 0.14753167 0.05108752
-0.06847369 0.18889269 0.016510405 -0.049917843 0.10218037 -0.06451695 0.059977066 -0.008715329
0.23624505 0.06525723 -0.08049426 0.020121599 -0.105530456 0.1442312 0.17182654 -0.17252693
-0.018738693 0.06901048 0.0357671 -0.16651548 0.13037008 -0.0025896379 -0.12940559 0.04766362
0.012259269 0.07000535 -0.24886765 -0.27168587 -0.10582665 0.051925033 -0.25461397 -0.030851098
-0.104967505 -0.11289195 0.19072205 0.17381959 0.019700298 -0.011948126 -0.01187996 -0.113185346
0.015034091 -0.19398794 0.07018919 -0.19508521 -0.11203186 0.10382679 0.13520057 -0.10151946
-0.10557283 0.031817704 -0.06660314 -0.14589424 -0.09197161 -0.18857598 0.01314787 0.002888359
0.078835174 -0.051086817 -0.21208927 -0.009013314 -0.08113516 -0.1056969 -0.1614435 0.11090448
-0.026799819 -0.11549263 0.015358589 0.14986122 -0.072627835 -0.14150186 0.14258616 -0.18400358
-0.07418984 -0.08542511 -0.095493406 0.11500923 -0.33064836 0.08206809 0.008037147 -0.26249993
0.066314854 0.09334161 0.1566494 0.08487522 0.14437313 0.004473166 -0.20451428 -0.0073670316
0.0008982498 -0.47442403 0.3466597 0.19356154 -0.25535372 -0.10304612 -0.07113323 0.19668573
-0.051352337 0.17705636 0.16995785 0.15950528 0.08007127 -0.05204588 -0.01876458 -0.0869189
0.1401371 0.17844866 -0.019270848 0.091822 -0.1925033 -0.13957493 0.092790335 0.049867492
0.013243832 -0.082171015 0.1210174 0.31752282 0.15247618 -0.15473284 -0.19891366 -0.052753516
0.095929846 -0.10573881 0.11014966 -0.11206973 -0.072553225 -0.031715125 0.041451033 -0.120955236
0.11363573 -0.094728604 0.13928305 -0.13039961 0.052902367 -0.12299172 -0.06407722 0.08723326
0.0695199 -0.032306015 0.055336636 -0.016861245 0.09210493 -0.09038115 -0.15676893 -0.036646962
0.018099204 0.053685587 -0.089062616 -0.08991727 -0.05778139 0.08899914 -0.09140698 0.019909158
0.04622279 0.029903326 -0.10748219 0.018093403 -0.022973737 0.064061485 0.14693359 0.09997074
-0.041990962 -0.07994669 0.20702119 0.069023654 -0.052376933 -0.18170494 0.066469066 0.105001725
0.12103482 -0.107572444 -0.033493858 0.052929588 0.14899248 -0.19147453 -0.0017322263 -0.23676609
-0.111191526 0.06613388 0.1235472 -0.046991628 -0.099705406 -0.102095835 -0.14307152 0.038625047
-0.03393072 -0.10305347 -0.10235476 0.025168153 -0.21848856 -0.032011773 0.1507773 0.06682187
0.035632923 0.049711704 -0.1414872 0.12512691 0.055945676 0.1926133 -0.010993769 0.26127398
-0.105396815 -0.079017535 0.11179951 -0.0646769 0.062360723 0.07520067 0.10873846 -0.1672653
-0.03600088 -0.028695833 0.16362922 -0.052994862 0.06330958 0.12655045 0.14336535 0.13969672
-0.022924807 0.15475197 0.06385417 -0.03562367 0.12236439 0.10799129 -0.31461868 -0.13206385
0.20300032 -0.30655754 -0.17841159 0.14215657 -0.0019665216 0.066255964 -0.22800347 -0.26413637
0.13031362 0.11585477 -0.07820598 0.17710933 0.15276355 0.035153005 0.13273226 0.08956495
-0.2381568 -0.16761595 -0.23228364 -0.07403664 0.1357453 0.0075501017 -0.20727907 -0.07095967
00000000: 6960 363e bfa4 903d 9d7c 853e 6ec2 1b3e
00000010: ad67 e3bd 38c3 4b3d 8b12 173e 2641 513d
00000020: ef3b 8cbd 166d 413e d440 873c a776 4cbd
00000030: f143 d13d 7621 84bd 83aa 753d bdca 0ebc
00000040: 39ea 713e 95a5 853d 2dda a4bd 0dd6 a43c
00000050: 5a20 d8bd 58b1 133e 4cf3 2f3e e6aa 30be
00000060: e381 99bc 5e55 8d3d 8680 123d 0983 2abe
00000070: bc7f 053e eab6 29bb e682 04be ee3a 433d
00000080: 1adb 483c f75e 8f3d 29d7 7ebe 691a 8bbe
00000090: a5bb d8bd 58af 543d c35c 82be 71bb fcbc
000000a0: 34f9 d6bd e533 e7bd a44c 433e c3fd 313e
000000b0: 8562 a13c 13c2 43bc 2aa4 42bc b8cd e7bd
000000c0: 8c51 763c c6a4 46be 5abf 8f3d 6bc4 47be
000000d0: f670 e5bd 24a3 d43d 0572 0a3e 6fe9 cfbd
000000e0: 9136 d8bd 4853 023d 3a67 88bd 4d65 15be
000000f0: 9d5b bcbd 101a 41be 2a6a 573c 9f4a 3d3b
00000100: 5674 a13d 6940 51bd ee2d 59be 94ac 13bc
00000110: 312a a6bd 9e77 d8bd 7251 25be e321 e33d
00000120: 4b8b dbbc 6687 ecbd 97a2 7b3c 3875 193e
00000130: e7bd 94bd dde5 10be 1b02 123e 6f6b 3cbe
00000140: d8f0 97bd 5cf3 aebd 0c92 c3bd f689 eb3d
00000150: be4a a9be 5113 a83d 3dae 033c 6466 86be
00000160: 15d0 873d e329 bf3d b368 203e 0fd3 ad3d
00000170: 8dd6 133e a393 923b 316c 51be 2467 f1bb
00000180: 8678 6b3a b5e7 f2be 617d b13e ff34 463e
00000190: b9bd 82be d809 d3bd 4dae 91bd fc67 493e
000001a0: d456 52bd 434e 353e 6e09 2e3e 5a55 233e
000001b0: 68fc a33d 102e 55bd 2db8 99bc 8902 b2bd
000001c0: 1a80 0f3e 3fbb 363e e6dd 9dbc 2c0d bc3d
000001d0: 961f 45be bbec 0ebe dc08 be3d db41 4c3d
000001e0: a8fc 583c 4749 a8bd f8d7 f73d 5a92 a23e
000001f0: b722 1c3e 4972 1ebe 06b0 4bbe 1214 58bd
00000200: de76 c43d 978d d8bd 2596 e13d d184 e5bd
00000210: c996 94bd b8e7 01bd 8fc8 293d 61b7 f7bd
00000220: dab9 e83d 1201 c2bd 37a0 0e3e 7a87 05be
00000230: 27b0 583d 15e3 fbbd eb3a 83bd 5aa7 b23d
00000240: 7360 8e3d 5053 04bd aba8 623d 9820 8abc
00000250: 82a1 bc3d c119 b9bd 0988 20be 201b 16bd
00000260: c844 943c 6be5 5b3d 7666 b6bd 8c26 b8bd
00000270: 2eac 6cbd 2e45 b63d 9533 bbbd 8818 a33c
00000280: 1c54 3d3d d2f7 f43c 9f1f dcbd 9e38 943c
00000290: 6b33 bcbc ab32 833d c275 163e 76bd cc3d
000002a0: b7fe 2bbd 17bb a3bd 5dfd 533e 465c 8d3d
000002b0: 3289 56bd dc10 3abe ef20 883d 250b d73d
000002c0: 1be1 f73d f14e dcbd db30 09bd b2cc 583d
000002d0: 7c91 183e e611 44be df0b e3ba cf72 72be
000002e0: 62b8 e3bd 3371 873d 5006 fd3d 4b7a 40bd
000002f0: 5932 ccbd 9f17 d1bd 5781 12be 4c35 1e3d
00000300: f0fa 0abd b30d d3bd 5f9f d1bd 712d ce3c
00000310: 77bb 5fbe c71e 03bd 5d65 1a3e e8d9 883d
00000320: d4f3 113d 809e 4b3d 05e2 10be 4521 003e
00000330: 4b27 653d 6c3c 453e 361f 34bc b4c5 853e
00000340: 49da d7bd f2d3 a1bd 24f7 e43d 5375 84bd
00000350: f56d 7f3d cf02 9a3d 45b2 de3d 9847 2bbe
00000360: a975 13bd 8613 ebbc 6b8e 273e 2411 59bd
00000370: 74a8 813d 7196 013e 5ece 123e a80c 0f3e
00000380: cecc bbbc 4d77 1e3e fac5 823d 20ea 11bd
00000390: 2e9a fa3d 8a2a dd3d b315 a1be bf3b 07be
000003a0: 51df 4f3e 1cf5 9cbe 87b1 36be 7e91 113e
000003b0: c2e0 00bb 35b1 873d be79 69be e23c 87be
000003c0: ef70 053e 4445 ed3d 752a a0bd 265c 353e
000003d0: 0c6e 1c3e 99fc 0f3d f7ea 073e d46d b73d
000003e0: 60df 73be 84a3 2bbe c3db 6dbe 86a0 97bd
000003f0: d100 0b3e d866 f73b f740 54be 4e53 91bd

decoder.2.bias f4 [64]
-0.1618117 0.08363316 0.17264333 -0.067725606 -0.14894415 0.13028345 0.00048682358 -0.23085742
0.16893847 -0.24000779 -0.010731963 0.1511006 0.18936227 0.059699953 -0.099837646 0.15040714
0.0068904846 0.17394021 -0.028986085 -0.022000004 0.09913049 -0.12919044 -0.051342465 -0.07734479
0.028230673 0.20489703 0.14328825 -0.02308352 0.16030005 -0.056671657 -0.10389291 -0.086333774
0.01928079 0.10183434 -0.15677871 0.20066513 0.20026529 0.11625838 0.108699225 -0.114101626
0.11012709 0.24793676 0.06820356 0.11477687 -0.030045673 -0.16079147 -0.124624185 -0.030264711
-0.12369606 -0.016127825 -0.16452569 -0.19202036 0.16957162 -0.055285476 -0.007196318 0.06156282
-0.23918578 -0.0152332885 0.101682134 -0.026308209 -0.057803944 0.1575461 -0.030847445 0.067667685
00000000: f7b1 25be dd47 ab3d 6ac9 303e b9b3 8abd
00000010: d184 18be 0669 053e 5b3c ff39 e365 6cbe
00000020: 35fe 2c3e 9ac4 75be 1ed5 2fbc 1eba 1a3e
00000030: 2fe8 413e f087 743d ae77 ccbd 5404 1a3e
00000040: 93c9 e13b 621d 323e 3a74 edbc 5a39 b4bc
00000050: ed04 cb3d 804a 04be 7a4c 52bd f266 9ebd
00000060: 0344 e73c 87d0 513e 28ba 123e a619 bdbc
00000070: b225 243e 8a20 68bd cec5 d4bd c3cf b0bd
00000080: bff2 9d3c 868e d03d 998a 20be 297b 4d3e
00000090: 5812 4d3e e018 ee3d b39d de3d 1dae e9bd
000000a0: 508a e13d 22e3 7d3e 4fae 8b3d 2310 eb3d
000000b0: 5822 f6bc 85a6 24be f73a ffbd b3ed f7bc
000000c0: 5c54 fdbd 801e 84bc 6c79 28be fca0 44be
000000d0: 2fa4 2d3e 0673 62bd 17cf ebbb 4c29 7c3d
000000e0: 1eed 74be 0b95 79bc b93e d03d 5084 d7bc
000000f0: d4c3 6cbd c453 213e c8b3 fcbc 5b95 8a3d
