pyCode/CNN/CNN4HighFreMoredata.pth (torch, 16951 bytes, 6 tensors)

conv1.weight f4 [16, 1, 3]
00000000: 1011 0ab8 24ac d73e c9ca 8e3e cae0 0ebf
00000010: d7e3 dfbe 1240 64bc aefc 31bd 4656 6e3f
00000020: a082 e7bd b24b 273f 9089 c13e 9e0e 84be
00000030: ccb5 4abf 45b9 9dbe 330d 1fbf b6b7 6ebe
00000040: 1ab9 013e 1c6c 64bf 8029 61be 5772 79be
00000050: 9397 643e b9f8 2ebf e33d 1d3f 8241 333f
00000060: f087 9e3e c90a 3bbd bd6a f6be 42a9 e13e
00000070: f25a 07bf 0b4a 823e e28e 223e 8430 383e
00000080: 8204 ed3e 48d3 edbc 2cdc a13d 64cf 2a3e
00000090: 1d81 4f3d 2e1d e1bb 733b 633f 4374 32bd
000000a0: c6d1 26be 7678 b13e 3942 2ebe ad32 ee3c
000000b0: 9416 7d3e 0653 27be 93b5 e6bd 7026 963d
-3.2917655e-05 0.4212352 0.27889088 -0.5581175 -0.43728516 -0.013931291 -0.043453865 0.9310039
-0.113042116 0.65349877 0.37800264 -0.25792402 -0.7918365 -0.30805412 -0.62129515 -0.23312268
0.12668267 -0.8922746 -0.21988487 -0.24360023 0.22323446 -0.6834827 0.61422557 0.7002183
0.30963087 -0.045664582 -0.4812831 0.44074446 -0.52873147 0.25447115 0.15874818 0.17987257
0.46292502 -0.02903141 0.079033226 0.16680676 0.05066024 -0.0068699336 0.8876259 -0.043567907
-0.1629096 0.34662217 -0.1701745 0.029076898 0.24715644 -0.16340265 -0.11265101 0.0733155

conv1.bias f4 [16]
00000000: c6dd 02bf 5b27 3abf 308a 12bf 8971 9dbd
00000010: a93c 84be 0344 efbe caea 37be 43a1 6fbf
00000020: f3b2 ca3d 934f fdbe a615 67be 0a7f f4be
00000030: 679c 23bf 0fb7 9fbe 2535 0fbe a256 0abf
-0.5111965 -0.727163 -0.5724211 -0.07687671 -0.2582753 -0.46731576 -0.17960659 -0.9360544
0.09897413 -0.49474773 -0.22566852 -0.47753173 -0.63910526 -0.3119435 -0.13985117 -0.5403844

fc1.weight f4 [100, 32]
00000000: 6ef1 95bc b033 0c3d 4943 ab3c c7e9 d1be
00000010: 7ee6 003f 7db0 eb3d a40e 19be 6c75 2abe
00000020: b1ce 0f3e a581 53be d10b 093d 3394 2dbe
00000030: da47 a1bd f559 6b3c 34e2 a1be a6e6 d33d
00000040: 1c93 95be e70b 34bf a98a 5fbe 4a02 e03e
00000050: eae4 14be ab6a 7fbd 20c4 c2bd ac73 d0bc
00000060: a34c b73d af51 373e 8433 9ebe 5c8b 8c3d
00000070: 2f46 50be e85d 143b 5cc1 c13c 2f30 193e
00000080: 69bb e7bd 1eeb c6bc 6dea 653e f080 0fbe
00000090: a9c6 a9be 0d8b 60be 3b9d bdbe 350e e7bc
000000a0: 63ff d13d b7f7 58bd c6a3 b43d 9f9e cbbe
000000b0: 5463 1f3d e63f 18be 4afb ad3d 08f2 0e3e
000000c0: b2a8 0ebe ecba 15bf d91a ebba 3d84 fa3e
000000d0: cb74 cf3d 16d6 9d3e a038 aabe 6af2 613d
000000e0: 6c71 953d 1032 093f 1e24 1a3e 2967 1d3e
000000f0: 89ab 31bc 0ac5 6a3d 9d7b e8bb 9693 19bd
00000100: 3ebf 1bbe deda 34be 1cc2 0cbd 2ab1 14bd
00000110: c9f7 903d df74 023e d472 6fbe fd38 d93c
00000120: cc2f 83be de5b 883e d5f7 3e3d ac27 dc3e
00000130: 448a e43e 1e4c a7be d0aa 0cbf 29de b4be
00000140: 16ae fbbc 7e58 7bbe 582b 9a3e 92e2 863d
00000150: d2c4 633e a39c 473e 10c3 33be a0fa 9cbd
00000160: 07b1 f23e a36f bc3d bbc2 943d 0233 eb3c
00000170: 6f22 113d 6a80 16be 666e 8b3e 3a71 ec3d
00000180: 0050 3a3d bce3 e7be 0a09 13be 8a49 013f
00000190: 45c6 45bf c309 bebe 8f6a f3be 43d4 a6be
000001a0: a7f0 8dbd 3d62 363e bdc7 193c 6387 983c
000001b0: dc78 27be ce4c e53c 774e 94bd 2154 c2be
000001c0: 8911 ba3d 58ab 453e 470b efbe 4cc5 ea3d
000001d0: a676 a83c 073c edbc b271 253c 2eb0 083e
000001e0: ef3d c1be 2e03 073f 1ba5 b5bb f192 aebe
000001f0: 6e42 32bd bc22 0dbe 8432 19be 1f8b a53e
00000200: d8cb 80be 97e0 3ebe 45d9 3a3d db77 babd
00000210: 85b8 15be 39c4 42be 945e b8be 8800 77be
00000220: ab3e 62be 55df 84be c426 44be afb6 46bd
00000230: bb89 1a3e 1ae7 4fbe ed68 5abe b10b 6ebd
00000240: 3eb9 4ebe c42d 9cbe 9148 a83d 4fd4 86bd
00000250: 179a 69be 54e0 e8bd 8bfd b8bd 9637 77bd
00000260: a80c d8be baec 9abd bb9e dabe 7d26 d0bd
00000270: d29d f7bd 2488 a0be 9e5f a53d d442 70bd
00000280: b940 c3bd 036a 3b3e 0be3 e2be 93ff eebd
00000290: ccd4 d4bd f1f8 23be c155 403e de51 4a3c
000002a0: 9d91 15be cba9 8fbe e97b c6bd da04 44be
000002b0: d0f9 39bf 7591 553e 281f 6c3e 7483 11be
000002c0: afa2 8fbc 884e 61be 425d 36bd 4b93 9cbe
000002d0: f05e 4c3d d1c8 51be 7d79 ae3b 4141 4fbd
000002e0: 8a5e 17be fa7e 0a3e 927c 1dbe e704 3d3d
000002f0: 8808 b0bd ea65 e3bb da44 1e3e ff8b f23c
00000300: 403e 933c 8d36 e83c ad63 553c 1fda 20bf
00000310: 52f8 703e 1626 21bd e7bd c7be 6d38 c4be
00000320: 6a54 0abb bfb9 733e 8ddd f8bd 09ff 913d
00000330: 90a1 853e e0e1 aebe f8f1 22bd cbab 4b3e
00000340: ab2f 53be 6a17 c6be 54eb 4abd df49 abbc
00000350: 837d 88be d697 65bd dc81 c6bc c62d 453e
00000360: f455 223e 34e5 693e 94e7 373d ce96 bbbd
00000370: 8815 923c e12c ffbc a7da 4c3e 2b12 363c
00000380: 46bf 883d a493 e43d aae9 09be 17b5 90bd
00000390: a0af 62bc 35d2 71be 2bc5 26be ff42 d0bd
000003a0: 40da adbd a0f9 d43b 7123 16be 981b a2bc
000003b0: 9d3b ddbd 40fe a73a adb1 c0bd 6ec0 b4bc
000003c0: 2e71 3bbe d9ff 18be 7036 03be 3b99 8cbb
000003d0: bf14 2ebe b161 8e3d 0716 c73d ed81 69be
000003e0: dd1c bcbd 7cb4 113d 099b d63d 2856 d03d
000003f0: 714f 59be 86d8 3cbe 7064 24bd 1a71 eb3d
-0.0183036 0.03422898 0.020906108 -0.4099867 0.50351703 0.11508272 -0.14946991 -0.16646355
0.1404369 -0.20654924 0.033458535 -0.16951065 -0.07875033 0.014364709 -0.31617892 0.10346727
-0.29213798 -0.7033066 -0.21830238 0.43751746 -0.14540449 -0.062357586 -0.09510064 -0.025445782
0.08950164 0.17902254 -0.30898678 0.06862518 -0.20339273 0.002263898 0.023651771 0.14959787
-0.113150425 -0.024282034 0.22452708 -0.1401403 -0.33159378 -0.21928044 -0.3703402 -0.028205017
0.10253789 -0.052970614 0.088203 -0.39769456 0.038913086 -0.14868125 0.08495195 0.13959515
-0.1393154 -0.58488345 -0.0017937078 0.48929015 0.10129698 0.30827397 -0.33246326 0.055162825
0.07297024 0.53592014 0.1505284 0.15371384 -0.01084412 0.057316817 -0.007094814 -0.037494265
-0.15209672 -0.17661616 -0.034364805 -0.03630177 0.07078511 0.12739895 -0.23383647 0.026516432
-0.25622404 0.2663259 0.04662307 0.42999017 0.44636738 -0.3267526 -0.5494814 -0.35325745
-0.03072266 -0.24545476 0.30111194 0.065861836 0.2224305 0.19493346 -0.17554879 -0.076649904
0.47400686 0.092009805 0.072637044 0.028710846 0.03543323 -0.14697424 0.27232665 0.11545034
0.04548645 -0.45290935 -0.14358917 0.50502837 -0.7725566 -0.37116823 -0.47542235 -0.32583818
-0.069306664 0.17810912 0.009386 0.018619245 -0.16354698 0.027990725 -0.072415285 -0.3795481
0.09085376 0.19303644 -0.4668829 0.11463413 0.020564388 -0.028959287 0.010097908 0.13348457
-0.37742564 0.52739227 -0.0055433637 -0.34096482 -0.043520384 -0.13782781 -0.14960676 0.32332703
-0.2515552 -0.18640362 0.04561736 -0.09104892 -0.1462117 -0.19020166 -0.36009657 -0.24121296
-0.22094218 -0.2595164 -0.19155413 -0.048514064 0.15091603 -0.20303002 -0.21329089 -0.05811662
-0.20187852 -0.30503666 0.08216966 -0.065834634 -0.22812687 -0.11370912 -0.090327345 -0.060355745
-0.42197156 -0.07564683 -0.42699227 -0.10163591 -0.12090649 -0.31353867 0.08074878 -0.058657482
-0.09533829 0.18302159 -0.44313845 -0.11669841 -0.1039215 -0.16012932 0.18782713 0.01234862
-0.14606328 -0.2805923 -0.09691603 -0.19142476 -0.7264681 0.20856269 0.2305876 -0.14210302
-0.017533628 -0.22002614 -0.04452253 -0.30581126 0.049895227 -0.20486762 0.005324541 -0.05059934
-0.14782158 0.13525 -0.15379551 0.046147253 -0.08595377 -0.0069396393 0.15455952 0.029607771
0.017974019 0.028346324 0.013024253 -0.62832826 0.23532227 -0.039342962 -0.39012071 -0.383243
-0.0021107444 0.23801325 -0.121516325 0.07128722 0.26099825 -0.34156704 -0.03978154 0.19889753
-0.20623653 -0.3868974 -0.049540833 -0.020909248 -0.26658258 -0.056053005 -0.024231844 0.19255742
0.15853101 0.2284134 0.044898584 -0.09159623 0.017832533 -0.03114933 0.20005284 0.01111273
0.066771075 0.11160973 -0.13468042 -0.0706579 -0.013835818 -0.23615344 -0.16286151 -0.101690285
-0.084888935 0.006499484 -0.14661957 -0.019788548 -0.10802386 0.0012816861 -0.09408889 -0.022064414
-0.18304893 -0.14941348 -0.12813735 -0.0042907274 -0.17000102 0.06952227 0.09720998 -0.22803469
-0.09185193 0.035572514 0.10478789 0.10172683 -0.2122171 -0.18441972 -0.040134847 0.11496182

fc1.bias f4 [100]
00000000: 0825 33be a5a1 883e dcbb 63be 08e1 3fbd
00000010: 8e6c f9bd d0d8 87bd 2fec 91be e162 53be
00000020: e596 3ebc 7940 a9be a371 f2bd d20f 42bd
00000030: b933 433d 2ca2 16be 521d 49bb c12c cbbd
00000040: 1736 87bd b333 63be b675 cdbd 5a8e ccbd
00000050: 554c a8be c354 03be 317e 5fbe e6da 60be
00000060: 2d55 15bb 2baf 2abe 6d36 47be cd41 d7be
00000070: 9618 8fba cc07 babe 8cda 1fbd 2590 3abe
00000080: ff0c 85be 7532 6fbe 8c47 62be 4e40 b9bd
00000090: 9e47 35bd 5717 f6be 35c7 703e b75c a7bd
000000a0: 63f4 173f 1248 d0be ad66 673d c129 243d
000000b0: 27d4 9f3c b7be 95bd 3540 aabe fc89 cbbe
000000c0: 4a0f 37be 5a02 0cbd 9083 26be f3ed fabe
000000d0: 782d 17be 9e12 8dbe b2c3 203c a944 c4bd
000000e0: 9dec fbbd c7b6 3d3e 0d47 54be 0763 eabd
000000f0: a246 883e 066e e5bd ffe9 053e 57a2 82bd
00000100: aa0f 8ebe 9523 d1be e5fa 08be e647 4bbe
00000110: 6e9f dcbd 1ce9 a4be 2a51 093c 793e 71be
00000120: 2df1 d8bc 9cd8 22be 338f 1abe 8fb4 73be
00000130: 0a51 8d3d 9b10 8d3e ba67 87be 8967 ae3e
00000140: e14c 823d 9315 9dbe 6689 0cbe f052 1fbe
00000150: 1d16 613e 7812 a8be 05e0 c6bd aabd b6be
00000160: e6ba 61bc b870 b1be 030b 4cbe 6323 0cbe
00000170: bc0f 0bbe efa3 91be cfc3 5cbe 1cde ce3d
00000180: e199 7ebe d34d 6a3e 36a4 6cbe 322b 14be
-0.17494595 0.26685825 -0.22239631 -0.046845466 -0.12178908 -0.066331506 -0.28500506 -0.20643188
-0.011632656 -0.33057 -0.11838081 -0.04737837 0.04765675 -0.14710301 -0.0030687642 -0.099206455
-0.06602114 -0.2218769 -0.10032217 -0.09988089 -0.32870737 -0.12825303 -0.21825482 -0.21958503
-0.0022786364 -0.16668384 -0.19454356 -0.4204239 -0.0010917361 -0.36334074 -0.039026782 -0.1821905
-0.25986478 -0.23359092 -0.22097605 -0.09045468 -0.044257753 -0.48064682 0.23513491 -0.08171981
0.5935728 -0.40679985 0.056494404 0.040078882 0.019510342 -0.073117666 -0.3325211 -0.3975371
-0.17876926 -0.03418193 -0.16261125 -0.49009666 -0.14763439 -0.27553266 0.009812282 -0.095834084
-0.1230099 0.18526755 -0.20730229 -0.11444669 0.2661639 -0.11202626 0.13077544 -0.0637862
-0.27746326 -0.4084746 -0.13376959 -0.19851646 -0.10772596 -0.32209098 0.008381167 -0.23558988
-0.02648219 -0.15902942 -0.15093689 -0.23799346 0.069002226 0.2755173 -0.26446325 0.34063366
0.0636232 -0.30680522 -0.13724288 -0.15558982 0.21981092 -0.3282659 -0.09710697 -0.35691577
-0.01377747 -0.3465631 -0.19926076 -0.13685374 -0.13580221 -0.28445384 -0.2155907 0.10100958
-0.24863388 0.2288125 -0.23109517 -0.14469603

fc2.weight f4 [3, 100]
00000000: 7746 cebc b660 d3bb b9a4 3abd 3aa4 ab3d
00000010: 0b92 343e 8f24 873d 8df9 babb 9956 03bd
00000020: 2645 3d3e 8c7d 69bd c581 2cbc 4600 133a
00000030: df25 ed3c c791 25bd a667 403c 023c 25bc
00000040: 1704 46bd 76ee 013e 9f32 ccbc 1cbf 4e3c
00000050: bdfd 683d 867c f4bc 7030 55be ff71 943c
00000060: 2cf1 01be cda0 a6bc adb4 183d fd5c 133e
00000070: e762 7f3d dce0 7f3e c6ff aa3b 3c9d c6bd
00000080: dbd5 883e da8f 8bbd ffa2 89bd 0c40 5d3d
00000090: ab4b c7bc ce29 e63d fb85 eebc 12bd 49bd
000000a0: c26e 523d c93b 3abe 378d 0ebc dca3 993c
000000b0: fd52 b33c 8b52 5aba fdc1 273d 77aa 36be
000000c0: 6a54 0cbe cfe0 003e 2c9f 30bd 881f da3d
000000d0: 8cb3 4fbb a92e 113e 209c 33be 9e5f 513d
000000e0: 2ca0 363e 53b8 73bd 9797 803e e0a1 8e3c
000000f0: 9c5f d2bd c8f6 643a 4e41 a5bc 82bf cb3d
00000100: 145b b23c f51c 143d ae20 0b3d 711b 82bb
00000110: bf58 4d3d 3e88 a9bc 0890 5abd be03 7bbc
00000120: e9e5 1b3d 2540 903a db60 b93c 09b5 acbd
00000130: 2e9d 2dbd c236 1bbe 9fb0 a93d a693 3bbe
00000140: 0ee7 763e d6fe c4bc 844d 01be 97ec c1bc
00000150: b112 f1bd fe3b b63d f1f3 513e 9ccc 243d
00000160: a41b 163f cac2 8fbb df2e 273d aae4 b8bc
00000170: 882b 443d 5bed 2c3d 9eb6 b43e f7bd 59be
00000180: 619d 603e 4084 a33e 4e32 923d c79d 28bc
00000190: 37a9 a73c 15b5 a8bc 6bd7 d33d 3ab0 183d
000001a0: 143e d13d b9bb c7bd 0f79 113d c6f6 d9bd
000001b0: 9299 7c3c 3012 113e fd82 a93d 9786 4bbd
000001c0: 1f31 0c3e 7181 75bd d5fd 993d fa76 563d
000001d0: 60a7 1cbb 0c03 b0bd c12b c5bd f94f b4bd
000001e0: 6194 df3d 4654 303c 1284 623d 2c22 26bd
000001f0: 3a8e 073e fa02 173d 9ed2 633a e3c5 94bd
00000200: 34b0 a6bd b6f4 20bd 3d0a 953d fa21 f1bc
00000210: a453 a93e 5200 263c 2578 ff3c a0c2 7a3d
00000220: 8f3a c23c b562 38bd b60c 05bf d4c1 56bd
00000230: e2d6 063f 9125 3bbe 9ccf 61bc c58d 00be
00000240: 4f2f 683d 10fc 77bd 4e37 043e 2e7d bb3d
00000250: ffd1 9a3e e087 47bd e025 f1bc b6b1 ca3c
00000260: b0c1 e83c 1905 913d 1fd2 ddbc b5f5 6b3c
00000270: 2543 5abe df7e a9be ca69 f93d 2866 88bc
00000280: 6a73 e13b b555 10bc 3c8e 083e 226f 993d
00000290: 2979 2ebd 5595 83bd 6621 42be ddf7 96b9
000002a0: 836c 073d 866e 03bc 645d b0bc d97b 65bd
000002b0: d9a5 85bd 967f c53c 6c1d 153e 5996 efbd
000002c0: 5ac2 82bc 00a2 59bc 537d 16bd e70d 4ebd
000002d0: efcc c73e 1bf2 d2bd 9084 06bc 1720 7dbd
000002e0: 1ad2 34bd 1e35 663d 5995 083c eb54 5ab9
000002f0: de80 9ebd c923 fa3d 0906 8cbd 24c9 f03a
00000300: 4436 0c3b bde5 9abe d759 71bd a17a 6bbd
00000310: 6d45 963c dfbe 133f fa97 2d3d 417e cabb
00000320: 30f2 b43d b08f f73e 80c5 1d3e fb90 0fbd
00000330: 93d0 013e 48c1 03be 8c92 6b3d de51 22bd
00000340: 079c 74bd 2854 f2bd 4649 be3c 62c0 d43d
00000350: 441d 2ebd 1c39 2d3e b393 be3e df99 b53c
00000360: c5fd a5bd c0b8 00be 9a9c d03d 0479 7b3c
00000370: 9423 e53c 70ac 74bc 694d eebc b10d 193c
00000380: 9437 ddbd 41b1 3abd 78b6 03be c8a6 b73d
00000390: 0f99 febc 5d09 673e e31c 843d 13d1 423d
000003a0: cde3 6cbe cd26 753c 852a c03c 6307 37bd
000003b0: 97fc 8f3d 0aaf c73d 2414 953e 1ba6 7d3d
000003c0: 37a6 0dbf a50b 04be b570 073e 66b6 ac3c
000003d0: 0476 513d 5edb 863d 175d 953e 490e 36bc
000003e0: c374 4dbe 8b87 1cbd 8379 a33c cf31 83bc
000003f0: 841e 1f3b e3d5 d6bd 96b6 c9bd 6203 7c3c
-0.025180085 -0.006450738 -0.045567248 0.08380933 0.17633836 0.0659877 -0.0057060183 -0.032065008
0.1848341 -0.057004496 -0.010528986 0.0005607646 0.028948722 -0.040422227 0.011743462 -0.010085108
-0.048343744 0.12688622 -0.024926482 0.012618806 0.05688261 -0.029844534 -0.20819259 0.018120764
-0.12689656 -0.020340348 0.03728168 0.14390941 0.06235018 0.24988121 0.005218479 -0.09697959
0.2672566 -0.06814547 -0.06720542 0.054016158 -0.024328073 0.11238442 -0.029116621 -0.049252577
0.051375158 -0.18186869 -0.00870066 0.018754892 0.021890158 -0.000832834 0.040956486 -0.17838465
-0.13704076 0.12585758 -0.043120548 0.10650545 -0.0031692712 0.14177956 -0.17540026 0.05111658
0.17834538 -0.059501957 0.25115654 0.017411172 -0.10272142 0.0008734283 -0.020172741 0.099486366
0.021771945 0.036160428 0.033966713 -0.0039705564 0.050133463 -0.020694848 -0.053360015 -0.015320716
0.038061056 0.0011005445 0.022629192 -0.08432967 -0.042386226 -0.15157607 0.08285641 -0.18318042
0.24111578 -0.024047296 -0.12627226 -0.023672385 -0.11771143 0.08898161 0.20503213 0.040234193
0.58635926 -0.0043872343 0.040816184 -0.022569973 0.047893077 0.042218547 0.35295576 -0.21263872
0.21935035 0.31936836 0.07138501 -0.010291523 0.02046643 -0.02059416 0.10343822 0.037277438
0.102169186 -0.09752602 0.03551584 -0.106427714 0.015417473 0.14167094 0.08276937 -0.0496889
0.13690613 -0.059937898 0.07519118 0.05235956 -0.0023903474 -0.08594331 -0.09627486 -0.08804316
0.10916973 0.01076228 0.055301733 -0.040559933 0.13237849 0.036868073 0.0008690747 -0.072643064
-0.08139077 -0.039295875 0.072773434 -0.029435147 0.33071625 0.010131912 0.031185219 0.061220765
0.023709564 -0.04501601 -0.5197252 -0.052430943 0.52671635 -0.18276049 -0.013782408 -0.12554081
0.056685742 -0.06054312 0.12911722 0.091547355 0.3023834 -0.048713565 -0.029437006 0.024742942
0.02841267 0.070810504 -0.027077733 0.014401843 -0.21314676 -0.33104607 0.12178381 -0.016650274
0.0068802135 -0.008809497 0.13335508 0.074919 -0.042596016 -0.06424967 -0.18958053 -0.00028794902
0.03306247 -0.008021956 -0.021528907 -0.056026313 -0.065257736 0.02410869 0.14562005 -0.116985984
-0.015961815 -0.013283253 -0.036740612 -0.050306227 0.3902354 -0.10300084 -0.008210316 -0.06179818
-0.04414568 0.056203 0.0083363885 -0.00020821735 -0.07739423 0.12213857 -0.068370886 0.0018370491
0.002139465 -0.302534 -0.05892357 -0.057489995 0.018343652 0.5771312 0.042381264 -0.0061796014
0.08835256 0.48351812 0.15407372 -0.035050374 0.12677221 -0.128667 0.057512805 -0.039628856
-0.05971911 -0.11832458 0.023228299 0.103882566 -0.04250838 0.16916317 0.3722206 0.022168098
-0.08105043 -0.12570477 0.101861194 0.015348677 0.027971067 -0.01493369 -0.029089646 0.009341643
-0.10801616 -0.0455792 -0.12862575 0.08967358 -0.031078843 0.22562166 0.06450822 0.04756267
-0.23133774 0.014962864 0.023457775 -0.04468478 0.070305996 0.09750183 0.2911693 0.06192599
-0.5533175 -0.12895067 0.13226588 0.021083068 0.05113794 0.0658481 0.29172584 -0.011111804
-0.20064072 -0.0382152 0.019955402 -0.016014962 0.0024279663 -0.104900144 -0.09849279 0.015381666

fc2.bias f4 [3]
00000000: c30f 1abe 72bf e6be 79f5 d33d
-0.15045075 -0.45067936 0.103495546
