pyCode/CNN/CNN4HighFreMoredata2.pth (torch, 18103 bytes, 6 tensors)

conv1.weight f4 [16, 1, 3]
0	0xbf05d0ca	-0.5227171
1	0xbe6a749a	-0.22896042
2	0xbe800cd6	-0.25009793
3	0xbf3aaf8b	-0.7292411
4	0x3cc72722	0.024310652
5	0x3e6a1b26	0.22861919
6	0x3d202d06	0.039105438
7	0x3eb8e3ca	0.3611129
8	0x3f2c89c9	0.67397743
9	0x3c9bbbe4	0.019010492
10	0x3d85fd16	0.06542413
11	0x3d472275	0.048616845
12	0x3ef4b6cc	0.47795713
13	0xbecde152	-0.40210968
14	0x3dec6183	0.115420364
15	0xbe879062	-0.26477343
16	0x3f6c185b	0.92224663
17	0x3cdfba9a	0.027310658
18	0xbdd7228c	-0.10504636
19	0x3e630e70	0.22173476
20	0xbeb44707	-0.3521044
21	0xbeb41b59	-0.35177115
22	0xbf29939f	-0.66240877
23	0xbf4153f9	-0.7551876
24	0x3e1f2ed8	0.15545213
25	0x3e375106	0.17902002
26	0x3e774fce	0.24151537
27	0xbf0ad916	-0.54237497
28	0xbeb6a3dc	-0.3567189
29	0x3e75985f	0.23983906
30	0xbc5b4c84	-0.013384942
31	0xbe5ce1b1	-0.2157047
32	0x3f177bc8	0.5917325
33	0xbdb82a8e	-0.08992492
34	0x3dd5db1c	0.104421824
35	0xbf6a0884	-0.91419244
36	0xbe986652	-0.29765564
37	0x3f3a468c	0.72763896
38	0x3f7b3afd	0.98136884
39	0xbf7177e1	-0.94323546
40	0x3d6ef678	0.05834052
41	0xbf46f534	-0.777179
42	0x3f0df679	0.5545421
43	0x3e2090f8	0.15680301
44	0x3d41e8bc	0.047341093
45	0x3f271318	0.6526351
46	0xbea31934	-0.31855166
47	0xbe640c6c	-0.22270364

conv1.bias f4 [16]
0	0xbd8794af	-0.06620156
1	0xbeb61cdf	-0.35568902
2	0xbf2ce48c	-0.67536235
3	0xbe4bd9dc	-0.19907326
4	0xbf0859ee	-0.5326222
5	0xbf53e790	-0.8277521
6	0xbeb632e5	-0.35585704
7	0x3b3d34a8	0.0028870497
8	0xbe0ce29d	-0.13758321
9	0xbf769da1	-0.9633427
10	0xbeff9266	-0.4991638
11	0xbe99863c	-0.29985225
12	0xbf977f1c	-1.1835666
13	0xbf489191	-0.78347117
14	0xbe65cd42	-0.22441581
15	0xbe7c4d9d	-0.24638982

fc1.weight f4 [100, 32]
0	0xbda44bb3	-0.08022251
1	0xbd67881b	-0.056526285
2	0x3e97c62d	0.29643384
3	0xbd6d8f27	-0.05799785
4	0xbecd5798	-0.4010589
5	0x3d52e2b6	0.05148574
6	0x3d5dd9db	0.05416284
7	0x3da91a60	0.08256984
8	0xbe493d83	-0.19652371
9	0xbe834985	-0.25642028
10	0xbd95b593	-0.07310023
11	0xbea764e1	-0.32694152
12	0xbd5fc94b	-0.054635327
13	0xbdb99416	-0.09061448
14	0xbe0104d3	-0.12599497
15	0x3e90f060	0.28308392
16	0xbe29040b	-0.16505449
17	0xbedfc357	-0.4370372
18	0x3e808be4	0.25106728
19	0x3ea7705a	0.32702905
20	0x3d07a050	0.03311187
21	0xbf037f0c	-0.51365733
22	0x3da25bc4	0.07927659
23	0x3f2980e2	0.66212285
24	0xbf0dd102	-0.55397046
25	0xbe3459e1	-0.17612411
26	0xbd720f61	-0.059096698
27	0xbe5faeea	-0.21844068
28	0xbe98eb60	-0.29867077
29	0xbe044c50	-0.12919736
30	0xbeb00d1a	-0.34384996
31	0x3e334b18	0.17509115
32	0x3e3f0c53	0.18657045
33	0x3dd2faae	0.103017196
34	0x3e2cc966	0.16873702
35	0xbecf8a00	-0.40534973
36	0xbf290b15	-0.66032535
37	0x3eb67e3f	0.35643193
38	0xbd0a736a	-0.033801474
39	0x3e0c76f5	0.13717254
40	0xbe797dcc	-0.24364394
41	0x3e1933fd	0.14961238
42	0xbeb70a59	-0.35750082
43	0x3ee08755	0.4385325
44	0xbe91d3a6	-0.28481787
45	0x3d102a0e	0.035196356
46	0xbf455b19	-0.7709213
47	0xbf0d7f6f	-0.55272573
48	0xbe682c98	-0.22673261
49	0x3e9715fb	0.29508957
50	0xbe0892ad	-0.13337202
51	0xbf5161bb	-0.8178975
52	0xbee46bb0	-0.4461341
53	0x3e372317	0.1788448
54	0xbd59b211	-0.053148333
55	0xbf7adfcc	-0.97997737
56	0xbeeee67c	-0.4666022
57	0xbef0b716	-0.47014683
58	0xbf41ca03	-0.7569887
59	0xbe5af478	-0.2138232
60	0xbf3e5341	-0.74345785
61	0x3d683445	0.056690473
62	0xbf2ef4f5	-0.68342525
63	0xbf259790	-0.6468439
64	0xbe8bb2b2	-0.2728477
65	0xbdce50c9	-0.10074002
66	0xbe11004c	-0.1416027
67	0x3d53a9ca	0.051675595
68	0xbd637214	-0.055528715
69	0x3e03612c	0.12830037
70	0xbdd811be	-0.10550259
71	0xbea26c20	-0.31723118
72	0x3e2b30a8	0.1671778
73	0xbf0242d8	-0.50883245
74	0xbe004505	-0.12526329
75	0xbdf0e4c4	-0.117623836
76	0x3c6dc856	0.014513096
77	0xbe7d2b08	-0.24723446
78	0xbde542b6	-0.11194365
79	0xbd02403b	-0.031799536
80	0xbdfb4ab2	-0.122701064
81	0x3dc0f46d	0.094216205
82	0xbe3878e9	-0.18014874
83	0xbe443b8c	-0.1916334
84	0xbea3f745	-0.3202459
85	0xbd7318b2	-0.059349723
86	0xbca26100	-0.019821644
87	0xbcc96d35	-0.024588207
88	0xbd1d4826	-0.038398884
89	0x3d1bff63	0.038085353
90	0x3d911a8b	0.07085141
91	0xbe9b9c8f	-0.30392882
92	0xbd31b15a	-0.043382026
93	0xbe814cd2	-0.25253922
94	0xbd968bad	-0.0735086
95	0xbe6d01ab	-0.23145168
96	0x3dd4a1f6	0.10382454
97	0xbd487d94	-0.048947886
98	0xbe5c2db5	-0.21501811
99	0xbdbe1610	-0.09281552
100	0x3d1472a9	0.03624216
101	0x3d931c47	0.07183128
102	0xbc06d4e9	-0.008229473
103	0xbe2ba72c	-0.1676299
104	0xbe800f69	-0.25011757
105	0xbbeae135	-0.00716796
106	0x3e38c786	0.18044862
107	0xbe5cc78a	-0.21560493
108	0x3cab5c1a	0.02091794
109	0xbdb7d8fb	-0.089769326
110	0xbe0c2185	-0.13684662
111	0xbe055b81	-0.13023187
112	0xbca55aca	-0.020184893
113	0x3c01ff69	0.00793443
114	0xbcc58c00	-0.024114609
115	0xbdca4d3c	-0.098780125
116	0x3b1c63ad	0.0023863122
117	0xbd8793c2	-0.066199794
118	0xbe9b4768	-0.30327916
119	0xbeb92b53	-0.36165866
120	0xbf2022d7	-0.6255316
121	0xbe04b2ca	-0.12958828
122	0xbe14c8c9	-0.14529718
123	0xbe49a083	-0.19690137
124	0xbe8671ba	-0.2625864
125	0x3cb693bf	0.022287248
126	0xbe8c47ce	-0.27398533
127	0x3cb069c0	0.0215348
128	0x3c7d4f54	0.015460808
129	0xbd7b7d51	-0.061398808
130	0x3dcee229	0.101017304
131	0xbcad8e41	-0.021185996
132	0x3d19fd7c	0.037595257
133	0xbd4dd8ba	-0.050255515
134	0xbe1a76f5	-0.15084441
135	0x3ccfa10a	0.025345344
136	0x3a6cba7c	0.0009030474
137	0xbd8e01a9	-0.069339104
138	0xbe2171d1	-0.15766074
139	0x3d453f28	0.048155934
140	0x3d09cf74	0.03364511
141	0x3dde7385	0.10861877
142	0xbe5fc540	-0.21852589
143	0x3d439e37	0.047758307
144	0xbe28f1ed	-0.16498537
145	0xbe528e5f	-0.20562123
146	0x3d99a592	0.07502283
147	0xbdb70760	-0.089369535
148	0xbe5a2f45	-0.21307094
149	0xbdb1d35e	-0.08682893
150	0xbdc6ff41	-0.097166546
151	0xbdbddcaa	-0.09270604
152	0xbe1f5754	-0.15560657
153	0xbd124601	-0.035711292
154	0xbe4bc37d	-0.19898792
155	0xbe1455bb	-0.14485829
156	0x3d8e44d5	0.069467224
157	0x3dbeef0d	0.09322939
158	0xbca91cb9	-0.020643579
159	0xbe573101	-0.21014787
160	0x3dd3dfe7	0.1034544
161	0x3d881a21	0.06645609
162	0xbdb26bcc	-0.08711967
163	0xbe62303a	-0.2208871
164	0xbe0d10f6	-0.13776001
165	0xbd84e9ef	-0.06489932
166	0xbd697489	-0.056995902
167	0xbd861d10	-0.06548512
168	0xbe08d814	-0.13363677
169	0xbe2299bb	-0.15878956
170	0x3d86f510	0.06589711
171	0xbd661351	-0.056170765
172	0x3d812bb8	0.06307167
173	0xbe309945	-0.17245968
174	0x3c9b6730	0.018970102
175	0xbd72e44d	-0.059299756
176	0x3cadc806	0.021213543
177	0x3cc21fe9	0.023696857
178	0xbd6e2dba	-0.058149077
179	0x3e0df1af	0.13861726
180	0x3df8b94b	0.12144717
181	0x3e966d4d	0.29380265
182	0xbd1273f2	-0.035755105
183	0xbe8d8dd5	-0.27647272
184	0xbe807a3a	-0.2509325
185	0xbe32e565	-0.1747032
186	0xbde3a0bc	-0.11114642
187	0xbe00ad2b	-0.12566058
188	0xbe077173	-0.13226871
189	0xbe6f7d48	-0.23387635
190	0xbe69fe58	-0.2285093
191	0xbcb75b8f	-0.022382526
192	0x3e280293	0.16407232
193	0xbe525703	-0.20541005
194	0x3dc2746c	0.09494862
195	0xbec8ecac	-0.39243066
196	0xbf0682a0	-0.5254307
197	0x3eae256f	0.34012935
198	0xbdeeeb38	-0.11665958
199	0x3edfee49	0.43736485
200	0xbc0b8568	-0.008515693
201	0xbe3b957e	-0.18318745
202	0xbe465fa7	-0.19372426
203	0xbd62274c	-0.055213258
204	0x3e12e957	0.14346825
205	0xbc8fa7d8	-0.017536089
206	0xbf0fb89a	-0.56141055
207	0x3ec7cb63	0.3902236
208	0xbe4a3a7f	-0.19748877
209	0xbe816dfa	-0.25279218
210	0x3b7b4406	0.0038340106
211	0xbf71f2a5	-0.9451087
212	0xbe7872c7	-0.24262534
213	0x3ef3a292	0.4758497
214	0xbcdaddf4	-0.026717164
215	0x3e28c033	0.16479568
216	0xbea048d6	-0.3130557
217	0xbdbf346c	-0.093361706
218	0x3da248df	0.07924055
219	0xbda94777	-0.08265584
220	0xbed6dd33	-0.41965637
221	0xbe2ed524	-0.17073494
222	0xbed88f92	-0.42297035
223	0xbdbba131	-0.09161604
224	0xbe2a2ac5	-0.16617878
225	0xbdc3e4ca	-0.095651224
226	0x3e096efd	0.13421245
227	0xbcb7b627	-0.022425724
228	0xbadb47be	-0.0016729755
229	0x3dc3a3c7	0.095527224
230	0xbdfa5c9d	-0.12224696
231	0xbe4f78b4	-0.20260888
232	0x3aafdb0d	0.0013416723
233	0x3c2dd75e	0.01061043
234	0xbe108719	-0.14114036
235	0xbc6c7ac4	-0.0144335665
236	0xbe1859f3	-0.14878063
237	0xbd3b78f1	-0.045769636
238	0xbe034132	-0.12817839
239	0x3c934303	0.01797629
240	0xbd4f05de	-0.050542705
241	0xbdd35b52	-0.10320152
242	0x3dd2c704	0.102918655
243	0x3d3a1eba	0.04543946
244	0xbe478463	-0.19484095
245	0xbe939685	-0.28825775
246	0xbd83d2ea	-0.06436713
247	0xbd878367	-0.0661686
248	0xbe450079	-0.19238462
249	0xbdeea637	-0.11652797
250	0xbe683765	-0.22677381
251	0xbc94ce0b	-0.018164655
252	0x3cbcbdaa	0.023039658
253	0x3cea771d	0.02862125
254	0xbd89e357	-0.06732815
255	0x3c2f715b	0.010708178

fc1.bias f4 [100]
0	0x3e99eeeb	0.30065092
1	0x3ed12221	0.4084635
2	0xbe35b071	-0.17743088
3	0xbe175285	-0.14777572
4	0xbe69dc8d	-0.2283804
5	0xbcbfedc8	-0.023428813
6	0x3d9c053a	0.076181844
7	0xbe279597	-0.16365658
8	0xbe5afd10	-0.21385598
9	0xbeb4b9e4	-0.35298073
10	0xbf0bf844	-0.546757
11	0x3e08683a	0.1332101
12	0xbe1031da	-0.14081517
13	0xbe82bbd5	-0.2553393
14	0xbe356453	-0.17714052
15	0x3f47ffec	0.7812488
16	0x3e61e7c0	0.22061062
17	0xbddae1a2	-0.10687567
18	0xbe411a1d	-0.18857618
19	0xbeefe618	-0.46855235
20	0xbdab6ecf	-0.083707444
21	0x3d09e56b	0.033666056
22	0xbe4eca1a	-0.20194283
23	0xbd1df5e5	-0.03856458
24	0xbd12d552	-0.03584797
25	0xbda6f627	-0.081524186
26	0x3b401756	0.0029310784
27	0xbe1eddd5	-0.1551431
28	0x3e67fa8b	0.22654168
29	0xbe8635a5	-0.26212803
30	0xbd31fed6	-0.04345592
31	0xbe90f526	-0.28312033
32	0xbe75cf85	-0.24004944
33	0xbe1ed564	-0.1551109
34	0xbe0518e5	-0.12997778
35	0xbe2ec7fb	-0.17068474
36	0x3ab3967d	0.0013701465
37	0xbd2d1975	-0.042260606
38	0xbcf752f3	-0.03019092
39	0xbd17a8f1	-0.03702635
40	0x3d6f1a7d	0.05837487
41	0xbe0c5d2d	-0.13707419
42	0xbe4921e7	-0.19641839
43	0xbd385b17	-0.045008745
44	0xbf20f62a	-0.62875617
45	0xbea7bb1b	-0.32759938
46	0xbcca29ca	-0.02467813
47	0xbd39c1d8	-0.04535088
48	0xbd869a29	-0.065723725
49	0xbec4fc6a	-0.38473827
50	0x3e6b6a07	0.22989665
51	0xbebeeffa	-0.37292463
52	0x3ea3623c	0.31910884
53	0xbe3fb79a	-0.18722382
54	0xbe6d8659	-0.23195781
55	0xbf17b4c0	-0.5926018
56	0xbd606ee3	-0.05479325
57	0xbe9adbd3	-0.30245838
58	0xbe934b97	-0.28768608
59	0xbd0477bd	-0.032340754
60	0xbe340294	-0.17579108
61	0xbedb06d1	-0.42778638
62	0xbde8f56c	-0.113749355
63	0xbda5f0ce	-0.081025705
64	0xbe15c812	-0.14627102
65	0x3ea3052a	0.31839877
66	0x3ef02ddc	0.46909988
67	0xbeb002d0	-0.34377146
68	0xbcbfdb86	-0.023420107
69	0xbe79ecab	-0.24406688
70	0xbd74d8f1	-0.059777204
71	0xbd151e61	-0.036405925
72	0xbe39a5ec	-0.181297
73	0xbe5587a0	-0.20852518
74	0xbef5d83d	-0.4801654
75	0xbeb525a0	-0.35380268
76	0xbe83491d	-0.25641719
77	0xbf134b27	-0.5753655
78	0xbeee048f	-0.46487853
79	0xbe1c5a4d	-0.15268822
80	0xbe3501da	-0.17676488
81	0xbed8d0b6	-0.42346734
82	0xbd9d9e64	-0.07696226
83	0xbe8a65e6	-0.27030867
84	0xbe926622	-0.28593546
85	0xbd8a4a60	-0.06752467
86	0xbce3788e	-0.027767446
87	0xbdde40c6	-0.10852198
88	0xbeb66764	-0.35625756
89	0xbce7ce74	-0.028296687
90	0xbe9562ee	-0.2917704
91	0xbeac8087	-0.3369181
92	0xbe7a17cc	-0.2442314
93	0x3bcf1c06	0.0063204793
94	0x3e0bbdb6	0.13646588
95	0xbe895006	-0.26818866
96	0xbe3cb13f	-0.18426989
97	0xbdfcbcf8	-0.123407304
98	0xbea01c01	-0.31271365
99	0xbe27b46f	-0.16377424

fc2.weight f4 [3, 100]
0	0xbd22cfc5	-0.039748926
1	0xbdbba1fa	-0.09161754
2	0x3df85c9a	0.12127037
3	0x3db5c3b0	0.08875215
4	0xbde92116	-0.11383264
5	0x3d3979ca	0.045282163
6	0xbd2e72fe	-0.042590134
7	0xbd7ec9d6	-0.062204204
8	0x3d1ebb44	0.03875281
9	0x3e47345a	0.19453564
10	0xbdcd332c	-0.10019526
11	0xbda94cf9	-0.082666345
12	0x3e19943b	0.14997952
13	0x3d3196f8	0.043356866
14	0xbc94b3a9	-0.018152075
15	0x3c045bf5	0.008078565
16	0x3e1f85d3	0.15578394
17	0x3ccf74f0	0.025324315
18	0x3ed3bc83	0.4135476
19	0xbda764b5	-0.08173505
20	0xbb35d206	-0.0027743592
21	0x3b7bb6ff	0.0038408635
22	0xbccc7861	-0.024959745
23	0xbd075611	-0.033041064
24	0x3d923506	0.0713902
25	0x3cfa4457	0.030550165
26	0x3d528c1e	0.051403157
27	0x3e1815d8	0.14852083
28	0x3e5865fe	0.21132657
29	0xbdf0e27c	-0.117619485
30	0x3df563be	0.11981915
31	0xbc859240	-0.016305089
32	0xbd3fff64	-0.04687442
33	0x3e99dab1	0.3004966
34	0x3d25f735	0.040518958
35	0x3e0a7e2b	0.13524692
36	0x3e6ee086	0.23327836
37	0xbdfc70ad	-0.12326179
38	0xbd0d7b7f	-0.034541603
39	0x3dd8ce35	0.10586206
40	0x3db66aeb	0.08907112
41	0xbd7acaac	-0.06122844
42	0x3ea25123	0.31702527
43	0x3c264f3d	0.010150728
44	0xbc1086ca	-0.008821199
45	0xbca546d0	-0.020175368
46	0x3dafe86e	0.08589254
47	0x3d0c9e2e	0.03433054
48	0x3d8bd6e0	0.068280935
49	0x3bc7472a	0.0060814815
50	0xbddb7423	-0.10715511
51	0xbe0ec888	-0.13943684
52	0x3cdf0369	0.027223306
53	0x3cb1e60d	0.021716142
54	0x3d8d09b6	0.06886618
55	0xbe733f75	-0.23754676
56	0xbd1ed0e5	-0.038773436
57	0xbddd8ccf	-0.10817873
58	0xbdbb8c6a	-0.09157641
59	0x3d52a334	0.051425174
60	0x3dc56946	0.0963922
61	0xbc9bab45	-0.019002566
62	0x3de09b7c	0.10967156
63	0xbd932f7e	-0.07186793
64	0x3de9e797	0.114211254
65	0xbdd6b085	-0.10482887
66	0xbe6767f8	-0.22598255
67	0x3e2ca913	0.16861372
68	0x3da78e9e	0.08181499
69	0x3d8f0e1e	0.069851145
70	0xbd155050	-0.036453545
71	0x3dfed163	0.12442281
72	0x3daeab5e	0.085287794
73	0x3bcf8f22	0.0063342014
74	0x3dd52e58	0.1040923
75	0xbe38aa7e	-0.18033788
76	0x3e1b1cfd	0.15147777
77	0xbdb216b0	-0.086957335
78	0xbbfab203	-0.007650615
79	0x3dbd3098	0.09237784
80	0x3e0994ff	0.13435744
81	0x3e8aa046	0.27075404
82	0xbca331b1	-0.019921156
83	0x3ce9718c	0.028496526
84	0xbdd72f58	-0.10507077
85	0x3db2784c	0.08714351
86	0x3cc86627	0.024462773
87	0xbe04e024	-0.12976128
88	0xbd77689b	-0.060402494
89	0xbbfa710c	-0.007642871
90	0xbe0c9662	-0.13729241
91	0xbd9b4380	-0.07581234
92	0xbcfc600e	-0.030807521
93	0xbde6e211	-0.112735875
94	0x3d33fa67	0.043939974
95	0x3e01eab9	0.12687196
96	0x3dcdbbaa	0.1004556
97	0x3efe83fe	0.49710077
98	0x3bedd1f6	0.0072576953
99	0xbd8aa976	-0.06770603
100	0x3e27b8c6	0.16379079
101	0xbe087f9b	-0.13329928
102	0x3de2cf2a	0.1107467
103	0xbd93deda	-0.0722024
104	0x3c7e6161	0.015526147
105	0xbdaed810	-0.085373044
106	0x3d176b85	0.036967773
107	0x3da96761	0.08271671
108	0x3d0ee765	0.034888644
109	0x3ea79949	0.32734135
110	0x3e12f9a2	0.1435304
111	0xbc860758	-0.016360924
112	0x3e2afeb1	0.1669872
113	0xbd0ffb7f	-0.035151955
114	0x3d8727ff	0.065994255
115	0xbf235cdf	-0.63813585
116	0x3f3beb46	0.73405874
117	0x3d70e887	0.058815505
118	0xbcd59bb1	-0.026075216
119	0xbdef3fb0	-0.11682069
120	0xbd6f9d82	-0.05849982
121	0x3bee88c4	0.0072794873
122	0xbd9a227b	-0.07526108
123	0x3cc11f8f	0.023574619
124	0xbda5e401	-0.08100129
125	0xbe056980	-0.13028526
126	0x3d373985	0.04473259
127	0x3c87048c	0.01648166
128	0x3d94c038	0.07263225
129	0xbd83d780	-0.06437588
130	0xbbdad601	-0.0066783433
131	0x3c384ace	0.011248304
132	0xbd01e4a4	-0.03171219
133	0x3ec9057f	0.39262006
134	0x3dc6c9f7	0.097064905
135	0xbd20a334	-0.039218143
136	0x3affc425	0.0019513412
137	0x3d0caebc	0.034346327
138	0xbda52590	-0.08063805
139	0xbba74b4a	-0.0051054107
140	0xbd945a17	-0.07243746
141	0x3a5cc67a	0.00084219093
142	0xbb9540b0	-0.0045548305
143	0x3e26d660	0.16292715
144	0xbdeaa41b	-0.11457082
145	0xba82ad09	-0.0009969781
146	0xbcb3b990	-0.021939069
147	0xbdc5c1b3	-0.09656086
148	0xbd90738d	-0.070532896
149	0xbd7a6cf3	-0.06113906
150	0xbcab40c5	-0.020904908
151	0xbd2122c3	-0.039339792
152	0xbe0f884c	-0.14016837
153	0xbdc85278	-0.09781355
154	0xbd43ab1f	-0.047770616
155	0x3df65d77	0.12029546
156	0xbc9dc4ec	-0.019258939
157	0xbdff60b5	-0.12469617
158	0xbcc3a0af	-0.02388033
159	0xbd1d0a52	-0.03833992
160	0x3e10232a	0.14075914
161	0x3cce790a	0.0252042
162	0x3d1a254e	0.037633233
163	0xbe02ba14	-0.12766296
164	0x3c6fce76	0.0146366265
165	0x3c05c838	0.008165412
166	0x3c88b53d	0.016687984
167	0xbcbb34be	-0.022852298
168	0x3e65665b	0.22402327
169	0xbdcfd066	-0.10147171
170	0xbcc6c2aa	-0.024262745
171	0xbdd96440	-0.10614824
172	0xbdd35ab4	-0.103200346
173	0x3dc96363	0.0983341
174	0x3ccf274c	0.025287293
175	0xbd1a20db	-0.03762899
176	0x3e0faf71	0.1403177
177	0xbe84af13	-0.2591482
178	0xbdaed530	-0.08536756
179	0x3e24d032	0.16095045
180	0x3ce8aa84	0.02840162
181	0xbe561a52	-0.20908478
182	0xbdd877f9	-0.10569758
183	0xbd335b20	-0.043788075
184	0xbc4e0a3b	-0.012575681
185	0x3e2cb9c1	0.16867734
186	0xbd8090eb	-0.06277641
187	0xbd19777c	-0.037467465
188	0x3f1eb906	0.62001073
189	0x3d486eb7	0.04893371
190	0xbccb3fec	-0.024810754
191	0xbdbb2de1	-0.0913961
192	0x3dd15c3a	0.10222669
193	0x3d889ff1	0.066711314
194	0xbeb5eae9	-0.35530785
195	0x3c22c862	0.00993547
196	0xbd71a5c0	-0.058995962
197	0xbcdbe8f7	-0.026844485
198	0xbe055e16	-0.13024172
199	0x3ce48dcf	0.02789965
200	0xbd8e862c	-0.06959185
201	0x3dac47fe	0.08412169
202	0xbd9592da	-0.073034
203	0x3e2fac83	0.17155652
204	0x3c6e1174	0.014530528
205	0x3de3002d	0.11084018
206	0x3e084e2a	0.13311067
207	0xbd94cfa5	-0.072661676
208	0xbda4dff6	-0.0805053
209	0x3e88a9cb	0.26692042
210	0xbe29ee80	-0.16594887
211	0xbb98dd06	-0.00466502
212	0x3b1c7bb4	0.0023877444
213	0x3b6a99c6	0.0035797223
214	0x3e0d4a44	0.13797861
215	0x3f63a4b1	0.88923174
216	0xbebdca04	-0.37068188
217	0xbda777fb	-0.08177181
218	0xbdabc7dd	-0.0838773
219	0x3cdfdbc0	0.027326465
220	0xbcc0dad7	-0.023541851
221	0x3eb7cb33	0.35897216
222	0xbcd6d97e	-0.026226755
223	0x3c637c16	0.013884565
224	0xbc466017	-0.012107871
225	0x3bbcf038	0.005765941
226	0xbdb2cc91	-0.08730424
227	0x3e8ecf3e	0.27892488
228	0xbd6a0eed	-0.05714314
229	0x3db0a540	0.08625269
230	0x3d96a4a9	0.07355625
231	0x3c57d4ac	0.0131732635
232	0x3d92be4e	0.07165204
233	0xbe6a7ad1	-0.22898413
234	0x3e0fcb84	0.14042479
235	0xbcfb7210	-0.030694038
236	0xbd7df5d1	-0.062002007
237	0x3da02ace	0.07820664
238	0x3e1b6e29	0.15178742
239	0x3c93ea83	0.01805616
240	0xbe360326	-0.17774639
241	0xbd1faaa5	-0.0389811
242	0x3e782890	0.24234223
243	0xbc2078d6	-0.0097944345
244	0x3e120b87	0.1426221
245	0x3e26d3a9	0.1629168
246	0xbd838dfb	-0.06423565
247	0x3c8cc7e5	0.01718516
248	0x3e357951	0.1772206
249	0x3dc02011	0.09381116
250	0xbb123b1d	-0.0022313066
251	0xbe0be394	-0.13661033
252	0x3edde0e2	0.43335634
253	0x3e26c5de	0.16286418
254	0xbbf4d230	-0.0074713454
255	0xbea464a1	-0.32108024

fc2.bias f4 [3]
0	0xbdd08bf8	-0.10182947
1	0xbea2752d	-0.31730023
2	0xbe034e4b	-0.12822835
