pyCode/CNN/CNN4Gun.pth (torch, 16215 bytes, 6 tensors)

conv1.weight f4 [16, 1, 3]
000000 aa 60 65 bc 08 6d df 3e 74 eb 59 3f 1e 82 26 3d
       -0.014000097 0.43637872 0.851249 0.040651433
000010 b3 5a 91 3e 8a 08 f0 be 56 ec 60 3d 84 38 86 be
       0.2838951 -0.46881515 0.054912888 -0.26214993
000020 d7 f9 b3 bd 4b 2e 81 bc 1b f9 c5 be 7d 74 55 3f
       -0.087878875 -0.015769145 -0.38666615 0.8338087
000030 a3 c9 9a 3e 2d 3f bf 3e 40 2c 75 3e 9f 4f 00 bf
       0.30231962 0.37352887 0.23942661 -0.5012149
000040 6c 04 14 3f 11 96 53 be c4 9c 20 bf b0 34 d4 be
       0.5781925 -0.20662715 -0.62739205 -0.41446447
000050 f0 25 f4 3d 82 0a 13 3f 5f 78 84 3e 7f d0 c6 3d
       0.119212985 0.5743791 0.25873086 0.09707736
000060 60 e8 da 3c 65 82 48 3c de 80 10 bb fd 02 17 be
       0.026722133 0.01223812 -0.0022049467 -0.14747234
000070 7a ec 0d 3f 10 a6 90 3f 03 72 aa 3e bd 5f d7 be
       0.5543896 1.1300678 0.3329011 -0.4206523
000080 87 06 56 bf a7 c9 03 bf 50 12 5c 3c e2 63 55 3e
       -0.8360371 -0.5147957 0.0134321 0.20838884
000090 18 2f e6 3e b1 42 35 3d 3b a8 03 bf 00 af e6 3e
       0.44957805 0.044253055 -0.51428574 0.4505539
0000a0 cd a5 bd bd 59 44 4f 3e 73 1e 82 be b2 f0 b5 3e
       -0.092601396 0.20240916 -0.25413856 0.35535198
0000b0 cc cb 3c 3f 3a 79 54 3d 17 6e 51 3d 44 9a 0c 3e
       0.7374847 0.051873423 0.05113038 0.13730723

conv1.bias f4 [16]
000000 23 c4 a6 3e b0 d4 40 be cc 82 46 3d 1d 3f a7 be
       0.32571515 -0.18831134 0.04846458 -0.3266534
000010 36 89 e4 3b bf 7c 18 bf fc f1 5f bf fb 29 ba be
       0.0069743646 -0.5956535 -0.87478614 -0.36360154
000020 a6 66 98 bd a4 39 9d 3e c8 51 2f be 37 c6 d2 be
       -0.07441454 0.3070804 -0.17121041 -0.4116685
000030 b6 10 82 3b d1 e7 0b bf a9 bc 40 3e dd 14 96 3c
       0.0039692773 -0.546506 0.18821968 0.018320495

fc1.weight f4 [100, 32]
000000 85 9d 97 be 34 cd 96 be ba cd 0e be 7c 2c 55 3d
       -0.29612365 -0.29453433 -0.13945666 0.052044377
000010 9c 00 86 be 97 da 40 be fe db fe bd 62 ae d0 bd
       -0.2617234 -0.18833385 -0.12444304 -0.10189511
000020 50 1c 3f 3d 09 81 bd bd 18 c1 98 3c 96 4b ad be
       0.04665786 -0.09253127 0.018646762 -0.3384673
000030 fb f3 0b 3e 0f 6d 17 be fa 74 08 be a0 19 9f 3c
       0.1366729 -0.14787696 -0.13325873 0.019421399
000040 03 fa 93 be d0 53 b0 bd 38 b8 2a be b4 02 43 bd
       -0.2890168 -0.08609736 -0.16671836 -0.04761
000050 17 23 32 be 10 ea 83 3c 49 80 97 be 40 b2 a5 be
       -0.17396198 0.01610282 -0.2959006 -0.32362556
000060 d7 2e 87 be db 58 31 be 35 76 24 3e 20 51 05 bc
       -0.26402923 -0.17319052 0.16060717 -0.0081370175
000070 ff 27 4e be 8e b5 89 bd 2d 21 85 be 42 9b 26 be
       -0.20132445 -0.06724082 -0.26001874 -0.16270164
000080 a9 05 17 be cf c1 cc 3d a8 db ae bd 81 ce 12 3d
       -0.14748253 0.099979036 -0.0853799 0.03584147
000090 9d 4a c8 bd 2d c7 15 3d 81 e7 c0 bd 3b bd ad bb
       -0.09779856 0.036566902 -0.09419156 -0.005302099
0000a0 5e f7 1d be 23 30 7c be 2a 85 89 be 86 1e ee 3b
       -0.15426394 -0.24627738 -0.2685941 0.0072668223
0000b0 03 5f 78 3d 74 43 64 be 77 b4 b7 3b 46 90 57 be
       0.060637485 -0.22291356 0.00560623 -0.2105113
0000c0 ff d9 b8 bc 50 e3 98 3d 8f 58 b6 bc f9 8a a8 3c
       -0.022564886 0.074652314 -0.022259025 0.02057408
0000d0 4a 17 d9 bc 17 ee 0b bd b9 b2 84 be 96 93 71 be
       -0.026500363 -0.034162607 -0.25917605 -0.23591456
0000e0 d8 da 04 be 1d fd 3b 3e 76 a3 ba 3e 87 99 17 be
       -0.12974107 0.18358274 0.36452836 -0.1480466
0000f0 ee 28 c5 3d cd 65 da bd 1f c1 d0 3d 8b 36 b8 bd
       0.09626947 -0.10663948 0.10193085 -0.08994778
000100 14 9b 6a bb 4e 8c 3f be 6d 4a ed 3c 23 1c 45 be
       -0.0035798 -0.18705866 0.028966153 -0.19249015
000110 4a 61 ea be 7b e5 95 3e f4 c0 3e be 57 86 87 be
       -0.4577735 0.29276642 -0.18628293 -0.2646968
000120 87 ae 10 3e 5c 30 0c bf 2d 44 3f be 91 b3 fc be
       0.14129077 -0.5476129 -0.18678351 -0.49355748
000130 0b 28 5e 3d 3f 27 a7 be ed 4b 50 3d bc 48 97 be
       0.054237407 -0.3264713 0.05085366 -0.2954768
000140 6f 14 98 3d c4 eb 0b 3e 12 81 d7 be 78 3b c2 be
       0.074257724 0.13664156 -0.4209066 -0.37935996
000150 27 77 0d bf ea c6 b5 3d 9d c2 70 be 39 53 0b bf
       -0.5525994 0.088758305 -0.23511739 -0.5442386
000160 6f 7a 66 3c 37 78 80 be 07 3c ac 3d 09 4a 62 be
       0.014067276 -0.25091717 0.08409887 -0.22098555
000170 d9 09 16 bf 43 ec 3a be 5f 7d 91 3e 8a 26 eb 3c
       -0.58608776 -0.18254189 0.28415963 0.0287049
000180 32 8e 2e be 92 18 06 3d 98 51 d3 bc 31 33 e7 bd
       -0.1704643 0.032738276 -0.025795743 -0.11289061
000190 41 ad 6e bd 7c 4a bd bd ab 68 41 be 5f be d2 bd
       -0.058270697 -0.092427224 -0.18887584 -0.10290217
0001a0 4a f3 d9 3c e1 d0 5e be 00 cf d4 bd e4 0c 00 3c
       0.026605267 -0.21759368 -0.103910446 0.007815573
0001b0 1b 71 1b bd e5 37 e9 bd e5 63 a1 3d 5f 94 60 3d
       -0.037949663 -0.11387614 0.078803815 0.054828998
0001c0 b1 a6 43 be 3d 46 28 bd e8 04 70 3c f1 63 a6 3d
       -0.19106556 -0.04108261 0.014649607 0.08124531
0001d0 0d 05 59 bc 43 7d 98 bd 47 a9 48 bd bb 0b df bd
       -0.013245833 -0.07445767 -0.04898956 -0.10890909
0001e0 ee 1b b1 3d 53 ec 48 3e 55 10 55 3e ba 8f 62 bd
       0.08647905 0.196214 0.20807011 -0.05531285
0001f0 2e 7c af bc e2 52 33 be 0a 01 bd bb 11 5c 44 be
       -0.021421518 -0.17512086 -0.005767946 -0.19175746
000200 92 2c 35 be c4 46 b8 be 5f c2 a8 3e 86 fc ac bd
       -0.17692783 -0.3599149 0.32960793 -0.084466025
000210 8d 8d 48 3e 85 53 5c bd 24 ef 3c bf ca f7 d1 be
       0.19585247 -0.053790588 -0.738024 -0.4100936
000220 91 ec 31 be b1 64 c2 bd 4f 31 10 3f 93 4f 80 bf
       -0.17375399 -0.094918616 0.5632524 -1.0024284
000230 18 f0 09 bf 53 c4 1d bf ac fb 60 3f 3b d7 b2 bd
       -0.5388198 -0.6162769 0.8788402 -0.08732458
000240 87 00 b7 3d 2d 75 47 bb e7 6e 7f bf 5d 9e 79 bf
       0.089356475 -0.0030434832 -0.997786 -0.9750727
000250 4b c2 a6 3e 2e 55 6f bf 76 28 58 bf 21 3e 81 bd
       0.3257011 -0.9348935 -0.8443674 -0.06310678
000260 13 43 6e 3d f3 b7 8f be b9 65 79 3f f2 87 9b be
       0.058169436 -0.2807003 0.9742084 -0.30377156
000270 81 1d 6d bf 99 07 0f bf ea 27 91 bb da 1d de bd
       -0.92623144 -0.5587097 -0.004429807 -0.108455375
000280 ab de 62 bd f6 16 92 3d 90 c5 7f 3d e8 3a 31 be
       -0.055388134 0.07133286 0.06244427 -0.17307627
000290 5c c2 11 bc 4a 3e 2d 3a 50 77 65 bb 69 8b 08 be
       -0.008896437 0.0006608708 -0.0035013743 -0.13334431
0002a0 c7 37 6e be a5 28 2c be df dd c3 3d 0d 58 a6 3c
       -0.23263465 -0.1681238 0.09563803 0.020305658
0002b0 6f 48 1b bd cc 1e 44 bd 53 db 0c be a9 32 82 be
       -0.037910875 -0.047880933 -0.1375554 -0.25429276
0002c0 ad 12 45 bd 2a 3d af 3c 26 a0 af bd b6 b4 59 bd
       -0.048113514 0.02139147 -0.08575468 -0.053150855
0002d0 22 a2 a6 bd 0b 72 29 3e 7b 14 e1 bd bb 36 58 be
       -0.08136393 0.1654741 -0.109902345 -0.21114628
0002e0 6a 60 4c be 61 8d 31 bd ac 0c f6 3d f8 c7 25 bd
       -0.19958654 -0.04334772 0.12014136 -0.04047391
0002f0 da 2f e4 bd 15 a6 99 bc e2 f6 84 bc 1d f2 70 be
       -0.111419395 -0.018755952 -0.016231004 -0.23529859
000300 28 a2 ac bd 47 00 1b be 45 c0 53 bd 63 e2 1a be
       -0.08429366 -0.15136825 -0.051697034 -0.15125422
000310 df 48 b0 bd 34 36 a3 3d d6 e4 77 3d b1 3d 80 bd
       -0.08607649 0.07969323 0.06052097 -0.06261767
000320 53 d0 1e be 14 08 32 3d f7 f0 35 bc 53 92 a1 3b
       -0.15509157 0.043464735 -0.011104814 0.0049307733
000330 de ec 75 3d 18 d5 20 3b 45 68 62 bd 8d 2d 80 3d
       0.060040347 0.0024541076 -0.05527522 0.06258688
000340 04 a9 21 bc 4e 60 45 be f5 29 e8 bd 53 1b 8c be
       -0.009866957 -0.19275019 -0.11336128 -0.27364597
000350 61 91 b8 3d 99 6e 19 be b4 d2 14 3d 66 37 a7 3c
       0.09012104 -0.14983596 0.036333755 0.020412158
000360 f4 3a 86 bd 69 30 6e bd 49 f9 47 3c a1 17 4a be
       -0.06554213 -0.058151636 0.01220543 -0.19735576
000370 0f 05 8d 3d c2 e5 14 bc 01 ab 40 be 9a cd 1d be
       0.068857305 -0.009087982 -0.18815233 -0.15410462
000380 44 20 24 3c de 28 82 3d cc 75 65 be 8f d7 e5 bd
       0.010017458 0.06355451 -0.22408217 -0.11222755
000390 78 0c 67 3c 0a d0 4c be 59 a7 94 bd 2f 3e 37 be
       0.014102094 -0.20001236 -0.072584815 -0.17894815
0003a0 b8 89 5f be 9b 9d c4 bd 15 ea 30 3d 1c 09 c0 bd
       -0.2182988 -0.09600373 0.043191988 -0.093767375
0003b0 6e 2f 25 bd 12 d9 5e be 7f 95 31 bd 54 69 3e be
       -0.040328436 -0.21762493 -0.04335546 -0.18594867
0003c0 5b ce 3b be fd fe d9 3c 63 a3 5e 3d 8c 07 04 3d
       -0.18340437 0.026610846 0.054355036 0.03223376
0003d0 46 aa 16 bc ca 1c 64 3b 1e 74 28 3d 38 8f cf 3c
       -0.00919587 0.0034807199 0.041126363 0.025336847
0003e0 91 8b d3 3b 74 d9 3c 3e 01 12 09 3e 4a 3e a6 bc
       0.0064558466 0.18442327 0.13385774 -0.020293374
0003f0 90 5e 2a be 6c fb 44 3c 81 d7 37 be 40 dc 14 be
       -0.16637635 0.012022834 -0.17953302 -0.14537144

fc1.bias f4 [100]
000000 b6 03 fc bd 08 b2 50 bc e2 1e fd 3e 61 fa a3 bb
       -0.12305395 -0.012737758 0.49437624 -0.0050042127
000010 49 1e d0 3e 36 65 98 bc eb 79 69 be 35 06 b5 bc
       0.40648106 -0.018602949 -0.22800414 -0.022097686
000020 d9 4a a7 be 4d 2a 2b 3d af 13 a5 be 5e 8a 17 3e
       -0.32674292 0.041788388 -0.3224158 0.14798877
000030 26 f5 d1 bd e8 58 e4 bc 08 ff a4 be 2e 71 d3 3d
       -0.102518365 -0.027874425 -0.32225823 0.10324322
000040 66 9c 93 bd 38 99 0d 3f 17 b5 a8 bd 31 b0 81 3d
       -0.07207565 0.5531192 -0.08237665 0.06332434
000050 15 b2 1d 3f 35 8d 57 3d 75 61 cf bd 9e e9 a6 3b
       0.61599857 0.0526249 -0.1012601 0.0050937673
000060 f2 43 a2 bd 32 e6 6d bd 14 5e f4 bc 5e 95 04 bd
       -0.07923116 -0.05808086 -0.029830016 -0.03236901
000070 3b 9e 04 3e f0 da c2 bd 94 4b 1b 3c 21 db 07 bd
       0.12950985 -0.09514415 0.009478468 -0.033167962
000080 2c 04 18 be 9e 96 56 3d 12 5e 5d be 65 f4 ce 3e
       -0.14845341 0.052389733 -0.21617916 0.40420833
000090 2a f4 5f be 87 39 09 3e b4 1a ed bd f6 5d 4b be
       -0.21870485 0.13400851 -0.11577359 -0.19860062
0000a0 4f 30 0c be e1 d8 0b bd c7 4d c5 3c 47 5b e5 bd
       -0.13690303 -0.03414238 0.024084939 -0.111990504
0000b0 c0 d1 84 3d f0 1c c3 bd f1 9e 80 bd 98 29 6b bd
       0.06485319 -0.09527004 -0.06280316 -0.057412714
0000c0 2f ba 00 be 1c 4f 99 3e 0a e7 22 bd bf 5b e3 3e
       -0.12571023 0.29943168 -0.039771117 0.44405934
0000d0 0b f6 d6 3e 73 fc b1 bd 8d 19 d2 3d 62 74 8c bd
       0.4198459 -0.08690729 0.1025878 -0.06858136
0000e0 af 9c c5 3d 13 54 1d be 89 6b 96 be 96 3c d7 bd
       0.09649026 -0.15364103 -0.29378918 -0.10509603
0000f0 3a 8d 9d bc cc ed 65 3e f0 91 02 3f bb 90 b7 3e
       -0.019232381 0.22453994 0.5100393 0.35852608
000100 6b 14 2b be ae fe c5 be a4 46 6c bd 40 05 ec bd
       -0.16707008 -0.38670868 -0.057684556 -0.11524439
000110 b8 8f 8c 3d b7 9d 3f 3b 8b 20 01 3c fe c7 90 bd
       0.0686335 0.0029238292 0.007881294 -0.070693955
000120 74 64 28 be 33 f9 44 3c 1f 70 0d be 30 26 9e 3d
       -0.1644457 0.012022304 -0.13812302 0.077221274
000130 e8 c2 be bc 28 0d 00 be 6f 49 a7 bc bd a8 32 be
       -0.023286298 -0.12505019 -0.020420758 -0.17447181
000140 f3 ff 08 be 85 e6 57 bd 10 8b 8a bd 75 ca e5 bd
       -0.13378887 -0.052710075 -0.06764805 -0.11220256
000150 12 df 38 3d b9 6e c6 bc 53 d4 19 bd 13 3a 7a 3c
       0.04513461 -0.024222719 -0.037556004 0.015272635
000160 6f df 75 bd 59 da 66 be a4 3a 1d 3e e2 55 5e 3d
       -0.060027536 -0.2254423 0.15354401 0.054281123
000170 2b ff b2 3b f0 d3 97 3b 0f 19 66 be b7 9a 58 3e
       0.0054625473 0.004633419 -0.22470497 0.21152769
000180 6a 93 23 3e da 04 76 3e 39 13 3f bd 83 1e 40 bc
       0.15974203 0.24025288 -0.04664919 -0.011726025

fc2.weight f4 [2, 100]
000000 bf 4b e6 3d ee 05 b5 3b 7f 92 b9 bd cd 1c 8b 3c
       0.11244916 0.0055243885 -0.09061145 0.016981507
000010 85 ec 25 bf 32 95 32 3d 64 c7 6d 3d 7a f7 57 bd
       -0.64814025 0.043599315 0.05805148 -0.052726246
000020 c0 00 1e bd bc 22 73 3e ba 24 9a bd b7 37 8d 3c
       -0.038574934 0.23743719 -0.07526536 0.017238481
000030 be ab d3 bc 3d a6 73 bb e7 28 54 3e 60 54 47 39
       -0.025838729 -0.0037177943 0.20718728 0.00019009551
000040 4d 3b 45 3d 66 51 cb bd 9c ab 51 3d 00 a6 5a bc
       0.048152257 -0.09927635 0.05118905 -0.013345242
000050 0d 11 74 be 23 4d 6e bd be ee 28 bc 04 fb 36 3c
       -0.2383463 -0.058179032 -0.010310827 0.011168245
000060 0c 33 97 3d 33 15 6f 3e 3f 56 82 3b 39 91 04 bd
       0.07382783 0.2334793 0.0039775665 -0.032365058
000070 34 b6 46 bb 96 ab a1 b9 85 4a ff 3e 61 e6 7c bc
       -0.0030321004 -0.00030836154 0.4986154 -0.015435786
000080 dd 5f a2 3d f9 1d 63 3c 16 8f 8a 3b bb 2a 28 be
       0.07928441 0.0138621265 0.004228483 -0.1642255
000090 37 cc ee 3c 92 67 5c 3c 50 5e 98 bd 1e 54 c6 3b
       0.029150112 0.013452427 -0.07439864 0.006052508
0000a0 bd 69 07 bd 57 fa 9d 3c 5c 16 8e bd 96 70 9d 3c
       -0.033059824 0.01928441 -0.069378585 0.019218724
0000b0 0c 5b fe 3c a2 8a 2f 3d 43 16 8e bd 6c ea 32 3b
       0.031049274 0.04285682 -0.0693784 0.002730037
0000c0 8d a2 1c 3e 65 ed a6 3c c1 a7 0b 3e 1b 05 77 be
       0.15296383 0.02037687 0.13638212 -0.24123041
0000d0 5f c0 9c bd 3e be 0c 3e 81 12 cd 3c fd ca 46 3c
       -0.076538794 0.13744447 0.025033237 0.012133357
0000e0 4b 56 61 3d 7f 02 8c 3e 30 dd 0b 3e 31 7e 80 3d
       0.055013936 0.27345654 0.13658595 0.06274069
0000f0 e6 7f 2c bd 32 ad 57 be dc 6d 0e bf 7b 60 af bd
       -0.04211416 -0.21062163 -0.5563638 -0.08563324
000100 84 c5 6e bd a7 d0 1c 3e 9c d7 5c 3b be b4 73 3c
       -0.058293834 0.1531397 0.003369785 0.014874635
000110 7a b4 1d 3d 10 24 01 3b 84 8e e9 bc 65 da a8 bc
       0.038502194 0.0019705333 -0.02851034 -0.020611951
000120 a1 e8 f1 3c b1 6e fe bc c0 18 29 3c 85 bc 22 bd
       0.029529871 -0.031058641 0.010320842 -0.039730567
000130 e2 b8 2a bd 82 85 33 3d 41 46 e9 3d e1 34 8f bb
       -0.041680224 0.043828495 0.11390353 -0.0043703173
000140 a9 42 c3 3d 1e e3 31 3e af 3e bb 3d 33 01 95 bd
       0.09534199 0.17371795 0.09142815 -0.07275619
000150 54 b7 11 3d ec dc 35 bd 54 d5 3b 3e 04 96 63 bd
       0.035575226 -0.04440014 0.18343097 -0.055562988
000160 e4 8f 24 bd 5b df 1c 3d 8d 7e 25 3d b2 61 44 be
       -0.040176287 0.038298946 0.04040389 -0.19177893
000170 25 1f 3c 3d db 7f cd bd 03 b6 c4 bd f3 a4 1a bd
       0.04592814 -0.10034152 -0.096050285 -0.037754964
000180 61 c2 c0 bc 69 73 ba 3d bc 43 27 3c 81 b1 05 bd
       -0.023530187 0.09104044 0.01020902 -0.032639984
000190 2e 79 ed bd b9 2d 0f 3d fd f5 82 3e d4 30 0f bd
       -0.11595379 0.034955714 0.255783 -0.034958676
0001a0 3a e5 64 3e 9f 91 00 3d f2 ea 69 3d 65 6f 14 3c
       0.22353068 0.031388875 0.057108827 0.009059762
0001b0 a7 00 91 bb cf fb c1 ba 7e f0 57 be 46 5d 73 3d
       -0.0044251266 -0.0014799776 -0.21087834 0.059415124
0001c0 5b 8d 03 bd 4a 57 9a bc f5 65 68 3e a6 ac 90 bc
       -0.03211723 -0.01884045 0.22695144 -0.01766045
0001d0 c9 b6 83 bd 7b ad 99 3e fe 4e c7 bd fb e8 ae 3b
       -0.06431348 0.30015168 -0.097318634 0.005337832
0001e0 29 51 09 3e 93 d3 88 bd 88 43 3d be 66 3b 67 bc
       0.13409866 -0.066809796 -0.18482792 -0.014113283
0001f0 31 02 c3 bd 42 93 ad bd 15 62 68 bc e6 3a f2 bc
       -0.09521902 -0.08475353 -0.014183541 -0.0295691
000200 65 d8 d5 bc 66 8f 16 bd b3 22 50 3d bb 8a b5 3c
       -0.026104162 -0.03675785 0.05081434 0.022160878
000210 03 71 50 bc 1e fc e5 3c 7f 26 1b 3c a4 92 9c 3e
       -0.012722257 0.02807432 0.009469627 0.30580628
000220 f4 f8 2d 3e 34 dd 4f be bd 07 cf bc c0 08 41 3c
       0.169895 -0.20299226 -0.025272245 0.011781871
000230 9b f5 8e 3c 7c 05 21 3e 65 b6 5f 3d 59 9f f6 bc
       0.017451098 0.15724748 0.054617304 -0.03010528
000240 fd 81 82 3d 6b fc 4c 3d 66 8a a7 be da 26 86 3c
       0.063724495 0.050045412 -0.32722777 0.016375948
000250 9a d8 83 3c c7 e5 37 3e a7 07 26 bc 38 59 70 be
       0.016094495 0.17958747 -0.01013366 -0.23471534
000260 4d 2c d5 3d 3d 39 20 3d 4a db 0c 3e 7f 9f 98 bc
       0.1040884 0.039117087 0.13755527 -0.018630741
000270 5f 55 82 3d be ec 55 be 73 08 05 be 3b a1 4a 3e
       0.063639395 -0.20891091 -0.12991504 0.19788067
000280 0f a1 f4 3c 52 43 1a be 4a e2 8e 3e dc ba a6 3e
       0.029861955 -0.15064743 0.2790702 0.32564437
000290 e0 a6 33 3e 38 1a 3d be 9b cf 8b bd 5a 28 1b bd
       0.17544127 -0.18467033 -0.06826707 -0.03788028
0002a0 21 fd 03 3e b1 b9 b9 3b af fd c1 bc c8 bf a1 3c
       0.1288953 0.005667888 -0.023680536 0.019744769
0002b0 2c 81 18 3c e5 8a 06 3c 2a e7 4d be 53 35 38 bd
       0.009308141 0.008211826 -0.20107713 -0.04497273
0002c0 7c 74 16 be 54 8b 0c 3c 78 9c db 3c 07 97 73 bd
       -0.14692873 0.00857814 0.026808009 -0.059470203
0002d0 8b 50 89 3d b1 e9 98 3e fc 9a 34 3e 72 00 de 3b
       0.067048155 0.29865792 0.17637247 0.0067749554
0002e0 2c ba 6f 3d 81 91 1f be 8e 82 22 bd ab 6e 21 3d
       0.058527157 -0.15582849 -0.039675288 0.03941218
0002f0 5b 8b 78 bd 85 40 10 3d 90 16 2b 3e e4 02 3f 3d
       -0.060679775 0.03521778 0.16707826 0.046633616
000300 2e 58 3f 3e e7 c7 c4 bd ba ce 83 3a 27 ac c6 bc
       0.18685982 -0.09608441 0.0010056116 -0.02425201
000310 ba 69 5e 3d 26 01 c9 be bf 93 b4 bc 44 27 0a 3d
       0.054300047 -0.3925869 -0.022043107 0.033728853

fc2.bias f4 [2]
000000 12 af 3f 3d 0b 29 c4 3e
       0.04679782 0.38312563
