pyCode/CNN/CNN4HighFre.pth (torch, 16823 bytes, 6 tensors)

conv1.weight f4 [16, 1, 3]
00000000: 728a 4c3c a790 0dbf b8ae 273f b03e b8be
00000010: 59ee 9fbd 05ed 8ebf ee29 51bf 92d8 483d
00000020: 9d99 463d 898a eb3e 7ffc a23e 7c8c bdbe
00000030: d029 46be f6a5 323e d93a 7f3e 4335 f53e
00000040: 966e fbbd abad 31bf a5d7 82bf a1e3 1f3e
00000050: 2cfb f63e 62f1 b63d d10c 00be ba5c 1f3f
00000060: caf2 d43e b192 b23e e61d e33e 6d91 1abe
00000070: 9d2b 3c3e c3af 28bf 8513 5e3e 5d23 94be
00000080: 8583 a5be 67a2 c0bd be63 5fbe 32d1 c7bd
00000090: ffc4 153f 16c4 69be 4562 9b3d 7410 afbd
000000a0: bcfe 713e 9f72 94be f7e3 9abd 4c7e 1b3e
000000b0: e6a1 043f eb2f f03e cd54 eabe 1647 abbc
0.01248418 -0.55298847 0.65500975 -0.35985327 -0.07809133 -1.1166083 -0.81704605 0.049034663
0.04848634 0.4600413 0.31833264 -0.37021244 -0.19351888 0.17446122 0.24924792 0.47892198
-0.12276952 -0.6940562 -1.022206 0.15614177 0.48238504 0.08932759 -0.12504889 0.62250865
0.41591483 0.34877542 0.44358748 -0.15094538 0.18376012 -0.6589319 0.21687134 -0.2893323
-0.32326904 -0.09405976 -0.21815392 -0.09756698 0.5850372 -0.22828707 0.07587103 -0.0854806
0.2363233 -0.289937 -0.07563012 0.15184897 0.5180954 0.46911559 -0.45767823 -0.02090792

conv1.bias f4 [16]
00000000: f92f 2dbf a40f a9be 2b96 1bbe d93d bfbd
00000010: 2ac3 bbbc 3cb5 60bf 31a4 36bf b6cb c9be
00000020: 8046 19bf 083e 0ebf 6c79 163e 7ab3 99be
00000030: e046 8bbe 3b6a f5be 3d0c a7be a7ae 88be
-0.67651325 -0.33019745 -0.15194003 -0.093379684 -0.02292021 -0.8777654 -0.71344286 -0.39413232
-0.598732 -0.555634 0.14694756 -0.30019742 -0.2720251 -0.4793261 -0.32626525 -0.2669575

fc1.weight f4 [100, 32]
00000000: d557 bfbe 49b2 f7be e4c5 d53c 59b6 f8be
00000010: 8f93 fabd 172d e4bd adcd c6bd f96d d5bc
00000020: b8fe 013d fc2e 21bd 4a9b 723d 4864 003f
00000030: 59b1 91be 9d04 0c3d bf73 29bd 6e41 1cbe
00000040: 2f7e f53d f1f7 43be f418 243e baaa c1be
00000050: 0934 cebe e50e 123e faa3 a9be 52a2 b83c
00000060: d9b8 29bf a90b bcbd e1e8 3a3d 2b37 d3bd
00000070: 6b4e 103d 85e9 e7bd f0f4 ebbe 3be2 b8bd
00000080: 6bb3 c7bd 6f88 073f f83d 463d e2f8 5abf
00000090: 899e 113f 5c3c 66be c1d2 00bf 457c 8ebe
000000a0: 1324 1dbc b538 003d 9860 4dbf cc60 dcbf
000000b0: d2b1 303e 4afe c33c a0c9 433e 2fe0 b83e
000000c0: a3ff d1bd 7481 ad3e 830c 553e 419e 03bf
000000d0: 5697 dcbe e979 f8be 7b81 ca3d 5bcf 96be
000000e0: e1d5 3dbe a06d c03e 7d9d 063f 513c a23c
000000f0: 69d5 3abe b85b 04be 9b3a d3bc ae72 ea3d
00000100: cb02 91be 53a4 ddbe bb0a b4be bc56 74be
00000110: db10 d5be d606 b1be cc47 8ebe 6f54 fabe
00000120: b99c ebbe b366 a5be b05f 273f 5476 f1be
00000130: d39b 643b 21d2 18be 4ef5 d1be 6bad 3ebd
00000140: 48ba 0fbb 54a0 41be b437 aabe c161 53be
00000150: c826 9cbe 5494 2b3e 3cc3 b8be 16db 95be
00000160: f01c 7ebe 128e 40bf e64b 29bd b9c9 89be
00000170: 21b0 98be cd03 a23c 79f8 6cbe 172f 7cbe
00000180: 9769 c13c 8df5 f3bd 0a00 6c3c c4b9 40be
00000190: ae5b 15bd 397b 0dbd f22f 3a3d 3fb3 36be
000001a0: 1aa9 87bd 6c36 eabd 03f8 48be ea95 2f3d
000001b0: 39de 3f3d 069f 66be bebf 07be d793 3bbe
000001c0: eeef 05be 9811 52be e4b9 d2bb 6c0d 6bbe
000001d0: 2dd7 95bc 60db 05be bed6 623d 8753 943d
000001e0: 8a2a 023e 2667 81be 6584 41be 495a c7bc
000001f0: d35f 9abd de76 9bbd 7c5a 033d ca7e c2bd
00000200: 8798 453e c5de 76be 78cd 66be b8df 963d
00000210: 0434 dcbe 6066 563d 2fce 9cbe 7979 45be
00000220: 4c62 b6be 9974 42be ac62 d5be 76b9 88bc
00000230: 564f c1be f564 dabd 0672 2e3e 2fc6 cf3d
00000240: de36 17bc 65d3 973d 4d74 0c3e e717 163e
00000250: 4c81 b03d 890a cabd b07d 0b3e cd90 25be
00000260: 75a9 98be 21a9 69bc 83fa f9bd 6dd0 97bd
00000270: aaf4 ecbd 3be8 68be 0b97 6fbe c7ac 1ebe
00000280: f773 ffbd c010 c93c 6353 24be f030 b93d
00000290: 9dcb 38bd 1dcf 0dbe 4764 0c3d 3731 d7bc
000002a0: 50a3 1cbc 3a97 d5bd 868b 963d bc9b 21be
000002b0: a985 d73d bba7 f8bc 714c b7bd 581c 00be
000002c0: 0df5 a53b 15bf 5fbe 58de cebd 2472 893b
000002d0: edf0 4e3d b998 92bd 9e12 84bd 73f1 e5bd
000002e0: 24a3 703d 16b8 39be 49dd 3dbe 111e 993d
000002f0: 44c3 23be 5932 683e 3d90 34be 0fb2 d7bd
00000300: 1072 21bf 400a aebf e140 12bd 5fbc 1cbf
00000310: 3288 6d3d 5bde c7be 880c efbe 9b36 b3bc
00000320: 151e 13bd 953c 96bd 1689 13bf 5038 8739
00000330: 0fb3 f6be 2c73 e7bd 51ac 70be 0d95 cf3e
00000340: 3323 93bd 9aec d83d 02a1 a4be a3b7 0abe
00000350: bbe0 b7bd 6509 0abf 7946 5f3e 2935 ba3a
00000360: 632a 3fbf 2a94 95be e62e 99be 7a5e bdbe
00000370: cfd6 3ebe 428b 7a3d 4c0d 64be 0ff3 bbbd
00000380: 0765 0dbf c3e9 fbbe 728a 4bbe eeb1 74bd
00000390: 9f02 813d 2682 bdbe 05c3 a2be 9de7 55be
000003a0: c9fe bfbe 41ae 1abf e6ed f6bd c99a 13be
000003b0: fa6a 233e f9e3 9ebd a0ed dfbe 763f 72be
000003c0: 168f c8be 4a8a b1be cc16 1cbf c631 c1be
000003d0: c89e fcbc 01f1 17be ba0a debe 130e 4cbe
000003e0: fcad 13bf c639 e2be 1922 713d 06a3 44bd
000003f0: 0aed 59be 0026 45be bd06 ebbe 8712 7bbe
-0.37371698 -0.48378208 0.026095338 -0.4857662 -0.12235176 -0.11141413 -0.09707198 -0.026053416
0.03173706 -0.03935145 0.059230126 0.5015302 -0.28455618 0.034184087 -0.04137015 -0.15259334
0.11986958 -0.19137551 0.16025144 -0.37825567 -0.40274075 0.14263494 -0.33132917 0.022538338
-0.6629768 -0.091819115 0.045632247 -0.10313257 0.035231035 -0.11323837 -0.4608531 -0.09027525
-0.09751018 0.52942556 0.04839894 -0.85536015 0.5688253 -0.22483963 -0.50321585 -0.27829185
-0.00959112 0.03130408 -0.80225515 -1.721704 0.17255333 0.023924965 0.19119883 0.36108539
-0.10253837 0.33887827 0.20805554 -0.5141335 -0.4308421 -0.4853051 0.09887978 -0.29455075
-0.1853862 0.37583637 0.5258406 0.019804152 -0.18245472 -0.12925613 -0.025784781 0.11447655
-0.28322443 -0.43289432 -0.35164437 -0.23861212 -0.41614422 -0.34575528 -0.27789152 -0.48892543
-0.46018007 -0.32304916 0.6538038 -0.4716059 0.0034882918 -0.14923908 -0.41007465 -0.046552103
-0.00219311 -0.18908817 -0.33245623 -0.20642759 -0.30498338 0.16755801 -0.36086452 -0.29268712
-0.24815726 -0.7521678 -0.041332148 -0.26911715 -0.29821876 0.019777203 -0.2314166 -0.24627338
0.02360992 -0.119120695 0.014404306 -0.18820864 -0.036464386 -0.034541342 0.04545588 -0.17841814
-0.066240504 -0.114361614 -0.19625859 0.04286758 0.046842787 -0.225216 -0.13256738 -0.18318115
-0.13079807 -0.20514524 -0.0064308513 -0.22954339 -0.01829108 -0.13071966 0.055380575 0.07242494
0.1271154 -0.2527401 -0.18898161 -0.024335044 -0.07537808 -0.075910315 0.032068714 -0.09496839
0.19296466 -0.24108417 -0.22539318 0.0736689 -0.43008435 0.052343726 -0.30626056 -0.1928462
-0.3562187 -0.18989791 -0.41676843 -0.016689997 -0.3775584 -0.10663787 0.17035684 0.101452224
-0.00922939 0.07413367 0.1371624 0.14657556 0.086184114 -0.09865291 0.13622165 -0.16168518
-0.29816785 -0.014261515 -0.122059844 -0.07412801 -0.115701035 -0.22744839 -0.23397462 -0.15495597
-0.124732904 0.02454412 -0.16047435 0.09042537 -0.045116056 -0.13848539 0.03427532 -0.026268585
-0.009560421 -0.10429235 0.07350831 -0.15782064 0.105235405 -0.030353418 -0.08950127 -0.12510812
0.0050646127 -0.21850236 -0.101010025 0.004194515 0.050522733 -0.07158036 -0.064488634 -0.112276934
0.058749333 -0.1813663 -0.18541445 0.07476438 -0.15992457 0.22675456 -0.17633148 -0.10532009
-0.6306467 -1.3596878 -0.035706405 -0.6122493 0.057991214 -0.3903683 -0.46689248 -0.021876624
-0.03591736 -0.07335774 -0.5763105 0.00025791163 -0.48183486 -0.11301264 -0.23503233 0.40543404
-0.07184448 0.10592003 -0.3215409 -0.13546614 -0.08978411 -0.53920585 0.21804227 0.0014206517
-0.7467405 -0.29214603 -0.29918593 -0.36986142 -0.1863663 0.061167963 -0.22270697 -0.09177219
-0.5523228 -0.49201784 -0.19877031 -0.05974 0.06299328 -0.37013358 -0.31789413 -0.20889135
-0.37499073 -0.6042214 -0.12057094 -0.14414515 0.15958777 -0.07758326 -0.4373598 -0.23657021
-0.39171666 -0.3467582 -0.60972285 -0.37733287 -0.030837432 -0.1483803 -0.4336756 -0.19927244
-0.57687354 -0.44184703 0.05887041 -0.048007034 -0.2128183 -0.19252777 -0.45903578 -0.24518786

fc1.bias f4 [100]
00000000: 17ea b8be c175 973e 97b5 c3be fa7a a0bd
00000010: 3abf 5cbe 9f0c 66be b2e6 cf3e d94e a0be
00000020: bda2 c93d 165c 853e 9c16 413e 8128 a9bc
00000030: 1eda 21bd aa16 e83d 4c72 09be 31ab 6abe
00000040: 882c d5be b2ae 10be 2883 0cbe df22 3fbe
00000050: cd25 bb3d 6365 5ebd 16b3 90be 4fde 56be
00000060: b5b3 a1bc 9a54 84be 19fd 89bc 0540 09be
00000070: 979f 0cbe 9fd4 993c f5b1 1dbe f537 afbd
00000080: 65e8 e2be b596 09be 5ebc 25be 6f1d 64be
00000090: dd79 7fbe 09ba 0dbe 9e7a 10be 66ac 0cbd
000000a0: bf4c 4dbd 2929 87be d1f4 b2bd c837 ab3e
000000b0: 3753 2abe 3ca5 99be cec4 ecbe b138 4d3d
000000c0: c1cf b4bd 1cf0 c93e 666e 71be c76f 38be
000000d0: 6168 033e 5982 813e 676a 65be 5ad3 cf3e
000000e0: 38ff 4abe 3732 643e aad5 34be 6492 3ebe
000000f0: 37d3 febd 2bb2 3cbd 0088 69be 0c83 343e
00000100: cad2 aabd 9036 16be c5d6 85bd 6e76 57bd
00000110: 2b61 f63d a194 acbe c132 f3bd 32e4 31be
00000120: 9d34 25be 7aca 173b 1379 17bf d0ec 263d
00000130: 5387 e0bd cb7c 83be 3c5c 703e 2310 0a3e
00000140: 9917 5f3e 7aa5 cbbe e5e3 9fbd c3dc 12bd
00000150: f011 f8bd 4a8d 4abe e647 cc3b bb6a eb3e
00000160: 62c6 48bd cc2d 463c 3cd4 6e3c 82da e3bd
00000170: 13b8 10be e7c1 063c c478 70be f90c 56be
00000180: d0bd 98be 3c23 54be 1451 c6be 6033 573d
-0.36116096 0.29582027 -0.3822448 -0.07835956 -0.21557322 -0.22465752 0.40605694 -0.31310156
0.09845493 0.26046818 0.18856281 -0.020649197 -0.039514653 0.11332448 -0.13422507 -0.22916867
-0.41635537 -0.14129141 -0.13721907 -0.18665646 0.09138069 -0.05429591 -0.28261632 -0.20983241
-0.019739011 -0.25845796 -0.01684432 -0.13403328 -0.13732754 0.018778143 -0.15399916 -0.08555595
-0.44317928 -0.13436396 -0.16185138 -0.22276853 -0.24948831 -0.13840498 -0.14109275 -0.0343441
-0.05012202 -0.2639859 -0.08738101 0.33440995 -0.16633306 -0.30008876 -0.462439 0.050102893
-0.088286884 0.39441 -0.2357727 -0.1801139 0.12832786 0.2529476 -0.2240387 0.40590936
-0.1982392 0.2228478 -0.17659631 -0.18610531 -0.1244263 -0.04606835 -0.22805786 0.17628115
-0.08340986 -0.14669251 -0.06535105 -0.052603178 0.12030252 -0.33707145 -0.11874915 -0.17372206
-0.16133352 0.0023161457 -0.5916912 0.040753186 -0.10963311 -0.25681147 0.23472685 0.13482718
0.21786346 -0.39774686 -0.07807139 -0.035855066 -0.12112796 -0.1978046 0.006234157 0.45979866
-0.049017318 0.01209588 0.014576968 -0.111256614 -0.14132719 0.008224941 -0.23483568 -0.20903386
-0.29832315 -0.20716566 -0.38733733 0.05253923

fc2.weight f4 [3, 100]
00000000: 573b c23d ac6c 3cbd 60c7 183e 7527 443c
00000010: 3641 e53d bf0c 103d db91 1abd aa25 0dbf
00000020: b82d c53d b33a 193e 54bf 763c 54ec fabd
00000030: 40ef bbba 8915 663e ca97 2c3d d0c5 52bd
00000040: 4387 13be b221 3b3d 96df a23b a83b 6a3d
00000050: 7dfa 18bd 8fc5 173d dfc9 a53d 624d 5ebc
00000060: 0053 5bbc 8119 e03d fa53 3a3c fba3 39bd
00000070: cded 393e f1a7 1ebc aa5d 603d 1678 3dbc
00000080: f84a 4f3e 3ff6 f1bd ac95 8abd 2f92 6e3c
00000090: 61ba 09bd fe31 fb3d b4e9 a83c fbe2 c7bc
000000a0: d61c 01be 5ea4 88bd bf78 053e 6a56 85bd
000000b0: 798c 0bbd 7adf 333c cd45 333e 228d e6ba
000000c0: ece4 793e 6035 213e a222 ffbd fce3 d83b
000000d0: 43f8 f8bd 9d8e 3f3e eedf 853c 423a c9bd
000000e0: 1eb4 aebc a98e 4b3e 005a d83c f2b1 093e
000000f0: 2c36 7c3d 3d42 cd3d 3f54 9fbd 9f3b a5be
00000100: 7347 dabd b187 383e e8ca 0e3c b3ab 4a3d
00000110: 0b5e 5a3e 54e7 a13e c02e 17be 0f1c 8e3d
00000120: 805e b8bd b329 2cbd 36ab 4a3d 5d8a 2c3d
00000130: 01de d4bc 9c37 0ebe fead 87bd 1684 043f
00000140: b8a8 9bbd f44b 92bd 5bf2 14be 9d90 81bd
00000150: 94fd 3ebe 4ab0 bfbd f8d2 993c 12df 863b
00000160: ca4a 563e f310 643e 3df3 4b3d 542e 913d
00000170: fe9e 0f3d 6394 253c 47e6 293e 32d2 9e3a
00000180: ef9b 7d3d 86e7 6cbb 2e64 863d e338 b7bc
00000190: 4932 23bd f8fe b9bd 2aeb 90bd 9efd 91bd
000001a0: 1386 bf3d 186c 6a3c 6e9f 9bbd 3c4b 83be
000001b0: 999f 1c3e 72b2 593e 8d13 3bbe d3be 87bd
000001c0: 9180 2abd 802d 863c c8da b2bc 7970 babd
000001d0: 07bb 723e 1610 343d 89c4 8abd f3ff ae3c
000001e0: dbcb 6d3b c0fc 48bd 65b5 a53c 3682 943d
000001f0: 26d6 143d fa1f c7bc f438 2cbd d85a ddbd
00000200: 72d8 a43d 6ec8 0bbe 0bb0 e0bc 5f33 a2bd
00000210: 3078 9a3e 1a98 00bd 0490 d1bb 3c9c 0bbc
00000220: b40f a2bd 7d85 9bbd 3a39 b73b ba86 463d
00000230: 6783 9c3b 1609 61bd 1b49 d3bc 40ed 6ebe
00000240: d9a2 1d3e d30b 76bc 7c80 b7bc 4460 debc
00000250: 2cd7 2e3d 82ae e53e 0897 013e cf80 babd
00000260: 564a 253d 060f 58bd 2d89 08be 5aac be3d
00000270: e190 fcbc 7cb3 94bd dfae bebd 1d4d 4e3c
00000280: 67ef 4e3d ce6a f9bc 23a9 83bc 47be 31bd
00000290: b839 753c 5041 b0bc f3e5 863d fe28 62bd
000002a0: d237 e23c becb 473e 31ca 403d 9f5c b03d
000002b0: 0634 d8bd 5097 723d 6618 4d3e c8aa b5bd
000002c0: d326 4039 cbf3 293e f0ac 50be 7cc6 c9bd
000002d0: 1cb2 cbbd fe89 793d dd40 10be 1c19 55bd
000002e0: 47b9 37be 4d78 51bc d9b8 c33b 4ca5 ebbe
000002f0: 1f2d 523e 56cf 643e 3227 b83d 83fd 39bc
00000300: d559 7fbd b18e 8abc 0a11 44bd df5d f6bc
00000310: 9ca0 a3b9 3151 1e3d 9fa4 883d 65ac 7eba
00000320: f623 03be 688a 213f 5a8e 0c3c b833 253d
00000330: eb18 e03c 9db3 85bd e4ef 3d3e 9127 c73d
00000340: fe76 e8bd 3ee0 36be 34fe 223e b775 9e3d
00000350: 438b 5f3d 35c4 01be d4d2 3e3b e322 6fbd
00000360: ed44 673e 9bb3 7e3d 281e b53c b804 933d
00000370: 3d8d a13d bea9 39bc d6f4 9f3d 9ec8 15bd
00000380: 3f9d cb3c 3cbe 4abd 91aa 6e3b 121d 00bd
00000390: 05c1 6bbd 4223 d6bd e6a6 573c 36b1 5b3c
000003a0: 55ff 913e b57c e33d c5e2 8fbd 46a8 273e
000003b0: eae0 393c 5171 7abd 31d1 bfbd 135d 58bd
000003c0: 1b7e 0a3b 8ce0 193d 3bba 03bd 0e08 a13e
000003d0: e243 c0bc a117 b73d fda5 5f3d af3f dbbd
000003e0: cbe4 103d f12d 96be 3466 333e 01b5 ec3d
000003f0: 5857 4ebd 47b5 c8bc c652 033e 2924 9cbe
0.094839744 -0.046002075 0.14919806 0.011972298 0.111940786 0.035168406 -0.037736755 -0.55135596
0.09627861 0.14963798 0.015060265 -0.12252107 -0.001433827 0.22469153 0.042136945 -0.05145818
-0.14407067 0.04568643 0.004970501 0.0571858 -0.03734826 0.03705364 0.080951445 -0.013568254
-0.013386488 0.109423645 0.011372561 -0.0453224 0.1815712 -0.009683595 0.054776825 -0.011564275
0.20243442 -0.11814546 -0.06766829 0.01456122 -0.03362501 0.12265395 0.02061925 -0.024400225
-0.12608656 -0.066719756 0.13034342 -0.06510623 -0.034069512 0.010978574 0.17507096 -0.0017589668
0.24403733 0.15743017 -0.124577776 0.0066189747 -0.12156727 0.18706746 0.01634213 -0.09825565
-0.021326121 0.1987864 0.026410103 0.13446787 0.0615751 0.100223996 -0.077797405 -0.3227205
-0.10658159 0.18020512 0.008715369 0.04948015 0.21324937 0.31621802 -0.14763927 0.069389455
-0.090023994 -0.042031955 0.049479686 0.04212414 -0.025984766 -0.13888401 -0.06624983 0.5176405
-0.0760054 -0.07143393 -0.14545576 -0.06326411 -0.1865142 -0.09359796 0.018777356 0.0041159475
0.20926967 0.2227209 0.049792517 0.070889145 0.035063736 0.010106179 0.1659175 0.0012117086
0.061916288 -0.003614874 0.065620765 -0.022365993 -0.039842878 -0.090818346 -0.07076104 -0.07128452
0.093517445 0.014307998 -0.07598768 -0.25643337 0.15295257 0.21259478 -0.18269177 -0.06628194
-0.041626517 0.016379118 -0.021832839 -0.09103484 0.23704158 0.043960653 -0.06775767 0.02136228
0.0036284837 -0.049069166 0.020228097 0.07251398 0.03633704 -0.02430724 -0.042046502 -0.10808343
0.08049096 -0.13650677 -0.027427694 -0.079199545 0.3016982 -0.031395055 -0.006395342 -0.008521136
-0.079131514 -0.0759382 0.0055915387 0.04846833 0.0047764066 -0.054940306 -0.025791695 -0.23332691
0.15394153 -0.015017468 -0.022400133 -0.027145512 0.042685673 0.448597 0.1265527 -0.091065995
0.040354095 -0.052748702 -0.13333578 0.09310217 -0.030830802 -0.072607964 -0.09310698 0.012591627
0.05052128 -0.030446436 -0.016071862 -0.043394353 0.0149673745 -0.021515518 0.06586828 -0.055214874
0.027614508 0.19511315 0.047067825 0.08611416 -0.10556798 0.059226334 0.20028839 -0.088704646
0.0001832501 0.16596906 -0.2037847 -0.09852311 -0.09946081 0.060922615 -0.14087243 -0.0520259
-0.17941771 -0.01278503 0.0059729633 -0.4602455 0.20525025 0.22344717 0.08991851 -0.011351946
-0.06234153 -0.016913744 -0.047867812 -0.030074058 -0.00031209446 0.03865165 0.06672024 -0.000971502
-0.12806687 0.63101816 0.008578861 0.040332526 0.027355632 -0.06528399 0.18548542 0.097243436
-0.11350821 -0.17858979 0.15917283 0.07737296 0.05457617 -0.12672503 0.0029117363 -0.05838288
0.22584887 0.062183004 0.022109106 0.071786344 0.07888267 -0.011331974 0.078103706 -0.036568277
0.024855254 -0.049497828 0.0036417583 -0.031277724 -0.057557125 -0.10455944 0.01316235 0.01340895
0.28515115 0.1110777 -0.07025675 0.16372785 0.011345128 -0.061143223 -0.09366072 -0.052823137
0.0021132294 0.03756766 -0.032160025 0.31451458 -0.023469869 0.08940054 0.054601658 -0.10705506
0.035374444 -0.29331926 0.17519456 0.11557961 -0.050376266 -0.024500502 0.12824544 -0.30496338

fc2.bias f4 [3]
00000000: 41f5 44be 5b88 49be 3309 1b3e
-0.19234182 -0.19680922 0.15140228
