pyCode/Autoencoder/model/Autoencoder4Magnet.pth (torch, 97769 bytes, 16 tensors)

encoder.0.weight f4 [128, 3]
0	0x3e98be9b	0.2983292
1	0x3f1a71e8	0.6033006
2	0x3f0bd634	0.54623723
3	0x3f01066d	0.5040043
4	0xbe7d5776	-0.24740395
5	0xbf1b2ab5	-0.6061204
6	0xbee8386e	-0.45355552
7	0xbee882cc	-0.4541229
8	0xbe00a864	-0.12564236
9	0x3f046024	0.517092
10	0xbe0b06d5	-0.13576825
11	0x3ee93eef	0.45555827
12	0x3ed2c652	0.4116693
13	0xbf0d65b3	-0.55233306
14	0xbf1b5eb5	-0.60691386
15	0xbe66e35a	-0.22547665
16	0xbe19ce1d	-0.15020032
17	0x3ee2adb1	0.4427314
18	0xbe73d042	-0.23809913
19	0x3efff691	0.49992803
20	0x3e8d1741	0.27556804
21	0xbf151035	-0.58227855
22	0xbcb7e4ab	-0.022447905
23	0xbed00318	-0.4062736
24	0xbdde54f2	-0.10856046
25	0xbe846691	-0.25859502
26	0x3f0a946c	0.54132724
27	0xbd561db4	-0.05227442
28	0x3ef7036d	0.482448
29	0x3e94a026	0.29028434
30	0x3e8ccdc2	0.2750073
31	0xbebaaff0	-0.36462355
32	0xbe01756e	-0.12642452
33	0x3d8085c8	0.06275517
34	0x3f04aac1	0.5182305
35	0x3f09d1fc	0.53836036
36	0xbeb69a8e	-0.3566479
37	0xbf01a323	-0.5063955
38	0x3eb7ee48	0.35923982
39	0x3dc4803a	0.0959477
40	0xbef5fc6e	-0.4804415
41	0xbea290df	-0.31751153
42	0xbf073446	-0.5281414
43	0xbd412ee5	-0.047163863
44	0x3eaf5146	0.34241694
45	0xbe7867e1	-0.24258377
46	0xbe05416b	-0.13013236
47	0x3e556d0e	0.20842382
48	0xbef844eb	-0.4849008
49	0xbf00b286	-0.50272405
50	0x3bf18328	0.0073703714
51	0x3dc49d7e	0.09600352
52	0x3ebf93de	0.374175
53	0x3e905048	0.2818625
54	0x3edbd097	0.4293258
55	0xbea44c53	-0.3208948
56	0x3e557731	0.20846249
57	0xbed823d7	-0.42214844
58	0xbef50033	-0.47851714
59	0xbf141151	-0.5783892
60	0xbe962525	-0.29325214
61	0x3ebe6377	0.3718526
62	0x3ecf70f5	0.40515867
63	0xbdfe38b3	-0.12413158
64	0xbea7397a	-0.3266104
65	0xbdcaa43a	-0.09894605
66	0xbd82edbb	-0.06393
67	0x3edf94d6	0.4366824
68	0x3e4ece5a	0.20195904
69	0xbe4a9107	-0.19781886
70	0xbe79fe04	-0.24413306
71	0x3f07e07a	0.530769
72	0x3e7a3c51	0.24437071
73	0x3edb4065	0.42822567
74	0x3cdd88c4	0.027042754
75	0x3e8ebc0b	0.2787784
76	0x3e42ae75	0.19011863
77	0xbe9e4ff1	-0.30920365
78	0x3e8e41c0	0.27784538
79	0xbf013222	-0.5046712
80	0xbeef3ee9	-0.46727684
81	0xbee2d82e	-0.44305557
82	0x3d00a2a5	0.03140511
83	0x3c1e42bb	0.0096594645
84	0x3e16203d	0.14660735
85	0xbf1380d8	-0.57618475
86	0xbeab017b	-0.33399567
87	0xbd93cd45	-0.072168864
88	0x3d200061	0.03906286
89	0xbea125ee	-0.3147425
90	0xbeb48b41	-0.35262492
91	0xbeaf3489	-0.3421977
92	0xbe89b0d8	-0.26892734
93	0xbe967954	-0.2938944
94	0x3ee47b8d	0.44625512
95	0x3f0c789e	0.5487155
96	0xbe97dddf	-0.29661462
97	0xbce7b2a6	-0.028283428
98	0x3ec5e5c3	0.38651857
99	0x3eaedd29	0.34153107
100	0x3c65aaec	0.014017802
101	0x3ea13ac1	0.31490138
102	0x3e4b6515	0.19862778
103	0xbcb0d620	-0.021586478
104	0xbeb4f340	-0.35341835
105	0x3dc2559d	0.09488986
106	0xbf0ef946	-0.5584911
107	0xbe2eb053	-0.1705945
108	0x3e74b093	0.23895483
109	0x3e87d33d	0.2652835
110	0xbf14416b	-0.5791232
111	0xbe27f7fe	-0.16403195
112	0xbe3504f2	-0.17677668
113	0x3e8bfe0c	0.2734226
114	0x3df0c4ee	0.11756311
115	0xbf092a81	-0.5358048
116	0xbed1f564	-0.4100753
117	0x3e9a06e0	0.3008337
118	0xbed1aa58	-0.40950274
119	0x3ed52eb6	0.416372
120	0xbe84a05a	-0.2590359
121	0xbe873604	-0.26408398
122	0xbed5d7f3	-0.4176632
123	0x3ecdc55b	0.40189633
124	0xbe2ec0d5	-0.17065747
125	0xbf11e485	-0.5698932
126	0xbf1dc0e5	-0.6162246
127	0x3c9a1a0c	0.018811248
128	0xbd950f42	-0.07278301
129	0x3eadf06c	0.3397249
130	0xbdc68be3	-0.0969465
131	0x3f0b7392	0.5447322
132	0x3eb46be5	0.35238567
133	0x3e2448c1	0.16043378
134	0xbe9e9793	-0.30975017
135	0x3e1ca675	0.15297873
136	0x3f0753a1	0.5286198
137	0xbecd2353	-0.40066013
138	0xbe20d3b9	-0.15705766
139	0x3ed5b1a0	0.4173708
140	0x3e520804	0.2051087
141	0xbefadb54	-0.4899546
142	0xbf14548f	-0.57941526
143	0xbf0c914e	-0.5490922
144	0xbd9aa928	-0.07551795
145	0xbea9b002	-0.33142096
146	0x3e0cbf16	0.13744769
147	0x3ec931fe	0.39295954
148	0xbef77009	-0.48327664
149	0xbef1034a	-0.47072822
150	0x3e3b2e59	0.18279399
151	0xbe39f003	-0.18157963
152	0x3e967d85	0.2939264
153	0x3ed52510	0.4162984
154	0xbe97f0c4	-0.29675877
155	0xbdd5049a	-0.10401268
156	0x3d1aaf5d	0.037764896
157	0xbf080552	-0.5313312
158	0xbd382607	-0.04495814
159	0x3dbcc810	0.092178464
160	0xbe079f04	-0.13244253
161	0x3d2ee4b3	0.042698573
162	0x3f165f20	0.587389
163	0xbe809c04	-0.2511903
164	0xbda4ce3a	-0.08047147
165	0x3dbe511a	0.09292813
166	0x3ec87a0e	0.3915562
167	0x3ea691dd	0.3253316
168	0xbf1266d5	-0.5718816
169	0x3ef478d9	0.4774845
170	0xbd750210	-0.05981642
171	0xbf20a4d7	-0.62751526
172	0x3e866155	0.26246133
173	0xbec77250	-0.389544
174	0x3e070231	0.1318443
175	0xbdb6b1b4	-0.08920613
176	0xbe7fc4e4	-0.24977452
177	0xbeef6e09	-0.46763638
178	0xbf041291	-0.5159083
179	0xbed39e55	-0.41331735
180	0xbedbc9ed	-0.42927495
181	0x3ecfd997	0.40595695
182	0xbefb157f	-0.49039838
183	0xbe95f7ba	-0.29290563
184	0xbebb1f49	-0.36547306
185	0xbda35fd1	-0.0797726
186	0x3ec59d97	0.38596794
187	0xbd8c74df	-0.06858229
188	0x3ed297ab	0.41131338
189	0x3ee031e5	0.43788067
190	0x3f156256	0.58353174
191	0x3e2258af	0.15854143
192	0x3df00b8c	0.117209524
193	0xbedf84d8	-0.4365604
194	0x3e6f2eb8	0.23357666
195	0xbe230fdc	-0.15924019
196	0x3dc416d7	0.09574669
197	0x3ee85aba	0.4538172
198	0x3db6b0c5	0.08920435
199	0xbe9cd3f2	-0.3063045
200	0xbdededb9	-0.116176076
201	0x3eca3c0a	0.3949893
202	0x3df08ba3	0.117453836
203	0x3e02599c	0.12729496
204	0x3be4e8fd	0.006985782
205	0xbcba5c36	-0.022749048
206	0x3ea4743e	0.32119936
207	0xbe889b1e	-0.26680845
208	0xbdd16c3e	-0.10225724
209	0x3ef42def	0.47691295
210	0xbe16e9c3	-0.1473761
211	0x3cf5ce31	0.030005546
212	0xbee8570d	-0.45378914
213	0xbdd478ce	-0.10374604
214	0x3eaf2575	0.34208265
215	0x3e8932ff	0.2679672
216	0x3efd9ff2	0.4953609
217	0x3e96d88b	0.29462084
218	0xbef88a45	-0.4854299
219	0x3e8cc748	0.2749579
220	0xbe7fbee4	-0.24975163
221	0xbf059ef9	-0.521957
222	0xbee36101	-0.44409946
223	0x3e28cfef	0.1648557
224	0x3e47456e	0.19460079
225	0xbe843dca	-0.2582839
226	0x3ebecde0	0.37266445
227	0x3cc93097	0.024559302
228	0xbf0ef803	-0.55847186
229	0x3e68db86	0.22739992
230	0x3e6f986d	0.2339799
231	0x3e462fef	0.19354223
232	0xbf09c332	-0.5381347
233	0xbebcde6e	-0.3688845
234	0x3cf3db99	0.029767798
235	0x3edc7d68	0.43064427
236	0x3f087a1d	0.5331133
237	0x3e8d787f	0.27630994
238	0x3e6239ae	0.22092316
239	0xbf03ba7f	-0.51456445
240	0xbee5b5de	-0.44865316
241	0xbeda8dc9	-0.42686298
242	0x3dd0623e	0.10174988
243	0x3ee6846d	0.45022908
244	0x3e74b8be	0.23898599
245	0x3dcf34c6	0.101174876
246	0xbd3fda48	-0.04683903
247	0x3d255023	0.040359627
248	0x3ebec421	0.3725901
249	0x3e3b4a8c	0.18290156
250	0xbeb21b2e	-0.3478636
251	0x3db7e2f2	0.08978833
252	0xbdf3b123	-0.118990205
253	0xbef692e6	-0.4815895
254	0x3e55a312	0.20862988
255	0xbe810bfc	-0.25204456

encoder.0.bias f4 [128]
0	0x3efbb113	0.49158534
1	0x3d87c473	0.066292666
2	0x3d4da722	0.05020822
3	0x3eb280bf	0.3486385
4	0xbec05490	-0.37564516
5	0xbeb00a10	-0.34382677
6	0x3e42ed7d	0.19035907
7	0xbe0c887c	-0.1372394
8	0xbf03f83d	-0.51550657
9	0xbe706677	-0.23476587
10	0x3eef69e9	0.4676049
11	0x3df29801	0.11845399
12	0x3eea6288	0.45778298
13	0xbe2bed3d	-0.16789718
14	0x3e8011bb	0.25013527
15	0x3ea89b33	0.32930908
16	0x3ee11735	0.43963018
17	0xbe0ec582	-0.13942531
18	0xbe99bd06	-0.30027026
19	0xbed80b24	-0.42196
20	0xbdf7728e	-0.120823964
21	0xbe8561a9	-0.2605107
22	0x3e9f2340	0.3108158
23	0x3f1b1859	0.60584027
24	0x3ed51943	0.41620836
25	0xbefec783	-0.4976159
26	0x3eb00a2e	0.34382766
27	0x3e2f334a	0.17109409
28	0xbeb21389	-0.3478053
29	0x3e6c6168	0.23084033
30	0xbed7d074	-0.42151225
31	0xbe9dcafc	-0.30818927
32	0x3e22ed38	0.15910804
33	0xbecbff52	-0.3984323
34	0xbe3c4b3e	-0.18388078
35	0xbeb13027	-0.3460705
36	0xbcf470d6	-0.02983896
37	0xbd7bc0cd	-0.061463166
38	0x3e10e918	0.14151418
39	0xbd20536e	-0.039142065
40	0xbf0499c9	-0.5179716
41	0x3eac980a	0.33709747
42	0xbe298dd5	-0.16558011
43	0x3e1debab	0.15421931
44	0xbebd5a08	-0.3698275
45	0xbe54769a	-0.20748368
46	0xbee3f5fa	-0.44523603
47	0xbe036e42	-0.12835029
48	0xbeb79e89	-0.3586314
49	0xbe946c34	-0.28988802
50	0xbf02e702	-0.5113374
51	0x3ec128ad	0.37726346
52	0xbe40ef2a	-0.18841234
53	0xbe66b5c2	-0.22530273
54	0x3e861472	0.26187474
55	0x3eb4f883	0.3534585
56	0xbd49738a	-0.049182452
57	0xbe27e6a2	-0.16396573
58	0x3edfffa1	0.43749717
59	0xbebb3b5a	-0.3656872
60	0x3e05157b	0.12996475
61	0x3e9fb0b7	0.3118951
62	0x3f1767bc	0.5914266
63	0xbeb4a77c	-0.3528403
64	0x3f0c0e30	0.5470915
65	0x3ee7bcad	0.45261136
66	0xbe49fdab	-0.19725673
67	0x3de9a996	0.11409299
68	0x3e9a825d	0.30177584
69	0x3e06b957	0.13156639
70	0xbd007853	-0.03136475
71	0x3ee2ce57	0.4429805
72	0xbe14feb1	-0.14550282
73	0xbf1d423a	-0.6142918
74	0x3f0b164c	0.543309
75	0x3e90b00c	0.28259313
76	0xbe88b48d	-0.2670025
77	0x3f16196b	0.58632535
78	0xbec70e44	-0.3887807
79	0x3eb3c017	0.3510749
80	0xbe035b63	-0.1282783
81	0x3e055d57	0.13023888
82	0x3d5361c8	0.051606923
83	0xbea8f5f5	-0.3300015
84	0x3e5cc280	0.21558571
85	0x3ee20e0a	0.44151336
86	0xbe96d0fb	-0.29456314
87	0xbec2b9ba	-0.38032323
88	0xbeab70f8	-0.33484626
89	0x3e8f3ad6	0.27974576
90	0x3e1270a6	0.14300784
91	0x3f195b7b	0.59905213
92	0xbee69181	-0.45032886
93	0xbd9d02ba	-0.07666536
94	0xbd9e20b6	-0.07721083
95	0xbde60103	-0.11230662
96	0xbee42dad	-0.44566098
97	0x3e44db50	0.19224286
98	0xbf083e03	-0.5321962
99	0x3de51a3a	0.11186643
100	0x3eecea4a	0.46272498
101	0x3f1a1ac2	0.6019708
102	0xbe87a5fc	-0.26493824
103	0xbef7dd74	-0.48411143
104	0xbe9ecd3c	-0.31015956
105	0xbe10741f	-0.14106797
106	0x3d593158	0.053025573
107	0x3dff0fea	0.12454207
108	0xbec6f78f	-0.38860747
109	0x3e0c8c89	0.13725485
110	0xbf063130	-0.52418804
111	0x3eb53aef	0.35396525
112	0xbe85dcc0	-0.2614498
113	0xbf0f10ba	-0.558849
114	0xbda1907f	-0.078888886
115	0x3edec912	0.4351278
116	0x3e5a8b03	0.21342091
117	0xbe77b268	-0.2418915
118	0xbe8de302	-0.27712256
119	0xbeab5a55	-0.33467355
120	0x3ef3d9f4	0.47627223
121	0x3e5bdcd4	0.21470958
122	0xbe4c9ec5	-0.19982441
123	0xbed74378	-0.42043662
124	0x3f1ab76a	0.6043612
125	0x3f17dd8d	0.59322435
126	0xbe1c5840	-0.1526804
127	0xbeb8bb71	-0.36080506

encoder.2.weight f4 [64, 128]
0	0x3cdb58fb	0.026775828
1	0x3b39f6fa	0.002837597
2	0xbd211484	-0.039326206
3	0x3d8edd48	0.069758
4	0xbd8e4a0a	-0.069477156
5	0x3db5ae56	0.088711426
6	0x3dfc05d5	0.123058
7	0xbb6127a1	-0.0034355896
8	0xba4f9e40	-0.00079200044
9	0x3e06e6a9	0.13173927
10	0xbd8a21d1	-0.06744731
11	0x3d92110e	0.07132159
12	0x3ce03dc1	0.027373197
13	0x3cdaa8a2	0.026691739
14	0x3dd5a281	0.10431386
15	0x3d79cae5	0.06098451
16	0xb9db8ba0	-0.00041874964
17	0xbd45220c	-0.048128173
18	0x3da1f29c	0.07907602
19	0xbcc1616e	-0.023606028
20	0x3d8f4a5d	0.069966055
21	0x3ca29938	0.019848451
22	0x3da64930	0.08119428
23	0x3ccc4244	0.024933942
24	0x3d70cac0	0.058787107
25	0xbcff4e8d	-0.031165386
26	0xbd3907b6	-0.04517337
27	0xbcf1d585	-0.02952076
28	0x3d9cef42	0.07662822
29	0x3d7616f6	0.06008049
30	0xbb34b941	-0.002757624
31	0x3d8af714	0.06785408
32	0x3daec4d0	0.08533633
33	0xbcf64fdb	-0.030067375
34	0xbd0177ab	-0.031608265
35	0x3d26d4b0	0.04073018
36	0xbd02eaae	-0.03196209
37	0x3d281198	0.041032404
38	0x3cf97b66	0.030454349
39	0xbd1c478b	-0.038154166
40	0xbb01f5df	-0.0019830388
41	0xbbf65e33	-0.0075185536
42	0x3dbbe5a2	0.09174658
43	0x3dacc8db	0.08436748
44	0xbd5f3af8	-0.054499596
45	0x3d2bf489	0.041981254
46	0x3e1c759c	0.1527924
47	0xbd4fc7a5	-0.050727505
48	0xbdbf88a6	-0.093522355
49	0x3c7f0800	0.015565872
50	0xbb8ff911	-0.0043937047
51	0xbd87c065	-0.06628493
52	0x3dac55fd	0.084148385
53	0xbcc0b7fa	-0.023525227
54	0x3c5a8292	0.013336794
55	0x3d668a66	0.05628433
56	0x3dfd4c1f	0.123680346
57	0xbcdf1d31	-0.0272356
58	0xbc3dd557	-0.011586509
59	0x3ccc2640	0.024920583
60	0x3c89c93b	0.016819587
61	0x3cd1aeb8	0.025596008
62	0xbd63a0fc	-0.05557345
63	0x3d4f7f43	0.050658476
64	0xbc9f47ab	-0.019443354
65	0x3d00c12a	0.031434216
66	0xbda2dccc	-0.0795227
67	0x3cea12bd	0.028573388
68	0xbd04ade8	-0.032392412
69	0x3ce4812f	0.02789363
70	0xbd86e41c	-0.06586477
71	0x3d4fb6c1	0.050711397
72	0x3ba7a321	0.005115882
73	0xbd6ffb15	-0.05858906
74	0x3deea379	0.11652274
75	0x3b1f9c9b	0.0024354819
76	0x3cf08bb1	0.029363485
77	0x3ddfd953	0.10930123
78	0x3b687b43	0.003547386
79	0xbd7f4bd4	-0.062328175
80	0xbd73e242	-0.05954195
81	0xbc05d1f1	-0.00816773
82	0xbc46abaf	-0.0121258935
83	0xbda7c8f2	-0.08192624
84	0xbced2e17	-0.028952641
85	0x3d45162d	0.04811685
86	0xbd69edba	-0.05711148
87	0xbce0a4ec	-0.02742239
88	0xbc0b0da0	-0.008487135
89	0xbd6090de	-0.054825656
90	0x3d949352	0.072546616
91	0x3cdbd6f1	0.02683589
92	0xbd8f30af	-0.069917075
93	0xbc29e338	-0.010369115
94	0xbd2e08b6	-0.042488776
95	0xbd81c023	-0.06335475
96	0x3db2e45c	0.08734962
97	0xbc9a050c	-0.018801235
98	0x3d888f78	0.066679895
99	0x3d3d3d67	0.046201136
100	0x3bb56922	0.0055362144
101	0xbc1a79cd	-0.009428454
102	0x3d884be3	0.06655099
103	0xbccc83b4	-0.024965145
104	0xbd349b62	-0.044093497
105	0x3d79340f	0.060840663
106	0xbbf1d458	-0.0073800497
107	0x3b38879e	0.0028157006
108	0xbc74c44e	-0.014939381
109	0x3d0efffc	0.034912094
110	0xbda3538c	-0.0797492
111	0x3be7a547	0.007069263
112	0x3cba187f	0.022716759
113	0x3d377465	0.044788737
114	0x3d5ccde0	0.053907275
115	0x3dc4b460	0.09604716
116	0x3a1d070d	0.00059901254
117	0x3d9c5f19	0.07635326
118	0xbce8aa2c	-0.028401457
119	0xbd061d95	-0.032743055
120	0xbd751aff	-0.0598402
121	0x3d8d1c72	0.06890191
122	0x3c8b16a1	0.016978564
123	0xbdb94bbf	-0.090476505
124	0x3c487e74	0.01223718
125	0x3dd8a3f3	0.10578146
126	0x3c8e26ad	0.017352426
127	0x3dfc7480	0.12326908
128	0x3ac920c2	0.0015344846
129	0x3beb02cb	0.007171964
130	0xbb0bcebe	-0.0021332945
131	0x3d0422f1	0.032259885
132	0x3dc3737f	0.095435135
133	0xbbc5e8c1	-0.0060397093
134	0x3d1ed3a9	0.038776074
135	0xbda10b02	-0.07863428
136	0xbcac5083	-0.021034485
137	0xbcf46042	-0.029831056
138	0x3d82e9f5	0.0639228
139	0xbd72600b	-0.059173625
140	0x3d2bc21f	0.041933175
141	0x3dbf0413	0.09326949
142	0xbdb4063c	-0.087902516
143	0xbdc4b372	-0.09604539
144	0xbd4a7efe	-0.049437515
145	0xbdf988c7	-0.12184291
146	0x3d40b35d	0.047046054
147	0x3c5f6bef	0.013636573
148	0xbd4c4850	-0.04987365
149	0xbd086e63	-0.033308398
150	0xbd1a1b56	-0.037623726
151	0xbbac1dec	-0.0052525904
152	0xbc84d97b	-0.016216984
153	0x3c5c5d25	0.013449942
154	0x3dc340db	0.095338546
155	0x3d0b19f4	0.033960298
156	0x3beb8eae	0.0071886396
157	0x3d569875	0.052391488
158	0x3c29764e	0.010343147
159	0x3cfbc84d	0.03073516
160	0xbd8cde01	-0.068782814
161	0x3d5f48cc	0.054512784
162	0x3da6e6f8	0.081495225
163	0x3d8b2ede	0.067960486
164	0x3dd14437	0.10218089
165	0x3d9c6f36	0.07638399
166	0x3d4aa781	0.04947615
167	0xbc66942a	-0.014073411
168	0x3de17034	0.11007729
169	0x3db95848	0.090500414
170	0x3d434c0b	0.047679942
171	0x3ddf3d93	0.10900416
172	0x3d207fb8	0.039184302
173	0x3d2e5305	0.042559642
174	0x3e1b674a	0.1517612
175	0x3da80ea7	0.0820592
176	0x3d67033e	0.056399576
177	0xbcd8e19f	-0.026474772
178	0x3d80daeb	0.06291755
179	0x3de3245d	0.1109092
180	0x3d477a8b	0.04870085
181	0x3e348b6a	0.17631307
182	0x3dc5b073	0.09652796
183	0x3c557169	0.013027527
184	0xbda270fb	-0.079317056
185	0xbcee3148	-0.029076234
186	0x3b9f8229	0.004867811
187	0x3d450c7a	0.0481076
188	0x3d215a9e	0.03939306
189	0xbd08cbab	-0.033397358
190	0x3db4ca71	0.08827675
191	0xbca2f612	-0.019892726
192	0x3c6ced66	0.014460897
193	0x3ccb0b63	0.024785703
194	0x3bab322e	0.0052244877
195	0xbd9994c0	-0.07499075
196	0xbd1501fe	-0.036378853
197	0x3bf6e6be	0.007534831
198	0x3dc6a078	0.09698576
199	0xbd65cea4	-0.05610527
200	0xbc8bdd2d	-0.017073238
201	0x3dacd0fd	0.08438299
202	0xbd04dd32	-0.03243751
203	0x3ceca9c4	0.028889544
204	0xbdcd578a	-0.100264624
205	0xbd6a1e32	-0.057157703
206	0xbdf532bf	-0.1197257
207	0x3de0c56c	0.10975155
208	0xbcbaaec9	-0.022788422
209	0xbcf8ae6d	-0.03035661
210	0x3cd42e4b	0.02590098
211	0xbcbbac94	-0.02290944
212	0x3da49d27	0.08037787
213	0xbd8122b2	-0.06305446
214	0x3d7c310f	0.061570223
215	0xbd027bcc	-0.031856343
216	0x3b43b9c5	0.0029865366
217	0x3de0dc24	0.109794885
218	0xbd3b5700	-0.045737267
219	0x3d8dfe07	0.069332175
220	0x3d058d3e	0.032605402
221	0xbc962be2	-0.018331472
222	0x3da33270	0.079686046
223	0x3d08f6e7	0.03343859
224	0x3e31c46f	0.1736009
225	0x3c77cf5f	0.015125125
226	0x3de69c00	0.112602234
227	0xbd1f4a9d	-0.038889516
228	0x3dadace5	0.08480243
229	0x3d7e5625	0.062093873
230	0xbce6ea14	-0.028187789
231	0x3d81d291	0.063389905
232	0xbcfc918e	-0.030831125
233	0x3c1e3a98	0.0096575245
234	0xbdcd0c35	-0.10012094
235	0xbd883000	-0.0664978
236	0xbc852b3e	-0.016255971
237	0xbc7e19fb	-0.015509124
238	0xbdfcdab2	-0.123464
239	0x3d4b1ad0	0.049586117
240	0x3d2eb6fd	0.04265498
241	0xbb19b23a	-0.0023452179
242	0x3e0273a3	0.12739424
243	0xbbd92656	-0.0066268845
244	0xbd0c1021	-0.03419507
245	0x3d77765b	0.060415607
246	0x3dd0ce10	0.10195553
247	0x3d817ae5	0.063222684
248	0xbd5795bb	-0.05263303
249	0xbcd3f6d9	-0.025874542
250	0x3d062a7f	0.03275537
251	0x3d5cbf78	0.053893536
252	0xbd2e506e	-0.042557172
253	0x3d86f9ee	0.06590639
254	0xbd69e349	-0.05710152
255	0x3d3bbcb4	0.04583426

encoder.2.bias f4 [64]
0	0x3936336a	0.00017376026
1	0xbc8c238f	-0.0171068
2	0x3cf2c5fc	0.029635422
3	0xbc199dcb	-0.009376
4	0xbd05cfd6	-0.03266891
5	0x3c8112e3	0.015756076
6	0x3d4ab6ac	0.049490616
7	0x3abee208	0.0014563212
8	0x3d9ae098	0.07562369
9	0x3d4b7e52	0.049681015
10	0x3d386ea2	0.045027383
11	0x3cf80c35	0.030279258
12	0xbd101b2e	-0.03518217
13	0x3e009b73	0.12559299
14	0xbd9c0ab1	-0.07619227
15	0xbd975c7d	-0.073906876
16	0xbc169450	-0.009190634
17	0x3dcae964	0.09907797
18	0x3ccff985	0.025387535
19	0xbc376606	-0.011193758
20	0xbba4fbf8	-0.00503492
21	0xbdc763c6	-0.09735827
22	0xbcc84f48	-0.024451867
23	0x3d6cd526	0.05782046
24	0x3ca81365	0.02051706
25	0xbcefe026	-0.029281687
26	0xbcc92d6c	-0.024557792
27	0xbb8d6dcc	-0.0043160673
28	0x3d396adc	0.045267925
29	0x3cf96775	0.03044484
30	0x3dc7c95e	0.097552046
31	0x3c97db15	0.018537084
32	0x3db75eee	0.08953653
33	0x3d968476	0.07349484
34	0xbb7c2220	-0.0038472489
35	0x3b823c01	0.003974438
36	0x3bf2a04c	0.007404363
37	0x3ceb665e	0.028735336
38	0xbcf2a033	-0.029617405
39	0x3dc751d4	0.09732404
40	0xbc90304a	-0.017601151
41	0xbdb452da	-0.08804865
42	0x3c8131af	0.015770761
43	0xbb66494f	-0.003513891
44	0x3d247def	0.040159162
45	0xbc91aba7	-0.017782046
46	0xbc8cb788	-0.017177358
47	0x3df6239a	0.12018509
48	0xbc60785c	-0.013700571
49	0x3d4af172	0.049546666
50	0x3d2949a4	0.041329995
51	0xbd7a2d84	-0.061078563
52	0x3d6853ae	0.05672043
53	0xbd89bc02	-0.06725313
54	0xbc833aa9	-0.016019182
55	0xb8677659	-5.518491e-05
56	0xbc256f6c	-0.010097366
57	0xbd1aef66	-0.037825964
58	0x3dda5306	0.10660367
59	0x3d9db922	0.07701327
60	0x3c63e61e	0.013909845
61	0x3d0757ba	0.033042647
62	0xbdac3c37	-0.084099226
63	0x3c884118	0.016632602

encoder.4.weight f4 [32, 64]
0	0xbdb92b20	-0.090414286
1	0x3c1c68b0	0.009546444
2	0x3bc2e520	0.005947724
3	0xbde8bb26	-0.11363821
4	0x3ddaa5a0	0.10676122
5	0xbd969184	-0.07351974
6	0x3cd01068	0.025398448
7	0xbcaf0f08	-0.021369472
8	0xbd995d9a	-0.07488556
9	0xbd17cf20	-0.037062764
10	0xbdf1b33a	-0.11801763
11	0xbd041d34	-0.032254413
12	0x3c989e40	0.018630147
13	0x3d7d3ea8	0.06182733
14	0x3dc6eeb2	0.09713496
15	0x3d3454f8	0.044026345
16	0x3d8fcc9e	0.070214495
17	0xbcc23a48	-0.023709431
18	0xbdb3979e	-0.08769153
19	0x3dd686d6	0.10474937
20	0xbda2b43c	-0.07944533
21	0xbd145a48	-0.03621891
22	0x3d9c7a14	0.07640472
23	0x3d593808	0.05303195
24	0xbdd4d0e2	-0.10391404
25	0x3d15debc	0.03658937
26	0x3cbaae10	0.022788078
27	0x3dc6dae2	0.09709717
28	0xbc4bcea0	-0.0124394
29	0xbc8de5f8	-0.017321572
30	0xbc4f0750	-0.012636021
31	0x3defedfe	0.11715315
32	0xbdfc18fc	-0.12309453
33	0xbde53e44	-0.11193517
34	0x3dd64fe8	0.1046446
35	0xbda28d00	-0.0793705
36	0xbde3e990	-0.11128533
37	0xbd251b84	-0.040309444
38	0xbde42c28	-0.11141235
39	0xbdb7b692	-0.089703694
40	0xbd6cfd0c	-0.05785851
41	0x3de0d11e	0.10977386
42	0x3cb11ac0	0.0216192
43	0x3df486ee	0.11939798
44	0xbdcd7e24	-0.10033825
45	0x3d36aeec	0.044600412
46	0xbdbca366	-0.09210853
47	0xbcf139a0	-0.029446423
48	0x3d000174	0.031251386
49	0x3da73cea	0.08165915
50	0x3d1d9c48	0.03847912
51	0x3b9a6d80	0.0047127604
52	0xbde50350	-0.111822724
53	0xbd11c1cc	-0.03558521
54	0xbd279354	-0.040911987
55	0x3d3dd628	0.046346813
56	0x3df18878	0.117936075
57	0xbdbd31a4	-0.09237984
58	0x3d3fb34c	0.04680185
59	0xbd5a8008	-0.053344756
60	0x3dd33d98	0.103144825
61	0x3d4ff1a8	0.05076757
62	0xbdd281d2	-0.102786675
63	0x3ce64568	0.028109267
64	0x3e18d241	0.14923956
65	0xbde60cb7	-0.11232894
66	0xbbb9de72	-0.0056722695
67	0xbd995aa1	-0.07487989
68	0x3e058d4d	0.13042183
69	0x3ddc127a	0.107457116
70	0xbca8dc97	-0.020612998
71	0xbd7b1cc3	-0.061306726
72	0xbde4b7fe	-0.11167906
73	0x3dfeb84a	0.12437494
74	0x3dce1a6d	0.10063634
75	0xbdcaa6a1	-0.09895063
76	0xbddc61f9	-0.10760874
77	0x3e285a36	0.16440663
78	0x386fd2aa	5.7178237e-05
79	0xbcfe2560	-0.031023681
80	0xbd8eb32c	-0.06967768
81	0x3db9bf1f	0.090696566
82	0x3e0c6686	0.13710985
83	0x3d3f42a4	0.046694413
84	0x3d795f60	0.060881972
85	0x3da95400	0.08267975
86	0x3d1c16e5	0.03810777
87	0xbd98d7c2	-0.074630275
88	0x3deacb2c	0.11464533
89	0x3e24715a	0.16058865
90	0xbdeeda8c	-0.11662778
91	0x3d1d64e7	0.038426306
92	0x3ddf3d06	0.10900311
93	0x3e116d94	0.14201957
94	0x3db4aca1	0.08821989
95	0xbd9e2f35	-0.07723848
96	0xbc728c76	-0.014803996
97	0x3d31da1f	0.043420907
98	0x3e1690af	0.1470363
99	0xbdeeddac	-0.11663374
100	0x3d8131ed	0.06308351
101	0x3df6d77f	0.12052821
102	0xbd40981b	-0.04702006
103	0x3e2c108c	0.16803187
104	0x3da4caf2	0.08046521
105	0xbd968e5c	-0.07351372
106	0xbccb05af	-0.024782984
107	0xbdc7722e	-0.09738575
108	0xbd5b6351	-0.053561512
109	0x3ddd2853	0.10798707
110	0xbc262be5	-0.010142301
111	0x3dab9708	0.08378416
112	0xbd2d5d79	-0.04232547
113	0xbdb0c6c0	-0.086316586
114	0xbd64e092	-0.05587823
115	0xbdb5e89b	-0.088822566
116	0x3d17f951	0.037103
117	0x3dda38d0	0.106553674
118	0x3d609ac4	0.054835096
119	0xb7eb0ff4	-2.8021612e-05
120	0xbcaa5f8b	-0.020797512
121	0x3d8a5c85	0.06755928
122	0x3dc4f6d3	0.096173905
123	0x3e1acc9d	0.15117116
124	0xbcaf6e70	-0.021414965
125	0x3cbc95c3	0.02302063
126	0x3d9d3ae6	0.076772496
127	0x3dc0b1ec	0.09408936
128	0xbac4fcd2	-0.001502896
129	0x3dd8b276	0.10580914
130	0xbd809800	-0.06278992
131	0xbe13474c	-0.14382666
132	0xbc26ce99	-0.010181093
133	0x3b9e4a16	0.004830609
134	0xbe083118	-0.13299978
135	0x3d25426c	0.040346548
136	0xbd1bee9e	-0.03806936
137	0xbd812070	-0.06305015
138	0x3b9efa09	0.004851584
139	0xbd3b2ea2	-0.04569877
140	0xbdc76bdb	-0.09737369
141	0x3d980419	0.074226566
142	0x3d59dd7c	0.05318974
143	0x3dd7cf40	0.10537577
144	0xbd477d09	-0.048703227
145	0x3d8849b1	0.066546805
146	0x3dee5ba9	0.116385765
147	0xbdc90901	-0.098161705
148	0xbd6de511	-0.058079783
149	0xbde4ffba	-0.111815885
150	0x3deb6395	0.11493603
151	0x3d5171d8	0.05113396
152	0x3de31c34	0.11089364
153	0x3d2e2f5b	0.04252563
154	0x3d5dcc5a	0.054149963
155	0xbd81fb90	-0.0634681
156	0xbc88be56	-0.016692322
157	0x3d1ec3d9	0.038760994
158	0x3e22d8df	0.15903042
159	0xbd46b0d0	-0.048508465
160	0x3b03ef48	0.0020131636
161	0xbdb90699	-0.090344615
162	0x3e0cf0c3	0.13763718
163	0xbdfd4b18	-0.123678386
164	0x3e024bbf	0.12724207
165	0x3bc4c494	0.0060048793
166	0xbc914ed1	-0.017737778
167	0x3d4d5f71	0.05013985
168	0xbd6d4b09	-0.057932887
169	0x3d9ebc52	0.07750763
170	0x3dcfc437	0.10144847
171	0x3cd7b114	0.026329555
172	0x3d8cad5a	0.06869002
173	0x3d5c2387	0.05374482
174	0x3d0ca448	0.03433636
175	0x3b2299ed	0.0024810985
176	0x3e08bdba	0.13353625
177	0x3df7a36f	0.12091719
178	0x3ba4711a	0.0050183656
179	0xbda547f7	-0.08070367
180	0x3e26a3c2	0.16273406
181	0x3d435631	0.04768962
182	0xbd0aa339	-0.033847068
183	0x3d98fc7f	0.07470035
184	0xbd387758	-0.04503569
185	0x3d5e3fe5	0.054260153
186	0x3db8c0be	0.09021138
187	0x3e03f4ba	0.12886325
188	0xbdc7c645	-0.09754614
189	0x3db9202d	0.0903934
190	0xbdaeee13	-0.08541503
191	0x3dc3ee56	0.09566943
192	0xbde00ff4	-0.10940543
193	0xbd381ec0	-0.0449512
194	0xbdb72a23	-0.08943584
195	0xbcd572aa	-0.026055653
196	0x3bcbe954	0.0062228832
197	0x3a65f9b2	0.0008772864
198	0xbd14fba9	-0.036372814
199	0x3d627ea4	0.055296555
200	0x3d06e1fa	0.03293035
201	0x3c912360	0.017717063
202	0x3dd7945a	0.10526343
203	0xbdf5dcd9	-0.12005014
204	0x3d53959c	0.05165635
205	0xbc93a0be	-0.018020984
206	0x3de9734c	0.11398944
207	0xbdfb796a	-0.12279017
208	0x3dd4a224	0.10382488
209	0x3d89f7f7	0.06736749
210	0x3df321ac	0.11871657
211	0xbc301710	-0.010747686
212	0x3df9e2c6	0.12201457
213	0x3cee95d8	0.029124185
214	0x3d7f97e1	0.062400702
215	0x3da5579c	0.08073351
216	0xbdd9ee09	-0.10641105
217	0xbc490475	-0.012269129
218	0xbd01e577	-0.031712975
219	0xbd31d22c	-0.043413326
220	0xbd1be01a	-0.038055517
221	0xbda54407	-0.08069616
222	0xbd388221	-0.045045976
223	0xbc822bb5	-0.015889982
224	0x3ddc1bd8	0.10747498
225	0x3dac00b5	0.08398572
226	0xbd812d86	-0.06307511
227	0x3d854726	0.06507711
228	0x3dd5369f	0.10410809
229	0x3cc4bfd3	0.02401725
230	0x3c8a62f0	0.01689288
231	0xbcac2c55	-0.021017233
232	0xbda6597e	-0.08122538
233	0x3dcb5c82	0.09929754
234	0x3d443188	0.0478988
235	0x3cd50adf	0.02600616
236	0x3d983538	0.07432026
237	0x3a663875	0.00087822165
238	0xbca46168	-0.020065978
239	0x3de689a2	0.1125672
240	0xbd9cf9f3	-0.076648615
241	0x3df4e72e	0.119581565
242	0x3dbacb4b	0.09120806
243	0xbd65ac18	-0.056072325
244	0x3df3c749	0.11903245
245	0x3c3351ad	0.010944766
246	0xbd74ed72	-0.059796758
247	0x3d5e9375	0.054339845
248	0xbdc169c0	-0.09443998
249	0x3d0f8611	0.035039965
250	0x3d9349b2	0.07191791
251	0x3ca83d37	0.020537002
252	0x3dbc1087	0.0918284
253	0x3dd84bdf	0.10561346
254	0x3d3dee6c	0.046369955
255	0xbd5e865f	-0.054327365

encoder.4.bias f4 [32]
0	0xbdd26d0e	-0.10274707
1	0x3e1417dc	0.14462227
2	0x3e11f4cc	0.14253539
3	0xbdb480db	-0.0881364
4	0xbdda5758	-0.10661191
5	0xbdd5278a	-0.10407932
6	0xbe01656b	-0.12636344
7	0xbcd80cb7	-0.02637325
8	0x3db2ab2b	0.08724054
9	0x3b2f0472	0.002670553
10	0xbd3ea486	-0.04654362
11	0x3e0321dd	0.12805887
12	0x3d77c53f	0.060490843
13	0x3e0c3d80	0.13695335
14	0xbdbac02c	-0.09118685
15	0x3dcadfc2	0.0990596
16	0x3c09eee4	0.008418772
17	0xbdb62967	-0.088946156
18	0x3c667d4c	0.014067959
19	0xbd94ac3e	-0.07259415
20	0xbdacb1ca	-0.08432348
21	0x3da574ca	0.08078916
22	0x3d23d598	0.03999862
23	0xbdbf74fc	-0.09348485
24	0xbe028ded	-0.12749453
25	0xbca71ebb	-0.020400396
26	0x3d12dd00	0.035855293
27	0xbdce222a	-0.1006511
28	0xbcf52280	-0.029923677
29	0x3cc689ba	0.024235595
30	0x3c6ce6af	0.014459296
31	0x3ce9b167	0.028526975

encoder.6.weight f4 [8, 32]
0	0x3dc6a98a	0.09700306
1	0x3e41ae6c	0.18914193
2	0x3e3f7624	0.18697411
3	0xbe246781	-0.16055109
4	0xbdeee0c0	-0.116639614
5	0xbd5f0ce8	-0.054455668
6	0x3d5715df	0.052511092
7	0xbd720c84	-0.059093967
8	0xbe43bacc	-0.19114226
9	0x3db7099c	0.0893738
10	0x3e2329a7	0.15933858
11	0xbdc091c1	-0.094028
12	0xbe20713f	-0.156682
13	0xbe3d2cef	-0.18474172
14	0xbc6ee8d2	-0.014581876
15	0xbb336fb2	-0.0027379808
16	0x3e471ae1	0.19443847
17	0xbe329282	-0.17438701
18	0xbe01870c	-0.12649173
19	0x3e052f08	0.13006222
20	0x3dee78e2	0.1164415
21	0xbe29b39c	-0.16572422
22	0xbd6b2e64	-0.05741729
23	0xbdf247f8	-0.11830133
24	0x3dcf3424	0.10117367
25	0xbacee91c	-0.0015786025
26	0xbe4cb147	-0.19989501
27	0x3dbd8afd	0.092550255
28	0x3e10fdee	0.14159366
29	0xbcf56548	-0.029955521
30	0xbc18f261	-0.009335131
31	0x3e2064c9	0.15663446
32	0xbc93ac80	-0.01802659
33	0xbe5d1eb3	-0.21593742
34	0x3e0260eb	0.12732284
35	0x3df2e94f	0.11860906
36	0xbe28ccde	-0.164844
37	0xbdc6253e	-0.09675072
38	0xbde049b3	-0.10951557
39	0x3e1d2f8d	0.1535017
40	0x3e4a8edf	0.19781063
41	0xbe6197e8	-0.22030604
42	0x3d8dd7f5	0.06925956
43	0xbca7a27a	-0.020463217
44	0x3e35a7db	0.17739813
45	0x3cded0d8	0.027199194
46	0xbdaa380a	-0.0831147
47	0xbd228106	-0.039673828
48	0x3dd479ad	0.1037477
49	0x3e22679c	0.15859836
50	0x3e3d0bb0	0.1846149
51	0x3df3f020	0.119110346
52	0xbe37ab67	-0.17936479
53	0x3d859d0f	0.06524097
54	0x3c919f59	0.017776178
55	0x3db6ec62	0.08931805
56	0x3d275ac7	0.040858056
57	0xbe307edb	-0.17235892
58	0x3de69ea3	0.11260726
59	0x3d92945f	0.07157206
60	0xbc01a119	-0.007911944
61	0xbd1b6958	-0.03794226
62	0xbe1cbd31	-0.15306546
63	0xbd388928	-0.045052677
64	0x3d5d2a98	0.0539957
65	0x3e5e731a	0.21723595
66	0x3b93b141	0.0045072143
67	0x3b85b183	0.004079999
68	0xbd0ca248	-0.03433445
69	0xbc721f60	-0.014777988
70	0x3db9094b	0.090349756
71	0xbcf67939	-0.0300871
72	0xbe41d979	-0.18930615
73	0x3e4a8f50	0.19781232
74	0x3dcbd977	0.099535875
75	0x3deea686	0.116528556
76	0xbddb3be8	-0.107047856
77	0x3d31b8df	0.043389197
78	0xbe612652	-0.21987274
79	0x3e227e05	0.15868385
80	0x3dfb03f5	0.12256614
81	0x3cbd8fee	0.02313992
82	0xbd11ed43	-0.03562666
83	0xbe006171	-0.12537171
84	0xbdf4cecc	-0.11953506
85	0x3a90a28b	0.001103477
86	0xbe301ad9	-0.17197742
87	0x3d20fee8	0.039305598
88	0x3daf934e	0.08573018
89	0x3e0b48ea	0.13602033
90	0xbc94a25b	-0.018143823
91	0xbe29c095	-0.1657737
92	0xbd69340b	-0.056934398
93	0xbe0e221b	-0.13880198
94	0x3e0c28a0	0.13687372
95	0x3dd13efc	0.102170914
96	0x3e2ac3cf	0.16676258
97	0xbe0476ba	-0.12935916
98	0xbcea07ff	-0.028568266
99	0x3d30e4f1	0.043187086
100	0xbdddbaaa	-0.10826619
101	0x3e246075	0.1605242
102	0x3e2f742b	0.17134158
103	0x3c578dfc	0.01315641
104	0x3e23daaa	0.16001382
105	0x3e11700d	0.142029
106	0x3dbb2999	0.091387935
107	0x3c0433d7	0.008069
108	0xbd681e9d	-0.05666982
109	0xbd5fb7a0	-0.054618478
110	0x3dc25d98	0.09490508
111	0x3dbcfb37	0.09227603
112	0x3dbc50aa	0.09195073
113	0x3e0bfd4f	0.13670848
114	0xbd679d3d	-0.05654644
115	0x3d9bc88d	0.076066114
116	0x3db624cf	0.088937394
117	0xbe0f510d	-0.13995762
118	0x3dab1dfe	0.0835533
119	0x3e23cb3f	0.15995501
120	0xbe0b692b	-0.13614337
121	0x3be3612e	0.006939075
122	0x3dfe97cf	0.12431299
123	0xbd5211bd	-0.051286448
124	0xbdf5d923	-0.12004306
125	0xbe2338c5	-0.15939625
126	0x3dd23961	0.102648504
127	0x3da1fb91	0.079093106
128	0xbd036480	-0.032078266
129	0xbd90f7f7	-0.070785455
130	0x3e4a3816	0.19747958
131	0x3ded31ed	0.11581788
132	0x3ddc9a56	0.10771625
133	0xbd6fa418	-0.0585061
134	0x3e26c741	0.16286947
135	0x3dcbfe9d	0.09960673
136	0xbabf8f30	-0.0014614817
137	0x3e4cb4ef	0.19990896
138	0x3d524264	0.051332846
139	0x3e5ca1ed	0.21546145
140	0x3e58a28d	0.21155758
141	0xbccd7c0f	-0.02508357
142	0xbe00489b	-0.12527697
143	0x3e24a70f	0.16079353
144	0xbda01244	-0.07815984
145	0xbcb2168d	-0.021739269
146	0x3e507172	0.20355776
147	0xbdd48fb1	-0.103789695
148	0xbe091715	-0.13387711
149	0x3e3062de	0.17225215
150	0x3d0a0cdb	0.033703666
151	0x3de2cc36	0.110741064
152	0xbd8309b2	-0.063983336
153	0x3e5cd1eb	0.21564452
154	0xbc97a9a3	-0.018513506
155	0x3d6bb967	0.05754986
156	0xbda896d1	-0.08231891
157	0x3e20d866	0.1570755
158	0xbe0b6b86	-0.13615236
159	0xbe30160f	-0.17195915
160	0x3e32cb9d	0.17460485
161	0x3e2129ac	0.15738553
162	0x3e17c00b	0.14819352
163	0x3e405eb7	0.18786131
164	0xbcf3ed88	-0.02977635
165	0x3dfffeae	0.12499748
166	0xbdce8862	-0.10084607
167	0xbe31b704	-0.17354971
168	0xbe2120a0	-0.15735102
169	0x3e1cc864	0.15310818
170	0x3d1d04d8	0.038334697
171	0xbd325d31	-0.043545906
172	0x3cd664cf	0.026171116
173	0xbe2962de	-0.16541621
174	0xbe2b35fe	-0.16719815
175	0x3cf6b934	0.030117609
176	0x3cd60e6f	0.02612993
177	0xbe382287	-0.17981921
178	0xbe1797cf	-0.14804004
179	0xbe38f7be	-0.18063256
180	0xbdaa4460	-0.08313823
181	0xbcab06da	-0.02087729
182	0xbd9c43ba	-0.07630105
183	0xbd168c44	-0.03675486
184	0x3d87a7bc	0.0662379
185	0x3d64bacb	0.055842202
186	0xbe11cfc5	-0.14239414
187	0xbdfb0f49	-0.12258775
188	0xbd7f09ea	-0.062265314
189	0x3dcc4256	0.0997359
190	0x3e3bbeb5	0.18334468
191	0xbdbc8649	-0.092053
192	0x3cec6e18	0.02886109
193	0x3cac7666	0.02105255
194	0x3d45709a	0.04820309
195	0x3dcc89ec	0.09987244
196	0xbd295b9c	-0.04134713
197	0xbda29db2	-0.07940234
198	0x3e17ae48	0.14812577
199	0x3e176740	0.1478548
200	0xbe255939	-0.16147317
201	0x3d7a8a2c	0.061166927
202	0x3e2a7744	0.16647059
203	0x3e128849	0.14309801
204	0xbe1a41fa	-0.1506423
205	0x3e118707	0.14211665
206	0x3d0db04b	0.034591954
207	0xbd963b91	-0.0733558
208	0xbd38d005	-0.045120258
209	0xbe34277e	-0.1759319
210	0xbe0f75ec	-0.14009827
211	0x3d01b2e0	0.03166473
212	0x3d3e8145	0.04651
213	0x3dc085a2	0.094004884
214	0x3d308574	0.04309602
215	0xbc606ca0	-0.013697773
216	0x3e0a61f1	0.13513924
217	0x3d60b3fc	0.054859146
218	0xbe3158f6	-0.17319092
219	0x3de15fe7	0.1100462
220	0x3e00ea04	0.1258927
221	0xbe345a46	-0.17612562
222	0x3e1eb2db	0.15497915
223	0xbe263121	-0.16229679
224	0xbde026be	-0.109448895
225	0xbe47aab4	-0.19498712
226	0xbe50abdb	-0.20378058
227	0xbde1edaf	-0.11031663
228	0xbab65080	-0.0013909489
229	0xbd826209	-0.06366355
230	0xbd7495c0	-0.059713125
231	0xbcdc4423	-0.026887959
232	0x3d900c0c	0.07033548
233	0xbe3208d0	-0.17386174
234	0x3d17039e	0.036868684
235	0x3e12f8b9	0.14352693
236	0xbc640078	-0.013916127
237	0x3da0824e	0.07837354
238	0x3e319f6a	0.17345968
239	0xbe0418fd	-0.12900157
240	0xbc2592fe	-0.010105846
241	0x3cb63fd8	0.02224724
242	0x3dcdd0a7	0.10049563
243	0x3c6bff0f	0.014404072
244	0xbe40dcb0	-0.18834186
245	0x3dc0210b	0.093813024
246	0xbcc5a644	-0.024127133
247	0xbd009eb8	-0.031401366
248	0x3e1d2fd6	0.15350279
249	0x3da1c76e	0.07899366
250	0xbe08f29f	-0.13373803
251	0x3de4a1bb	0.1116366
252	0x3de8d494	0.11368671
253	0x3df98628	0.121837914
254	0x3e05bf2c	0.13061208
255	0xbd69e555	-0.057103474

encoder.6.bias f4 [8]
0	0x3d31e399	0.043429945
1	0xbd4af8e5	-0.04955377
2	0xbd5b015d	-0.053468097
3	0x3e1aeee5	0.15130194
4	0x3db1f3a0	0.08689046
5	0xbd4cd8ce	-0.05001145
6	0x3d6bb255	0.057543118
7	0x3e16d91a	0.14731255

decoder.0.weight f4 [32, 8]
0	0xbe0eef09	-0.13958372
1	0xbd49aee4	-0.049239054
2	0xbe21044c	-0.15724295
3	0x3eb0b7c6	0.34515208
4	0xbe1d63f6	-0.15370163
5	0xbd84271f	-0.06452774
6	0x3e8241ac	0.2544073
7	0xbdb4a6f9	-0.0882091
8	0x3c96d47a	0.018411864
9	0xbe46cc18	-0.19413793
10	0xbeab16fe	-0.3341598
11	0xbea56bb9	-0.32308748
12	0xbe4d035d	-0.20020814
13	0xbeaebb90	-0.34127474
14	0xbe5a043b	-0.21290676
15	0x3d4405a3	0.047856938
16	0xbec293c8	-0.38003373
17	0x3dd54b85	0.10414795
18	0x3eb074fc	0.34464252
19	0xbe54f043	-0.20794778
20	0x3e071860	0.13192892
21	0x3bb3dd98	0.0054890625
22	0xbdf9377c	-0.12168786
23	0xbe4476a6	-0.19185886
24	0x3e2298b4	0.15878564
25	0x3e6b5f47	0.22985564
26	0x3e6c2206	0.23059854
27	0xbd12dd3f	-0.035855528
28	0xbd89b0a5	-0.067231454
29	0x3eb61ce2	0.3556891
30	0x3ea1fc12	0.31637627
31	0xbdae5fac	-0.08514342
32	0x3e91446b	0.2837251
33	0x3cb686f4	0.022281148
34	0xbd8baabe	-0.06819676
35	0xbe8e035f	-0.27736947
36	0xbda3fe97	-0.080075435
37	0x3e9fa86a	0.31183177
38	0xbe8902aa	-0.26759845
39	0xbe9ee1f3	-0.3103176
40	0x3e492efb	0.19646828
41	0x3daebe61	0.08532406
42	0xbdf77b12	-0.12084021
43	0xbeb39ec7	-0.35082075
44	0xbe1eadc9	-0.15495981
45	0xbe996fe2	-0.29968172
46	0xbe429ba0	-0.19004679
47	0xbe0909cd	-0.13382645
48	0xbe9260d9	-0.28589514
49	0xbda2b38c	-0.07944402
50	0xbe30e0d3	-0.17273264
51	0x3e741c93	0.23839025
52	0x3e90b999	0.282666
53	0xbe8d3dce	-0.27586216
54	0x3e6509ea	0.22367063
55	0x3e98b69c	0.2982682
56	0x3e8b35e3	0.2718955
57	0xbe232def	-0.15935491
58	0x3e07ad61	0.13249733
59	0xbdd3b738	-0.103376806
60	0xbe8c3079	-0.27380732
61	0x3dff5fe5	0.12469462
62	0x3e828454	0.25491583
63	0x3e4b69c0	0.19864559
64	0x3ce9baca	0.02853145
65	0x3ec76956	0.38947552
66	0xbe88e91a	-0.26740342
67	0x3e1c1c18	0.15245092
68	0xbe25e9b7	-0.16202436
69	0xbea8f6a7	-0.3300068
70	0xbe80dadf	-0.25166985
71	0x3e0a1d67	0.13487779
72	0x3e6dae7b	0.2321109
73	0xbdb8e0dc	-0.090272635
74	0xbe0ffef1	-0.14062096
75	0xbde71ce6	-0.11284809
76	0x3eb59d09	0.3547137
77	0xbeb5cd8c	-0.35508382
78	0xbd07daec	-0.033167765
79	0x3e322425	0.173966
80	0x3ea05101	0.313118
81	0x3e348288	0.17627919
82	0x3e9c4acd	0.30525818
83	0xbe3fb3c8	-0.18720925
84	0x3e039cce	0.12852785
85	0x3e0845ae	0.1330783
86	0x3cd7bdb6	0.026335578
87	0x3e131109	0.14361967
88	0xbdfd4570	-0.1236676
89	0xbea833a4	-0.328519
90	0xbd84837a	-0.0647039
91	0xbd5124b1	-0.051060382
92	0xbec60e25	-0.38682666
93	0x3e1e0e30	0.154351
94	0x3e975ffb	0.29565415
95	0xbe9a5ff8	-0.30151343
96	0xbeb1b484	-0.34708035
97	0x3c07271e	0.008249072
98	0x3dbd3fc4	0.09240678
99	0xbebd8b61	-0.370204
100	0xbebe5944	-0.3717748
101	0x3e377bec	0.17918366
102	0x3cf51151	0.029915484
103	0xbe93d9b2	-0.28877026
104	0xbd819095	-0.06326405
105	0x3cc6ab0a	0.02425148
106	0x3e6079ba	0.21921435
107	0xbd14721f	-0.036241647
108	0xbc2d1440	-0.01056391
109	0xbe8380cb	-0.256842
110	0x3eb27594	0.3485533
111	0x3e59da18	0.21274602
112	0xbdaacf63	-0.08340337
113	0x3de4914c	0.11160526
114	0x3e7e7bcb	0.24851911
115	0x3deb7380	0.11496639
116	0xbd9e587d	-0.077317216
117	0x3db7801c	0.08959982
118	0x3e15c9c4	0.14627749
119	0xbe75116a	-0.23932424
120	0xbe842b0f	-0.258141
121	0x3e345929	0.17612137
122	0x3ebfb594	0.3744322
123	0xbe624657	-0.22097145
124	0xbdc04a1d	-0.09389136
125	0x3df285a7	0.118418984
126	0xbe12d4c8	-0.14338982
127	0xbec00f65	-0.37511745
128	0x3e6a9412	0.22908047
129	0xbeb90cad	-0.36142483
130	0x3da68ff4	0.08132926
131	0xbdca85f8	-0.09888834
132	0x3e555088	0.20831501
133	0x3c16b851	0.009199218
134	0x3e520de1	0.20513107
135	0xbe8b16fb	-0.2716597
136	0xbe67e14b	-0.22644536
137	0xbea1bb91	-0.31588414
138	0xbe6f7b18	-0.233868
139	0xbe48fb4c	-0.19627112
140	0xbc7b29e0	-0.015329808
141	0x3e140a42	0.14457038
142	0x3e717a02	0.23581699
143	0x3d7d2698	0.061804384
144	0x3e855ef7	0.26049015
145	0xbc76cc09	-0.015063294
146	0x3e3c2808	0.18374646
147	0x3e94d17f	0.29066083
148	0x3eb138e1	0.34613708
149	0x3e65ebce	0.22453234
150	0x3e374ae1	0.17899658
151	0x3e3973f8	0.18110645
152	0xbe48bcee	-0.19603321
153	0x3e2abd65	0.16673811
154	0xbe46368a	-0.19356743
155	0xbe840b1c	-0.25789726
156	0xbcb4e36c	-0.0220811
157	0xbe22de5c	-0.15905136
158	0x3d91c68a	0.071179464
159	0xbe97786a	-0.29584056
160	0xbd317b10	-0.043330252
161	0xbe867b84	-0.2626611
162	0xbe39060b	-0.18068711
163	0xbe7f16a0	-0.24910975
164	0xbda1a968	-0.0789364
165	0x3e2899c2	0.16464904
166	0xbdd38b6c	-0.10329327
167	0x3d46bc58	0.048519462
168	0xbe8d9ba3	-0.27657804
169	0x3e096895	0.13418801
170	0xbea10b32	-0.31453854
171	0x3d8e3489	0.06943614
172	0xbe2e8d55	-0.17046101
173	0xbe98fb66	-0.29879302
174	0xbea1ce4f	-0.31602713
175	0x3e700596	0.23439631
176	0xbe8fc0d0	-0.28076792
177	0x3e76c77c	0.24099535
178	0xbd94a83b	-0.0725865
179	0x3e248883	0.160677
180	0x3e913aed	0.2836527
181	0x3d9077d3	0.07054105
182	0xbe486331	-0.19569089
183	0x3e150a07	0.14554606
184	0x3e6b2bcc	0.22965926
185	0xbe04c6c0	-0.12966442
186	0x3e1b0f15	0.15142472
187	0x3d8d0c1a	0.06887074
188	0xbe960d19	-0.29306868
189	0xbe028fc7	-0.12750159
190	0x3d51a24e	0.051180176
191	0xbe9ea9fb	-0.3098906
192	0x3e443057	0.19159065
193	0xbebbf723	-0.36711988
194	0xbeaa9c8b	-0.33322558
195	0xbcc49156	-0.023995083
196	0xbd9a4631	-0.07532919
197	0xbe9ab802	-0.30218512
198	0x3e002169	0.12512745
199	0x3e942651	0.28935483
200	0xbe14a8c2	-0.14517501
201	0x3e9d2262	0.30690295
202	0xbc0c1021	-0.008548767
203	0x3e6bc26e	0.23023388
204	0x3d0c2d18	0.034222692
205	0x3e20d7e0	0.1570735
206	0x3eb87d79	0.36033228
207	0x3dfc0685	0.12305931
208	0x3dbb80fb	0.091554604
209	0xbe3959b4	-0.18100625
210	0xbe95798b	-0.29194292
211	0xbd9a1275	-0.07523052
212	0xbe571418	-0.21003759
213	0x3e6f7033	0.23382644
214	0xbe3d7e34	-0.18505174
215	0xbdf4f80f	-0.11961376
216	0x3e8fc959	0.28083304
217	0x3bf71f71	0.00754159
218	0x3e00a385	0.12562378
219	0xbea4bee6	-0.32176894
220	0xbd64891b	-0.055794816
221	0xbd1381f5	-0.03601261
222	0x3e9762a6	0.2956745
223	0xbe19c20c	-0.1501543
224	0xbccced19	-0.0250154
225	0x3c7bf8ca	0.01537914
226	0x3e2070e1	0.1566806
227	0xbe460e21	-0.19341327
228	0xbdd74af4	-0.10512343
229	0x3e5dba99	0.21653213
230	0xbe460cee	-0.1934087
231	0x3d6924cf	0.05691987
232	0x3ebdff91	0.37109044
233	0xbd58874a	-0.052863397
234	0x3e073289	0.13202871
235	0x3eaa9b62	0.33321673
236	0x3db4fec5	0.08837656
237	0x3ec0bc80	0.37643814
238	0xbd85c911	-0.06532491
239	0xbe6ed392	-0.23322895
240	0xbc373913	-0.011183041
241	0xbd3a1c47	-0.045437124
242	0xbe099f48	-0.13439667
243	0x3e0d4e87	0.13799487
244	0x3e861bbf	0.26193044
245	0xbd956d93	-0.0729629
246	0x3e401d43	0.18761162
247	0x3ead96b7	0.3390405
248	0x3e5c3be4	0.21507221
249	0x3ea17a3a	0.31538564
250	0x3ddddab6	0.108327314
251	0xbc6cde1b	-0.014457251
252	0x3ea77d8f	0.3271298
253	0x3bc78614	0.0060889814
254	0xbe079c4f	-0.13243221
255	0x3e7e4f3c	0.24834913

decoder.0.bias f4 [32]
0	0x3e219839	0.15780725
1	0xbcd223e7	-0.025651885
2	0x3dd8f2fa	0.10593219
3	0x3e3a0964	0.18167645
4	0xbe32ce80	-0.17461586
5	0xbeb4744d	-0.3524498
6	0x3e0727e3	0.1319881
7	0xbd95506c	-0.0729073
8	0x3d8fa5f4	0.07014075
9	0x3b75dc02	0.0037515168
10	0x3e304311	0.17213084
11	0xbe871922	-0.26386362
12	0x3cdc2a0a	0.026875515
13	0xbd32307b	-0.043503266
14	0xbec67495	-0.3876082
15	0x3d2de9ca	0.042459287
16	0x3eb02fd6	0.34411496
17	0xbe6b695a	-0.22989407
18	0xbc68f276	-0.014217963
19	0xbd80eaff	-0.06294822
20	0xbe12a351	-0.14320113
21	0x3e400726	0.18752727
22	0x3eaa571c	0.33269584
23	0xbe425200	-0.18976593
24	0x3e930f04	0.28722394
25	0x3e05ddc7	0.13072883
26	0x3e54f9e0	0.20798445
27	0xbea0ea95	-0.31428972
28	0xbe1637d7	-0.14669739
29	0x3e2d35f6	0.16915116
30	0xbcc5f177	-0.024162991
31	0xbca6d02d	-0.020362938

decoder.2.weight f4 [64, 32]
0	0x3dabbd5f	0.08385729
1	0x3d684f66	0.056716345
2	0xbdef6031	-0.11688269
3	0xbd5c1ab4	-0.053736404
4	0x3e2819f3	0.16416149
5	0x3dfaa742	0.12238933
6	0xbda2936c	-0.07938275
7	0x3cd63032	0.026146028
8	0x3dde7060	0.108612776
9	0x3e0518fd	0.12997814
10	0x3e1dd378	0.154127
11	0x3ddfd2f3	0.10928907
12	0x3ca2531c	0.01981502
13	0x3c6c7523	0.014432224
14	0x3e1adba2	0.15122846
15	0x3e30fd81	0.17284204
16	0x3e165df5	0.1468428
17	0x3dec636e	0.11542402
18	0x3d26d4ad	0.040730167
19	0x3df5d668	0.12003785
20	0x3e06c61d	0.13161512
21	0xbd0f13dc	-0.03493105
22	0x3d5bbfd2	0.05364973
23	0xbdf12bcc	-0.11775932
24	0x3dcd6d6b	0.100306354
25	0xbe0a9660	-0.13533926
26	0x3d2e0f4b	0.042495053
27	0x3e1d8d12	0.15385845
28	0x3e250a65	0.16117246
29	0x3d9a44bd	0.07532642
30	0xbdd4e2a6	-0.10394792
31	0xbcabfcd9	-0.02099459
32	0xbdf7094f	-0.12062322
33	0xbd9cfacd	-0.07665024
34	0x3db14502	0.0865574
35	0xbd73c25a	-0.05951152
36	0xbd6dffa2	-0.05810512
37	0xbe076746	-0.1322299
38	0xbd86d710	-0.06583989
39	0xbe21429a	-0.15748063
40	0xbe0f5508	-0.1399728
41	0x3ad60a48	0.0016329968
42	0x3b9b566d	0.0047405274
43	0x3e346409	0.17616285
44	0xbe251b3e	-0.16123673
45	0x3e10047e	0.14064214
46	0x3c3eecc0	0.011653125
47	0x3db934a2	0.09043242
48	0xbd033e64	-0.032041922
49	0x3c959400	0.018259048
50	0xbd5c642e	-0.053806476
51	0xbdb0c63d	-0.08631561
52	0x3d46d940	0.04854703
53	0x3d90987a	0.070603326
54	0xbe0aada7	-0.13542806
55	0xbe2e40bf	-0.17016886
56	0x3de215ea	0.11039336
57	0xbe07be2b	-0.13256137
58	0xbe0ed611	-0.13948847
59	0xbccd41b0	-0.025055736
60	0x3e16a6d1	0.14712073
61	0xbcee3a8f	-0.029080657
62	0x3dfde59c	0.1239731
63	0xbda0bf04	-0.07848933
64	0x3dc68bc1	0.09694625
65	0x3de8f5df	0.11375021
66	0x3d05aa8c	0.03263335
67	0x3ccff446	0.025385033
68	0x3e0a101b	0.13482706
69	0xbcbfe1ab	-0.023423037
70	0xbdde1bda	-0.10845156
71	0x3da9c2fe	0.08289145
72	0x3cf9176c	0.030406676
73	0x3d6b54df	0.057453986
74	0x3e0ea3bc	0.13929647
75	0x3dfc2db8	0.12313408
76	0x3e27b02d	0.163758
77	0xbd0584b1	-0.032597248
78	0x3dd74dbd	0.10512874
79	0x3ded1b18	0.11577433
80	0xbdd1467f	-0.10218524
81	0xbdb0cda1	-0.086329706
82	0xbdc94c0a	-0.098289564
83	0x3dd37dd9	0.10326738
84	0x3dbbf9ca	0.09178503
85	0x3dd0c9bb	0.10194727
86	0xbce2351d	-0.027613217
87	0xbe3920e1	-0.18078949
88	0x3d1d833c	0.038455233
89	0x3a07f1ae	0.00051858544
90	0xbe3e0141	-0.18555166
91	0xbdb35fbc	-0.08758494
92	0x3de06d14	0.10958305
93	0xbc1b6bee	-0.009486182
94	0x3d87b755	0.06626765
95	0x3dbe2860	0.09285045
96	0xbe486405	-0.19569404
97	0xbc690de0	-0.014224499
98	0xbe34d3f9	-0.17658986
99	0xbe1fe52c	-0.15614766
100	0xbe145ab1	-0.14487721
101	0x3e1713a3	0.14753585
102	0xbded5c18	-0.11589831
103	0x3d4e5b29	0.050379906
104	0x3d9e5f6a	0.077330425
105	0x3e05c0eb	0.13061874
106	0xbdb35f86	-0.08758454
107	0x3cb3a1e3	0.02192778
108	0x3d1d3723	0.03838266
109	0x3c661870	0.014043912
110	0x3dc5214d	0.09625492
111	0xbe179f32	-0.14806822
112	0xb9c5d260	-0.0003773151
113	0x3e20a68b	0.15688531
114	0xbd479900	-0.048729897
115	0x3bf10a40	0.007355958
116	0x3db671fe	0.08908461
117	0xbb4b9e80	-0.0031069815
118	0xbe3ee8a7	-0.18643437
119	0x3cbc6166	0.022995662
120	0xbe14b845	-0.14523418
121	0xbd5d1d14	-0.05398281
122	0x3e1bc969	0.1521355
123	0xbdf8c736	-0.121473715
124	0x3ddf0139	0.10888905
125	0x3e1db416	0.15400729
126	0xbe34c896	-0.17654642
127	0xbe1be560	-0.15224218
128	0x3dcb4a6e	0.09926306
129	0x3dbe770c	0.0930005
130	0x3d85a36f	0.06525313
131	0x3c9d7306	0.019219887
132	0x3dc73bf6	0.097282335
133	0xbba8832b	-0.0051425896
134	0x3e08441d	0.13307233
135	0xbc5b6d21	-0.013392718
136	0x3dbf7f3a	0.093504384
137	0xbd9d16a7	-0.07670336
138	0xbdef494c	-0.11683902
139	0xbb6af4c5	-0.003585146
140	0x3d7ffc7c	0.062496647
141	0xbd721336	-0.059100352
142	0x3d6b717a	0.057481267
143	0xbeddcdb6	-0.43321007
144	0x3d729455	0.05922349
145	0x3cce9d38	0.025221452
146	0xbdb77dfb	-0.08959576
147	0x3e216bfb	0.15763848
148	0xbe0dd0dc	-0.13849205
149	0x3e3dd998	0.18540037
150	0x3e17be6f	0.14818738
151	0x3e0a0602	0.13478854
152	0x3dd4438d	0.10364447
153	0x3d5a95c7	0.053365495
154	0x3dde574c	0.10856494
155	0xbd6ff0ba	-0.058579184
156	0x3dabf082	0.083954826
157	0xbe12702c	-0.14300603
158	0xbcaab3ff	-0.020837782
159	0xbdb53a95	-0.08849064
160	0x3d59b3b5	0.053149898
161	0xbdf1987e	-0.11796664
162	0xbe025d51	-0.1273091
163	0xbc7acbe9	-0.015307405
164	0x3cb7676d	0.022388184
165	0x3ce754c8	0.028238669
166	0xbd2837af	-0.04106873
167	0x3dad657d	0.08466623
168	0xbd83ee9c	-0.064419955
169	0xbd9c7763	-0.07639959
170	0xbd502ec4	-0.05082585
171	0xbd9b0993	-0.075701855
172	0xbd83483b	-0.06410261
173	0xbd87b402	-0.06626131
174	0xbde5851e	-0.11207031
175	0xbc475f05	-0.0121686505
176	0x3e077199	0.13226928
177	0x3e0d330d	0.13789006
178	0xbd7bd843	-0.06148554
179	0x3cbfd3cd	0.023416424
180	0x3da76b62	0.081747785
181	0x3e03b804	0.12863165
182	0x3be75bac	0.0070604887
183	0xbde083fd	-0.10962675
184	0x3e5bccfb	0.21464913
185	0xbdd1e608	-0.10248953
186	0x3e0d9722	0.13827184
187	0x3da07bda	0.07836123
188	0xbde90237	-0.113773756
189	0x3d70b42b	0.05876557
190	0x3e102b6c	0.14079064
191	0xbdddb07e	-0.10824679
192	0xbd765d11	-0.06014735
193	0xbd49ad42	-0.049237497
194	0xbdc1fd3a	-0.09472127
195	0x3c8bda66	0.017071914
196	0x3d23f46a	0.040028013
197	0x3db34fea	0.08755477
198	0xbc9f28d8	-0.019428656
199	0x3d60779e	0.054801576
200	0xbc943dbc	-0.018095843
201	0xbe2ef526	-0.17085704
202	0x3d957579	0.07297797
203	0xbde9376a	-0.113875225
204	0x3e0d0e3d	0.13774963
205	0x3da975eb	0.08274444
206	0x3da4af0d	0.08041201
207	0xbdabe4bb	-0.08393236
208	0xbcfedacb	-0.031110188
209	0xbd19044c	-0.037357613
210	0x3d9badda	0.07601519
211	0x3e25558a	0.16145912
212	0x3b571400	0.0032818317
213	0xbe22d7ce	-0.15902635
214	0x3d8d0cd4	0.068872124
215	0x3c3c2b99	0.011485004
216	0xbdc87eb3	-0.09789791
217	0xbd73ab0a	-0.059489287
218	0x3d5b59b2	0.053552337
219	0x3da6a1b1	0.08136309
220	0xbd248706	-0.04016783
221	0x3e05d7ee	0.13070652
222	0xbe6013f5	-0.21882613
223	0xbde6fa2e	-0.11278187
224	0x3e10a01a	0.14123574
225	0x3e114e96	0.14190134
226	0x3e200764	0.1562782
227	0x3d1a2615	0.037633974
228	0x3c48fb30	0.012266919
229	0xbd87588e	-0.06608687
230	0x3df55c4d	0.119804956
231	0x3d8e744a	0.06955774
232	0x3d34dcd1	0.0441559
233	0xbd808ca0	-0.06276822
234	0x3e373a07	0.1789323
235	0xbce0b928	-0.02743204
236	0x3d9967b6	0.074904844
237	0x3d4c969a	0.049948312
238	0x3e46b18c	0.19403666
239	0x3e12fbe9	0.14353909
240	0xbddf6c44	-0.10909322
241	0xbd643bd6	-0.055721126
242	0xbdc67d48	-0.09691864
243	0xbde3a40b	-0.11115273
244	0xbde176cb	-0.11008986
245	0xbd39f4ae	-0.04539936
246	0xbdb64ba1	-0.08901144
247	0x3dc310e4	0.09524706
248	0xbdca2678	-0.098706186
249	0xbc8a55ff	-0.01688671
250	0x3c58e9b5	0.013239314
251	0xba523d13	-0.0008019965
252	0x3e0258d9	0.12729205
253	0xbe115d03	-0.14195637
254	0x3da40019	0.08007831
255	0x3e40e137	0.18835913

decoder.2.bias f4 [64]
0	0x3e3f5d1e	0.18687865
1	0x3d0d0945	0.03443267
2	0xbd97c021	-0.074096926
3	0xbcfd71a9	-0.030937986
4	0x3b654468	0.00349834
5	0x3d763c53	0.060116123
6	0x3e3bf76a	0.183561
7	0x3b6ca697	0.0036110037
8	0xbcb06bd2	-0.021535788
9	0xbe16c433	-0.14723282
10	0xbdb5c324	-0.08875111
11	0xbe1f1f65	-0.1553932
12	0xbe1f594a	-0.15561405
13	0xbd88e928	-0.06685096
14	0xbd52c73e	-0.051459543
15	0x3dfe0353	0.12402978
16	0xbe0e07d2	-0.1387017
17	0xbd923f10	-0.071409345
18	0x3c640172	0.01391636
19	0xbe043753	-0.1291173
20	0xbe1dc3d5	-0.15406735
21	0x3c77160f	0.015080943
22	0xbcf15513	-0.029459512
23	0x3dd90a4e	0.105976686
24	0x3df88c40	0.121361256
25	0xbd738574	-0.059453443
26	0xbdfa4128	-0.12219459
27	0x3dae95a9	0.08524639
28	0x3dd0282c	0.10163912
29	0x3d376bbd	0.04478048
30	0xbe0cb774	-0.13741857
31	0xbe1d3de7	-0.15355645
32	0x3e2516f2	0.16122034
33	0x3d421be6	0.047389887
34	0xbe226364	-0.15858227
35	0xbdcbbe6e	-0.09948431
36	0x3c27cddd	0.010241953
37	0x3d3a4bca	0.045482434
38	0xbdb61ddd	-0.08892415
39	0x3e0d0797	0.13772427
40	0xbdc7106e	-0.097199306
41	0x3e3160e5	0.17322119
42	0xbc90e928	-0.017689303
43	0xbe2d98be	-0.16952798
44	0xbd5febc0	-0.054668188
45	0x3e3747d8	0.178985
46	0xbe06c274	-0.13160115
47	0x3d85bd8d	0.065302946
48	0xbc589000	-0.013217926
49	0xbe466a68	-0.19376528
50	0xbe0cc59f	-0.13747261
51	0xbb1df40b	-0.002410176
52	0x3dbd0c8d	0.092309095
53	0x3e01b7c2	0.12667754
54	0xbe200c9f	-0.15629815
55	0x3d489980	0.048974514
56	0xbc8ed29e	-0.017434414
57	0xbe1dbad2	-0.15403298
58	0x3dd720b6	0.10504286
59	0xbe402e5d	-0.18767686
60	0xbe237e92	-0.15966251
61	0x3c3fecf0	0.011714205
62	0x3db8a8e0	0.09016585
63	0x3e24d47c	0.16096681
