pyCode/Autoencoder/model/Autoencoder4Collector.pth (torch, 93745 bytes, 15 tensors)

encoder.0.weight f4 [128, 4]
000000 16 98 22 3e d1 cf d5 be 03 51 9b 3d 57 c0 ac 3d
       0.15878329 -0.41760114 0.07583811 0.084351234
000010 de 13 80 3e 1a b7 43 3d a8 dc 7d 3e ca 52 8f be
       0.25015157 0.04778204 0.24791205 -0.2799285
000020 a8 41 b0 3e f5 fa 19 3e 3c 25 c1 bd 50 1c da 3e
       0.34425092 0.15037139 -0.0943093 0.42599726
000030 a0 9b f9 3e 20 cf b1 be 1c 41 c5 3d 67 a5 96 3e
       0.48751545 -0.34728336 0.09631559 0.29423067
000040 db 6c dc be 81 ec 3c 3e 04 29 49 3e ee e8 d2 3e
       -0.430518 0.18449594 0.19644552 0.41193336
000050 97 7d 7f be b0 b5 84 be 16 d8 7e be 0e 4b 75 be
       -0.24950252 -0.25919867 -0.24887118 -0.23954412
000060 b9 5a 26 3e ae 09 96 be ee 46 d9 be 25 55 5a 3e
       0.16245545 -0.2930426 -0.42436928 0.21321543
000070 74 ee 5e 3e 90 09 17 bf 96 e2 d5 3d 4b 4f 51 3e
       0.2177065 -0.58998966 0.104436085 0.20440404
000080 34 71 69 be 1f 52 1d 3c 18 24 0c be 98 65 1d be
       -0.2279709 0.009602099 -0.13685644 -0.15370786
000090 c1 72 a4 be 0b e0 c5 bd 79 82 c6 3e 76 73 e8 3b
       -0.321188 -0.096618734 0.38771418 0.007093842
0000a0 4c 07 2c 3d a7 59 a4 3e 86 28 c4 be 45 24 7e bd
       0.041999146 0.3209965 -0.38312167 -0.062046308
0000b0 12 a2 df be 11 50 89 3e 7e cc b4 be 06 17 c5 be
       -0.43678337 0.26818898 -0.35312265 -0.38494128
0000c0 ea 4c fa be fd 43 f3 bd 09 2c 20 be fb 15 35 3e
       -0.48886806 -0.11878202 -0.15641798 0.17684166
0000d0 df e4 43 3e bb b0 0f 3f 99 8b 87 3e 1b 7d 3f be
       0.19130276 0.56129044 0.26473692 -0.18700068
0000e0 9e 51 de 3e 0c 18 a4 3d 9b 31 a0 be ef fc c6 3d
       0.43421644 0.08012399 -0.31287846 0.09716212
0000f0 e6 38 7d 3d 3c 99 3b be 6e b1 88 3e 57 64 01 3f
       0.06182184 -0.18320173 0.26697868 0.5054373
000100 22 17 96 3e c9 c6 ab be 6d bc e9 3c 5b 88 c0 be
       0.29314524 -0.335501 0.028532231 -0.3760403
000110 f3 5c eb 3e 8c b0 a9 3c de 30 86 be 9d 3e a7 3e
       0.45969352 0.020714067 -0.26209158 0.32664958
000120 23 b9 07 3e 3c e7 f6 3d 49 4b 2f 3e 22 b1 bc be
       0.13254218 0.12055823 0.17118563 -0.36853892
000130 0f 95 da 3b fd 6d e5 be b4 f9 d3 be 64 07 f4 bd
       0.006670601 -0.44810477 -0.41401446 -0.11915472
000140 c6 47 22 3e 41 19 d8 3c b4 05 a5 be 8b e5 ce be
       0.15847692 0.02637923 -0.32230914 -0.40409502
000150 37 ec c9 3c 18 81 f8 3e 89 3e 8a be 85 60 a8 be
       0.024648769 0.4853599 -0.27000836 -0.3288614
000160 73 45 89 3e 90 d8 4c be af 6a c6 3e 37 0d 9e be
       0.26810798 -0.20004487 0.38753268 -0.30869457
000170 51 d7 7e 3e 8d b9 7f bd 0a a0 2b 3e 09 da b8 be
       0.24886824 -0.062432814 0.16760269 -0.36103848
000180 a2 5e 03 bf 0d eb 02 be fa 98 c2 3e 67 8d 90 3d
       -0.51316273 -0.12784977 0.38007337 0.0705822
000190 93 57 dc 3e fb 3c d9 3e 1d bf 3e 3e 38 21 c2 be
       0.43035564 0.42429337 0.18627591 -0.3791597
0001a0 ff 34 37 3d 0f f2 18 3c b8 e0 3a 3d 7b cd 1c 3e
       0.044728275 0.009335055 0.045624465 0.1531276
0001b0 02 ac af 3d 82 e0 8e bd 10 74 76 be 8d e0 5f 3e
       0.0857773 -0.06976415 -0.24067712 0.21863003
0001c0 9d 5e 3e bc 87 2e cc be 8f 4a 71 3e 28 de 9d 3e
       -0.011619237 -0.39879248 0.23563598 0.30833554
0001d0 8b c2 02 bf 68 6d a2 be 0c 33 86 be 33 87 b3 be
       -0.510781 -0.31724095 -0.2621082 -0.35064086
0001e0 f3 b6 d2 3e df 18 b3 bd 4e 63 e2 be ab a2 a7 3e
       0.41155204 -0.08744978 -0.44216388 0.32741293
0001f0 0e 3c a2 3e cd 7f 6e 3e de c7 5a bd c7 18 a3 3e
       0.31686443 0.2329094 -0.053413264 0.3185484
000200 fe ad 58 be 3b 26 47 bc e5 c8 9b 3e d8 7b f6 3e
       -0.21160123 -0.012155111 0.30426708 0.4814136
000210 1c a9 e5 3d 93 0a 8e 3e 84 39 96 be 69 44 8d 3e
       0.11213896 0.27742442 -0.29340756 0.27591255
000220 f5 ea 87 be 25 a0 a4 bd fb 1b ec 3e c7 9e 88 3c
       -0.26546445 -0.08038358 0.46115097 0.016677273
000230 04 c3 30 be 71 7a b8 bd b0 2c 80 be 57 f7 7a 3c
       -0.17261893 -0.09007729 -0.25034094 0.0153177595
000240 f0 48 42 3e 5d 0a c9 3e aa 77 4b 3b 29 31 93 3d
       0.18973136 0.3926572 0.0031046667 0.07187111
000250 38 a3 0a 3f b0 b4 b5 3d ef 91 e3 3d 17 e1 dd 3e
       0.541553 0.08872354 0.11111819 0.43335792
000260 e0 ac f7 be 9f de b4 be 28 fa c9 3e 8c 3d 89 3e
       -0.4837408 -0.35326096 0.39448667 0.2680477
000270 b1 75 83 be 13 35 b1 be 33 07 c1 be d7 83 ed be
       -0.2567573 -0.34610805 -0.37700805 -0.46389648
000280 b6 16 82 be 55 05 1a 3f 6a ad e6 be e5 73 ef bd
       -0.25407952 0.60164386 -0.4505418 -0.11692027
000290 8c 0a 4d be f6 5c b5 be d4 80 b1 3d 14 30 6d bd
       -0.20023555 -0.35422486 0.0866715 -0.05790718
0002a0 66 00 15 be fa cd d0 3e e9 d0 dd be f7 46 b8 bd
       -0.14550933 0.40782148 -0.43323448 -0.089979105
0002b0 f2 5e f3 be 63 53 97 3d 1a 90 e1 be 28 90 6b be
       -0.47533375 0.07388952 -0.44055253 -0.2300421
0002c0 01 32 b3 3e 36 47 d1 be 24 5b 0e 3e 6b 5f d6 3e
       0.34999087 -0.40874642 0.13901955 0.41869673
0002d0 52 23 0e 3f 70 6b 89 bd 1e 18 7d 3e d1 c9 86 3e
       0.55522645 -0.06709945 0.24716231 0.2632585
0002e0 25 e4 c6 be 9e 67 39 be 26 7f 44 be 96 2c cf bb
       -0.38845935 -0.18105933 -0.19189128 -0.0063224537
0002f0 22 6f 54 3e 40 eb df be de e0 02 3f b3 88 db bc
       0.20745519 -0.4373417 0.5112437 -0.026798582
000300 61 c1 d4 be 52 d6 95 3e ad 6d 08 bd 02 00 d7 bc
       -0.41553786 0.29265076 -0.03330772 -0.02624512
000310 ec c7 74 3e 6b 30 c4 bd 57 61 97 3d 8e d0 1b be
       0.23904389 -0.095795475 0.07391613 -0.15216276
000320 86 59 fb 3e 09 ea f0 be 00 04 d6 bd 5c a2 12 bc
       0.49091738 -0.47053555 -0.10449982 -0.008949842
000330 19 a3 bb be 2d a3 f0 3d 90 07 ed be ec d9 b0 be
       -0.3664787 0.11749873 -0.46294832 -0.3454126
000340 1e 91 92 bc 2d de b4 3e a5 de a7 3d ba 6f f9 be
       -0.017891463 0.35325757 0.08196763 -0.48718053
000350 c7 cc dc be 48 9b 86 3e 4a 08 bb be b7 7b b3 3e
       -0.43124983 0.26290345 -0.36529762 0.35055324
000360 07 56 4c be 4f e4 a5 bd cc f1 9f be b3 06 6d 3e
       -0.19954692 -0.08100187 -0.31239164 0.23147087
000370 89 be bf be 5a 34 ee be 29 cf d2 be 84 34 a1 3d
       -0.37450054 -0.46524316 -0.41173676 0.07871345
000380 8a a1 91 3e 5d 22 db 3e 5a 51 cc 3e e1 6b 7b 3e
       0.28443557 0.42799655 0.39905816 0.24552871
000390 fe 1e f7 3e bb e1 2b be 41 d4 73 be dc 52 c0 be
       0.48265833 -0.16785328 -0.23811437 -0.37563217
0003a0 01 01 e9 bd 55 68 f1 3e 70 51 d4 3d 68 4d b6 3e
       -0.113771446 0.47149912 0.103670955 0.3560593
0003b0 da 17 1a be 8d 56 ff be 14 55 be bc 92 63 18 be
       -0.15048161 -0.4987072 -0.023233928 -0.14881733
0003c0 39 a3 d4 3d 00 86 29 3e e3 b5 b0 be 86 68 ff bd
       0.10382695 0.16555023 -0.3451377 -0.12471108
0003d0 dd ce 0e be 67 bf 54 3e f9 74 ca be 5c a7 b6 bd
       -0.139461 0.20776139 -0.39542368 -0.0891864
0003e0 05 49 e3 bc bc 0c de 3d 45 47 d4 3e a6 92 29 be
       -0.02774478 0.10842273 0.41460624 -0.16559848
0003f0 3b 11 37 be db f7 74 3e 2b 4b 48 be 2c 22 d0 3e
       -0.17877667 0.23922674 -0.19559924 0.4065107

encoder.0.bias f4 [128]
000000 c7 4c 18 3d ce 13 11 be 52 ae a9 38 e3 1b 05 bf
       0.037182596 -0.14167711 8.091018e-05 -0.51995677
000010 c1 32 32 be a1 d7 db 3d 88 3b 9b be 5c 28 92 bd
       -0.17402174 0.10734487 -0.30318856 -0.07136604
000020 83 2d 22 be 58 98 e1 3e f3 46 e4 3e 5e a6 e4 be
       -0.15837674 0.44061542 0.4458538 -0.44658178
000030 f9 ff b2 be bd 0b b7 be be 7a 39 bd 78 f9 d4 3e
       -0.34960917 -0.35751143 -0.04528307 0.4159658
000040 98 98 77 3c a0 7e f1 be 59 3a 26 bd fe e0 98 3e
       0.015112065 -0.4716692 -0.04058299 0.29859155
000050 e1 2b 30 3e cc 49 c0 be 85 a6 aa 3e ff 63 c1 be
       0.17204238 -0.37556303 0.3333017 -0.37771603
000060 7a de a2 be c2 79 64 be 35 93 81 3e 22 42 b4 3e
       -0.3181036 -0.22312072 0.25307623 0.35206705
000070 a4 3d 85 be ad a1 a2 be da 7c f9 3e 3c 41 74 3e
       -0.2602359 -0.31763974 0.48728067 0.2385301
000080 5d 10 86 be b2 41 b1 3e 01 e3 99 3d 16 0b 91 be
       -0.2618436 0.34620434 0.07514001 -0.2832877
000090 a5 30 2c bd 37 a5 b7 be 86 ab 6c 3e 6f 1f b4 3d
       -0.04203858 -0.35868236 0.23112306 0.08795058
0000a0 ce fd b4 be 31 00 91 be 19 de b9 bd 05 b5 5d be
       -0.35349888 -0.2832046 -0.09075565 -0.21651085
0000b0 ab 0d 13 bd 0d d2 94 be 75 86 fe be f9 8c 25 3e
       -0.035901707 -0.29066506 -0.49711958 0.16167058
0000c0 a4 7e 20 3d 1d 3c 9d 3e 59 19 b0 3e cb 9f 6d 3e
       0.039183274 0.30709925 0.3439434 0.23205487
0000d0 ae e1 83 3e d2 d8 52 be 03 7f b6 bd 8c 64 ab bd
       0.25758117 -0.20590523 -0.08910944 -0.08368787
0000e0 5c c1 d5 be bb bb c9 3e d3 06 0b be 32 28 01 3e
       -0.41749084 0.3940104 -0.13576822 0.1261299
0000f0 56 11 bf be 71 42 e3 be 80 54 88 be 1c 55 f3 be
       -0.37317914 -0.44386628 -0.26626968 -0.4752587
000100 6f c7 ef 3e 62 48 fe 3d 59 eb 18 be 0f cc 90 be
       0.46831843 0.1241615 -0.14933528 -0.28280684
000110 07 83 47 3e c3 15 ea be bc 1d f6 be 0a 58 26 3e
       0.19483577 -0.45719728 -0.4806956 0.16244522
000120 12 92 b2 3c 4f a9 02 bf 86 54 ea be 1b f0 ba be
       0.021798167 -0.51039594 -0.4576761 -0.3651131
000130 04 3e e4 be 1c 9d 3e 3e e0 6c 99 3d b1 29 cb 3c
       -0.44578564 0.1861462 0.074914694 0.024800153
000140 cc 38 e1 be 30 2a d3 be c7 64 8d 3e 5d a0 75 be
       -0.43988645 -0.41243124 0.2761595 -0.23986955
000150 db f8 b6 be 46 0d 74 3e f4 a8 82 3e b2 9e f6 3e
       -0.35736737 0.23833188 0.25519526 0.4816795
000160 23 6d ff be a8 e3 fa 3e c7 60 42 be 35 13 88 3e
       -0.49887952 0.49001813 -0.1898223 0.26577154
000170 88 7b f0 be 15 a4 09 bf 4e 58 b5 bd 46 d6 5f bc
       -0.46969247 -0.53765994 -0.088547334 -0.013661927
000180 62 f1 c8 3e e0 4c f6 be 22 f3 16 bf bb 7c 60 3e
       0.3924666 -0.48105526 -0.5896474 0.21922581
000190 c6 28 db be 54 12 29 be f9 81 c7 be 4f 1c ef 3d
       -0.42804545 -0.16510898 -0.3896635 0.11675321
0001a0 69 77 09 be 74 62 2d be 1c 94 a8 3d 0a be 13 be
       -0.13424458 -0.16932088 0.082313746 -0.14427963
0001b0 b2 f5 c5 be 42 30 3a 3c 10 fa 03 3e 3c 23 f8 be
       -0.38664013 0.011364045 0.1288836 -0.48464382
0001c0 6e 18 0a be ff 57 ce be ad 70 9d 3e b2 ff 6b 3e
       -0.13485882 -0.4030151 0.30750027 0.23046759
0001d0 54 2b a9 be ce 07 b8 be 34 cc 43 3e 7f 92 24 3e
       -0.3304087 -0.35943455 0.19120866 0.16071509
0001e0 c7 1d f7 3d ac cc a2 be 5e 8f d1 3d 30 a3 b0 3e
       0.120662265 -0.31796777 0.10232423 0.34499502
0001f0 23 2f b7 be 30 4e ff 3e 3e d2 9b bd d8 f7 97 be
       -0.3577815 0.4986434 -0.0760846 -0.29681277

encoder.2.weight f4 [64, 128]
000000 e7 7c 96 3d 2e a7 d8 3d ed 83 a2 3c a4 d0 26 bb
       0.07348042 0.10578762 0.019838298 -0.002545395
000010 2d c4 58 3c c8 b5 a8 3d a0 b0 c3 bc 01 b5 e4 bc
       0.013230366 0.08237797 -0.023887932 -0.02791834
000020 7a 7b a3 3c 55 8f b5 bc c8 f2 53 bd ed e0 bd 3c
       0.01995634 -0.022163073 -0.051745206 0.023178542
000030 45 b5 4c be fe fa f3 3d 35 40 c9 bd f7 ea 2f 3d
       -0.19991024 0.11913107 -0.098267 0.04294869
000040 a6 1b 33 bb 4f 0f 1b bd af 39 38 3e 35 57 66 bd
       -0.0027329712 -0.037856396 0.17990755 -0.05623551
000050 c9 6f f8 bc 89 5a b4 3d 8e d3 9a 3c 0a fc 5f 3e
       -0.03032674 0.08806331 0.018899705 0.21873489
000060 0e 8e 55 be 45 1e 44 bd 88 36 94 3c 28 db 16 bd
       -0.20854971 -0.04788043 0.018092409 -0.036830097
000070 a4 e4 bf bd 38 d4 25 3b 15 42 7d 3d fb 13 bf bd
       -0.093697816 0.0025303494 0.0618306 -0.09329983
000080 ff 55 82 3c 34 64 ab 3d 1c 6c a0 3d 33 c9 11 bd
       0.015910147 0.083687216 0.0783312 -0.03559227
000090 7f b2 bd 3d f3 59 90 3d e8 94 76 3a 32 a5 66 bd
       0.09262561 0.070484065 0.0009406344 -0.056309886
0000a0 a2 91 01 bd 5b 83 ba bd ea 21 0e 3d 88 00 cf bc
       -0.031633027 -0.09107085 0.03470031 -0.025268808
0000b0 00 16 e2 bc e9 7c bc 3d 92 62 ad bd 2a 27 56 3d
       -0.027598381 0.09203512 -0.084660664 0.052283444
0000c0 5a aa 3f 3d a7 07 8e 3d b4 cd 0f 3d 60 35 4b 3d
       0.04679332 0.06935053 0.035108283 0.04961145
0000d0 9d 39 89 3d e9 24 ac bd b1 67 b5 3a 2d e2 70 bd
       0.06700442 -0.084054776 0.0013840107 -0.058809448
0000e0 3a af 00 bd 64 ec 48 3c 4c 1a ef bc f5 21 93 bd
       -0.03141711 0.012263391 -0.029187344 -0.07184211
0000f0 e3 9c a0 ba 5a 05 1e 3e 71 96 10 3c a4 0b e8 bd
       -0.0012253787 0.15431729 0.0088249305 -0.11330345
000100 6e 8d 75 3c ea ac 6d 3b 4f 06 fc bd 51 14 ac 3d
       0.014987333 0.0036266395 -0.12305891 0.084023125
000110 6c c0 b8 3c 5e 20 73 3e 06 03 ac bd 6a a3 27 bd
       0.022552691 0.23742816 -0.08399014 -0.04092733
000120 b8 de 68 ba 30 b0 43 be 1b 2d 9a bd 8c b2 71 3d
       -0.00088832853 -0.19110179 -0.075281344 0.059008166
000130 55 2d c2 3d fc 11 9a bd 0a a8 22 bc 71 8f 63 bd
       0.09481303 -0.075229615 -0.009927759 -0.05555672
000140 e2 0a ab 3d 86 e7 b2 3d d9 29 fb 3d 90 c8 18 3e
       0.08351685 0.08735566 0.12263841 0.14920259
000150 a9 c7 b6 bd 73 e0 9c bc 25 d8 b5 3d f9 dc da 3b
       -0.08924801 -0.019149994 0.08879117 0.006679174
000160 91 cc a1 bc b5 07 02 3e 95 2b 97 bd 07 d5 0e 3d
       -0.019750865 0.12698252 -0.073813595 0.034871127
000170 50 80 f4 3d 2e e7 5c be ee 20 ae 3d ff 35 d9 bc
       0.11938536 -0.21572563 0.085023746 -0.026515005
000180 7f 6d 21 bd ba e1 0a 3d 82 79 06 bb d7 90 f4 bc
       -0.039411064 0.033906676 -0.0020519202 -0.029854221
000190 f6 21 82 3b 89 cc 78 3d 3e 4d 76 bd 03 25 52 3c
       0.0039713336 0.060741935 -0.060132258 0.012826207
0001a0 d1 2d d1 3d 9a 9b 2a 3c d2 a7 9c 3b b8 c7 17 3d
       0.10213817 0.010413075 0.004780748 0.0370557
0001b0 83 47 2e 3d 81 81 ff bc 0e 82 1c bd b8 19 12 3e
       0.042548668 -0.031189682 -0.038209967 0.14267623
0001c0 27 3e 0c 3d 9c d1 3b 3d 92 50 24 3d 64 82 f8 3d
       0.03423896 0.045854196 0.0401159 0.12134245
0001d0 9a 65 35 3d e1 ef cc 3c 4d 48 d9 3d ad 16 78 bd
       0.044286348 0.025016727 0.106094934 -0.0605685
0001e0 95 6e a2 bd d6 2a 09 3d 75 30 13 3a 3c 5d f3 bb
       -0.07931248 0.033488117 0.00056148256 -0.007426886
0001f0 f7 45 d3 3d 5f c7 c8 3d da 2c 87 3c bb 76 dc bd
       0.10316079 0.09803652 0.01650088 -0.107648335
000200 3c 69 50 3d 2d 9b 80 3d 1b e4 c0 3d 3c 27 c1 3b
       0.05088161 0.062795974 0.09418508 0.0058945697
000210 9f 52 51 bd db 32 81 bd 09 61 23 bd 63 52 a8 3d
       -0.051104184 -0.06308528 -0.03988746 0.08218839
000220 70 96 ef 3c dd 32 a7 3d e9 c5 45 3d d8 30 13 be
       0.029246539 0.08163998 0.048284445 -0.14374101
000230 9e 67 44 be 6b 12 c2 3d 1c 98 7c bd ab fa 1a bd
       -0.19180152 0.09476169 -0.0616685 -0.03783671
000240 ae 0d 8a 3b 6a e8 56 3d 81 c8 e7 3d 98 b0 8e bc
       0.0042130565 0.05246774 0.1131754 -0.01741819
000250 69 94 c5 3a 7b d0 aa 3d 82 ba ba 3d d2 ce ed 3d
       0.0015074137 0.08340546 0.09117605 0.116117135
000260 2d 98 f2 bd f9 13 04 3b 06 42 34 3d e7 28 71 3c
       -0.118454315 0.0020153506 0.044008277 0.014719225
000270 64 b2 c0 bd 0d de 81 bd 9a 2f b1 3d 0d 76 47 bc
       -0.09409025 -0.06341181 0.086516574 -0.012174142
000280 79 4b f6 3c 44 fb 4c 3d 2f fe a8 bc 1c 14 28 3d
       0.030065285 0.050044313 -0.020629017 0.041034803
000290 8c a5 23 bd 52 f8 82 3d 24 6e 59 3c da d6 59 bd
       -0.0399528 0.063950196 0.0132708885 -0.053183414
0002a0 d0 e9 77 3d 3c 24 85 bd 15 8d eb 3c ed c6 4b bd
       0.060525715 -0.06501052 0.028753797 -0.049750257
0002b0 6d 7a 53 3d 9d 9a ce ba d6 41 34 be 64 d8 9c bc
       0.051630426 -0.0015762631 -0.1760324 -0.019146152
0002c0 b6 06 c9 bd 2c d8 85 3d e0 00 90 3d 38 2b a3 bd
       -0.09815733 0.06535372 0.07031417 -0.07967228
0002d0 87 5a 6d 3d 57 1a cd bb d1 e7 c9 3d a4 e5 a9 3d
       0.05794766 -0.0062592435 0.098586686 0.082957536
0002e0 b8 9a 15 3d 42 01 b7 3c 9b 77 95 bd 1e ee 4d bd
       0.036524504 0.022339467 -0.072982036 -0.050275914
0002f0 f8 3a 17 3e dc 97 ea bc a5 60 10 3d ed e3 18 bb
       0.14768589 -0.028636865 0.035248417 -0.0023329214
000300 e2 48 c1 3c 55 cf c7 3d f0 a2 ee 3c 21 94 4a 3d
       0.023594324 0.09756342 0.029130429 0.049457673
000310 c3 28 99 3d 74 61 83 3e ad ce 9e 3b 40 be ec bd
       0.07478478 0.25660288 0.004846415 -0.11559725
000320 ac e9 d6 bc ed 17 af bd b9 47 a6 bc 71 8d bf bb
       -0.02623447 -0.08549485 -0.020297872 -0.0058457186
000330 bd 75 c3 bd 99 15 d4 3d 93 62 bb bd 81 d2 a0 3d
       -0.09543941 0.10355682 -0.09149661 0.078526504
000340 12 76 43 3e c6 dd 7c 3d b1 75 1b 3d 11 11 e0 3d
       0.19088009 0.061734937 0.037954036 0.10940755
000350 6f cf cd 3c 6a c2 b4 3d d9 66 41 3d 5b 33 1f bd
       0.025123326 0.08826144 0.047217224 -0.038867336
000360 db dc bf 3d fc 34 aa 3d 34 7e 2d 3d 4c 91 72 3d
       0.09368297 0.08310887 0.042356685 0.059220597
000370 8a 2e 10 3e 90 c9 be bd 40 6d 62 bd 81 97 0e 3d
       0.14080253 -0.09315789 -0.05527997 0.034812454
000380 2c 09 82 3d f9 a7 aa bd 0f 0e 2b bd 91 a7 4c bd
       0.06349406 -0.083328195 -0.041761454 -0.04996449
000390 1f a9 03 3c ef 7d 96 3d 62 22 c0 3d c7 08 7e bc
       0.008035927 0.07348239 0.09381558 -0.015505022
0003a0 44 bd b3 3d 3d c9 55 3d 47 1f 1c bd 13 78 af bb
       0.08776334 0.05219387 -0.038115766 -0.00535489
0003b0 d5 70 18 3e ed 63 a0 bd 9c b0 56 3d 81 6e 48 3e
       0.14886792 -0.07831559 0.05241452 0.19573404
0003c0 1e 5a 86 3d 44 62 1d bd 8b f9 ae 3c 02 02 6a 3d
       0.06560157 -0.03842379 0.021359226 0.05713082
0003d0 68 bb 00 3e 46 fb ae 3d 4a 67 27 bd e7 06 54 bd
       0.1257149 0.0854402 -0.04086999 -0.051764395
0003e0 dd 46 bf 3c 09 46 03 3c 6a 73 25 bd 19 3e 74 bd
       0.02334922 0.008012303 -0.04039327 -0.059629533
0003f0 60 02 e1 3d ea 5e 1e 3d 98 83 84 3d 5c 1c 64 3d
       0.10986781 0.038664736 0.06470412 0.055691108

encoder.2.bias f4 [64]
000000 5b df cd 3d 44 69 97 3c 4d 60 b4 3d 37 80 e0 3d
       0.10052367 0.018482812 0.088074304 0.10961955
000010 a9 c5 4d 3d 9a 95 45 bd 07 84 0c 3e 0f 9f 81 bd
       0.05023733 -0.048238374 0.1372224 -0.06329166
000020 04 a2 1e bd 4d dc fd 3d 5b 5d 8f ba 1a 27 ba 3d
       -0.03872873 0.12395535 -0.0010937856 0.09089489
000030 2c d9 87 3d 38 51 17 3e 33 31 87 bd 0e 50 c7 bd
       0.06633219 0.14777076 -0.06601181 -0.09732066
000040 b9 0c ab 3d 49 60 07 3e 89 79 a4 bd 90 f1 05 3d
       0.08352036 0.13220324 -0.080309935 0.032701075
000050 9d e4 dc bd 80 65 29 3d cf 5e 80 3d 2b 0e 48 3d
       -0.10785792 0.041356564 0.06268083 0.048841637
000060 ac bb c5 3d a1 c4 38 3d 8b ef 77 3d 43 58 d2 bc
       0.09654936 0.045109395 0.06053118 -0.025676852
000070 22 70 ce 3d ae 33 95 3d 45 1c 47 3d 8b f2 a9 3d
       0.100799814 0.07285248 0.048610944 0.082982145
000080 86 8a 04 3e fc b0 ab 3b 8a 9d cd 3c 41 3f c3 3d
       0.12943467 0.005239604 0.025099535 0.09533549
000090 9d e5 ff 3d 78 c1 dd 3d 1b 4d e7 3d bf ae 56 3c
       0.12494967 0.10827917 0.112940036 0.013103186
0000a0 d7 fe 1d 3d fa a4 8f bd af 2d 6b bd 00 3d bd ba
       0.038573112 -0.07013889 -0.057416614 -0.0014437735
0000b0 b8 85 1a 3d 65 8f ec 3b 4e ca 11 3d cc c2 bd 3c
       0.03772518 0.0072192424 0.035593323 0.023164175
0000c0 9d 31 d5 bc 80 7d 7a 3d b1 b3 eb bc 3e 92 ac bb
       -0.026024634 0.061154842 -0.028772207 -0.005266457
0000d0 3b 69 56 3d 7d d9 e9 3c f0 6f 51 3d 6d c4 cf 3c
       0.05234645 0.02854609 0.051132143 0.025362218
0000e0 00 52 5c 3d 06 a1 b5 bc dd cb 14 bd 9a 84 9c 3d
       0.05378914 -0.022171509 -0.03632723 0.07642479
0000f0 ed 6f 2b 3d 5c 5f 5e 3c 58 4b 8d bd 1d cf f2 bd
       0.041854788 0.01357254 -0.06899136 -0.1185591

encoder.4.weight f4 [32, 64]
000000 da 65 59 bd a8 b5 ce 3d e5 bb 8b 3d 57 3a 9f bd
       -0.05307565 0.10093242 0.068229474 -0.07774799
000010 d0 06 a7 3c 6a 9b ef bd f7 e6 42 bd 64 98 e4 bd
       0.02038899 -0.11699565 -0.047583546 -0.11161879
000020 4c c0 88 3d 36 43 0d bc 9c 84 0a be 98 49 d3 bd
       0.06677303 -0.008621981 -0.13527149 -0.10316771
000030 35 f9 fd 3d fe 30 a2 3b c1 49 35 3e 95 26 9a 3d
       0.12401048 0.004949688 0.17703916 0.0752689
000040 72 4d 94 3d d8 86 73 bd 69 aa c0 3c 95 d5 88 3d
       0.07241334 -0.05945477 0.023518758 0.066813625
000050 f5 1d 7c be 8c 20 02 3e cd e1 c9 3c 85 91 91 bd
       -0.24620803 0.12707728 0.024643803 -0.07107834
000060 c0 5f ce bd 37 87 65 3d b0 3a 11 3e 8d 8e 44 bd
       -0.100768566 0.056037154 0.14182544 -0.04798751
000070 d6 81 36 bd c5 97 8c bd ff e9 bf 3d d3 2e e6 3d
       -0.044557415 -0.06864885 0.09370803 0.112394
000080 51 65 1d bc 79 9d d8 3d 62 92 c6 3d a3 df b0 bb
       -0.009606675 0.105769105 0.09695889 -0.0053977533
000090 c3 ce 47 bd 58 ea 7d 3d 0c 8e fb bd e1 06 a8 3c
       -0.048781168 0.061991066 -0.12282953 0.020511093
0000a0 68 ac ef bc da 29 92 bc 4b b8 09 3e e8 e7 9c 3c
       -0.029257014 -0.017842222 0.13449208 0.01915355
0000b0 70 ff 2a 3d 0d a7 ad 3d ad cb c0 bd c7 dc 90 3d
       0.04174751 0.08479128 -0.09413848 0.0707336
0000c0 8a b0 d3 bd be 6d 9f bc 1d 5a 9e bc 34 14 e1 bd
       -0.103364065 -0.019461509 -0.019330079 -0.109901816
0000d0 ae 8c 76 3d 6f bc cb 3b d0 67 01 3e 1a 3d 00 3e
       0.060192756 0.0062175314 0.12637258 0.12523308
0000e0 da 4a 8b 3d 41 b5 2f 3c 74 1c 4c 3d 9c 01 ab 3a
       0.06801386 0.010724367 0.049831823 0.0013046744
0000f0 f9 66 82 3d 54 73 7d 3b 3b ae 2a 3e b7 23 1d 3d
       0.06367297 0.0038673477 0.16668026 0.03836414
000100 b9 58 5d 3d 20 35 dd bd 5f 1a 7d 3d 8e c9 42 bd
       0.05403969 -0.108011484 0.061792728 -0.0475555
000110 58 eb 89 bc 75 02 0a 3e 43 45 37 3d b3 2a c4 3d
       -0.016835853 0.134775 0.044743787 0.09578457
000120 0f 09 1d 3e e6 7a a0 3d c8 8e cc 3b f3 6d e3 3d
       0.15335487 0.07835941 0.006242607 0.111049555
000130 a5 fa 06 3e 19 16 c3 3d 16 07 a6 3d 6d 0b 0b be
       0.13181551 0.09525699 0.0810682 -0.13578577
000140 e0 e0 71 bd 4b a7 fb 3c 0d 42 88 bd 13 5f 24 3e
       -0.059052348 0.03071942 -0.06653223 0.16051893
000150 46 52 0d bd 30 77 29 3d 77 7a f0 3c 2c d0 61 3d
       -0.03450229 0.04137343 0.02935527 0.05513017
000160 89 71 74 3c 3a a3 f7 3d 0d e6 1f 3e 03 02 04 be
       0.014919647 0.1209168 0.15615101 -0.12891392
000170 c9 19 ad 3d fc 03 1b 3e f9 b2 8a 3d 4b 99 e6 3d
       0.08452184 0.15138239 0.067724176 0.11259707
000180 42 4f 34 bd e3 33 25 bc 3a 85 0c 3c db 94 0d 3e
       -0.0440209 -0.010083172 0.008576686 0.13826315
000190 52 06 f7 bb a4 2a e4 bb f4 7e 9c bc fc eb 60 3d
       -0.0075385952 -0.006963091 -0.019103505 0.054912552
0001a0 9d 59 5e bc d9 1e 8d bc a3 14 09 3e 0e 3b 15 bd
       -0.01357117 -0.017226623 0.13386779 -0.036433272
0001b0 64 09 5c bd 58 cb ef 3c 4f a7 84 bd 62 3b 24 be
       -0.053719893 0.029271767 -0.06477224 -0.16038278
0001c0 24 ae 15 bc f4 3d 02 be 67 da b8 3d 8b af a8 3c
       -0.009135757 -0.12718946 0.09026032 0.020591518
0001d0 03 1c 25 3e d9 1e 34 3c 36 69 05 3e 53 d4 33 3e
       0.16123967 0.010993683 0.13028416 0.17561464
0001e0 16 89 15 3e 11 b6 86 3d c4 1c 15 3e 05 b1 cf bd
       0.14603075 0.06577695 0.14561754 -0.10141186
0001f0 c2 b7 0a 3e 3f d1 21 3e 41 d9 09 3b 81 93 11 bd
       0.1354666 0.15802477 0.0021034034 -0.03554106
000200 08 2a bc bd d5 fc 0b 3d 88 5c 91 3d ad 8c ff 3d
       -0.09187704 0.034176666 0.07097727 0.12478004
000210 f8 7b 0c bd 2b 2b e4 3d 90 59 7c 3d 96 5d 61 3d
       -0.034297913 0.11141046 0.06160885 0.05502089
000220 0b df 81 3d 69 30 be bc a3 a0 94 bd 81 1a 37 bd
       0.0634137 -0.023216443 -0.072572015 -0.04470301
000230 1a 41 c7 3d 15 99 61 3d 8a e8 3f 3d ec 06 db 3d
       0.09729214 0.05507763 0.046852626 0.106946796
000240 19 5c fc 3d 72 4f c3 3d 1b b2 eb bd 04 74 dd 3c
       0.12322254 0.09536637 -0.1150858 0.02703286
000250 84 87 0e 3e 83 38 e0 3d b7 ce d8 3c 11 8c 2c bd
       0.13918883 0.10948279 0.026465757 -0.042125765
000260 27 63 10 3d f0 4e 3d bd 8c 60 d6 bd 9a 4e f5 3d
       0.03525081 -0.04621786 -0.104676336 0.11977883
000270 b3 0b 42 3d 4d d6 ee bd 0b b0 5b 3e 06 3c 51 3d
       0.04737444 -0.116619684 0.21453874 0.051082633
000280 db ba 14 3e c1 fe e8 3d a1 58 d8 bd 17 db 7d bd
       0.14524405 0.113767155 -0.105637796 -0.06197652
000290 bd d5 a3 3d 29 74 62 bd f6 1e 97 bc 1c 13 8c 3e
       0.07999752 -0.05528656 -0.01844738 0.2735833
0002a0 2d 54 14 3e be b3 1d bd a4 ee 51 be 2f 77 2b bd
       0.14485236 -0.038501494 -0.2050119 -0.04186171
0002b0 26 91 73 bd bc ce 48 bd 0a 6c b9 3d dd 9c 37 3d
       -0.059464596 -0.049025282 0.0905381 0.04482733
0002c0 3b f8 2d 3e ea 3d 1d 3d 4b 0e 08 be 8e bd e0 bc
       0.16989224 0.038389124 -0.13286702 -0.027434137
0002d0 1a 1c 61 bd 20 8e 76 3c f6 eb da bd 62 86 56 3d
       -0.05495844 0.015048534 -0.10689537 0.05237425
0002e0 8e 13 0e be 94 66 23 3b 84 b0 56 be 50 d7 3e bd
       -0.13874647 0.0024932967 -0.20965773 -0.046592057
0002f0 b0 4b 87 3d 45 eb cd 3d 26 26 33 be 9f 05 b9 bd
       0.06606233 0.1005464 -0.17495021 -0.09034275
000300 5c 84 ab 3d 88 10 50 3d de ab 12 be 8f 67 56 bc
       0.08374855 0.050797015 -0.14323375 -0.013086214
000310 d5 41 58 bd 83 44 66 3d c7 5d 0c be 6f 90 88 3d
       -0.052797157 0.05621768 -0.13707648 0.066681735
000320 b2 08 67 3d 61 8a 0a be c3 f5 56 bd bb 8d ba bd
       0.056404777 -0.1352935 -0.05248047 -0.09109064
000330 4f 2e c7 3c e4 53 89 3d f5 20 0a 3d 0b a2 96 3d
       0.024314074 0.06705454 0.033722837 0.07355126
000340 ed 66 3e bb 5f 2d 2d bd 7e a3 98 bd 71 ce 60 3d
       -0.0029053048 -0.042279597 -0.07453059 0.054884378
000350 05 23 db bd 46 e7 28 3c de b1 85 bd c0 7e 1d be
       -0.10700039 0.010309046 -0.06528066 -0.15380383
000360 54 6b 85 3d 43 f3 cc bd 91 55 e8 bd 12 1d 97 3c
       0.06514612 -0.10007336 -0.113444455 0.018446479
000370 27 e0 2d 3d 60 7f 24 be 08 c9 35 3c 99 e1 54 bc
       0.042450096 -0.16064215 0.011095293 -0.01299324
000380 7f 04 b6 3d 51 0e 8b 3d 00 a1 cd bd bd 17 55 3d
       0.08887576 0.0678984 -0.10040474 0.05202459
000390 d4 5a 84 bb 66 90 b9 bd 30 21 17 be 0d 29 9d bd
       -0.004039148 -0.09060745 -0.14758754 -0.076738454
0003a0 f0 d0 f3 bd 45 3f a6 bd e7 84 02 bd 3e 39 01 3b
       -0.11905086 -0.081175365 -0.031865027 0.0019717957
0003b0 d4 6c 8d bd fc 80 97 bc 9d 2a c4 3d bf 45 6e 3d
       -0.06905523 -0.018494122 0.0957844 0.058171984
0003c0 22 df 3d 3d 53 81 10 be 6b 93 5c 3d a1 9a b7 bc
       0.046355374 -0.14111833 0.053851526 -0.0224126
0003d0 bc 4b 8e 3b b5 05 95 bd 25 36 ec bc ae 68 83 3d
       0.0043425243 -0.07276479 -0.028834412 0.064164504
0003e0 8e 38 16 3d a8 ae 9b 3d 69 b1 14 be b2 ea 69 3c
       0.03667503 0.076016724 -0.14520802 0.014277147
0003f0 77 96 58 3d 4d f0 c8 bd 6f f2 b4 3b f2 5a f2 3c
       0.05287787 -0.09811459 0.0055220644 0.029584382

encoder.4.bias f4 [32]
000000 99 8f 0a 3c ac ef 53 3d cf ea 7a 3d 60 41 26 be
       0.008457088 0.05174224 0.061259087 -0.16235876
000010 64 76 76 bd c4 a3 d2 bd 8f e9 93 bd 3f bc 94 3c
       -0.0601715 -0.10285142 -0.07222282 0.018156169
000020 40 5d c8 3d ad f9 31 3e b6 67 64 bd 98 3d 3a be
       0.09783411 0.173804 -0.05576297 -0.18187559
000030 89 e4 8a 3d 06 41 50 bd 62 b1 ec bd bb eb b5 3c
       0.06781871 -0.05084326 -0.115572706 0.022207132
000040 d1 1d 78 3d 96 c1 15 bd 3b 9d 37 3e c8 c2 2e 3c
       0.06057531 -0.03656157 0.17931072 0.010666557
000050 8a 90 8f bd 7b 4e 12 be d7 fb 8b bd 86 60 94 bd
       -0.070099905 -0.1428775 -0.06835144 -0.07244973
000060 9b ad 0f be 19 79 bd 3d ca 87 3b 3e 73 84 16 3e
       -0.14031069 0.09251613 0.18313518 0.14698963
000070 e0 48 f9 bc 22 44 b9 3c c4 86 87 bd ae 8e 9e 3d
       -0.030430257 0.022615496 -0.066175014 0.07742058

encoder.6.weight f4 [8, 32]
000000 58 ee 2f 3d f2 8b 1c be ab ee e3 3d 8f 77 24 be
       0.04295191 -0.1528776 0.11129507 -0.16061233
000010 26 39 90 ba 86 dd 5c bd 76 38 dd 3c 3d b3 00 be
       -0.001100336 -0.0539222 0.027004462 -0.12568374
000020 90 3e 14 3e 22 e4 11 3e 81 f5 32 3e fe 39 18 3c
       0.1447699 0.14247182 0.17476465 0.00929117
000030 5a 3a 86 bd 39 59 1a 3e ec b3 f5 3b f3 93 14 3e
       -0.065540984 0.15073098 0.007498255 0.14509563
000040 96 6e c3 3d 6b 4c b6 3d 85 bd 09 3e 8a a9 37 be
       0.09542577 0.08901294 0.13451202 -0.17935768
000050 8c d3 1b bd 78 de 89 3d 8b a4 33 be 5c f9 97 3c
       -0.038043544 0.06731886 -0.17543237 0.018551521
000060 d3 1f fc bd 99 bf 50 3d d9 f9 b0 bd d1 d7 8d bd
       -0.123107575 0.05096397 -0.08641405 -0.06925929
000070 0f b3 25 3c 8e b5 fa 3d b3 10 37 3e 5a fc 7a bd
       0.010113492 0.1224166 0.17877464 -0.061275817
000080 da 5d c7 bc ad d8 66 3e 55 51 c8 3d fd 14 93 bb
       -0.024336744 0.22543593 0.09781138 -0.004488586
000090 60 72 4c 3e 29 c6 ed bd ce 08 2a 3e 41 94 39 bc
       0.19965506 -0.11610062 0.16604921 -0.01132685
0000a0 f7 70 03 3e 62 cf f5 3d 03 ff 86 3d 51 2d e5 3c
       0.12836061 0.12002446 0.065916084 0.02797571
0000b0 55 59 59 3e 74 0c bc 3d d6 f2 14 be 46 3a 41 3d
       0.21225484 0.09182063 -0.1454576 0.047174715
0000c0 da 7c 5e 3d e1 5c 90 3d 8a 3e 89 bd dd ae c2 3d
       0.054318286 0.07048965 -0.067013815 0.09506009
0000d0 7a 36 81 bc fa a3 2f 3d 0e 51 14 3e cb 60 1e 3e
       -0.015773047 0.04288099 0.14484045 0.15466611
0000e0 95 73 b4 3d 0a fc b6 bc e4 ee 5f bc 32 01 27 be
       0.08811108 -0.022336978 -0.013667796 -0.1630905
0000f0 a2 bf d6 3d 96 9b 25 3d 6c f8 47 ba 20 3e 1d 3d
       0.1048577 0.04043158 -0.00076282653 0.038389325
000100 0a 29 bf 3d dc 0a 19 3e 74 f7 1c be f2 f3 06 3e
       0.093339995 0.14945549 -0.15328771 0.13178995
000110 0f 0b 7a bd 6c 4a 00 3e 7b 27 14 3e 54 57 f2 bd
       -0.061045703 0.1252839 0.14468186 -0.11833063
000120 f8 64 c1 3d dd de 27 3e a9 a7 32 be 0c 87 dd bd
       0.094430864 0.1639361 -0.1744677 -0.10816774
000130 00 94 9a 3d 52 20 00 3e ff 96 84 3d d1 3e 5e be
       0.0754776 0.12512329 0.06474113 -0.2170365
000140 31 1c 1b be 1a 22 17 b8 17 55 90 bc b8 a4 db bd
       -0.15147473 -3.6032965e-05 -0.017618699 -0.10724777
000150 48 39 1f be 9a f2 2b bd 8f 64 1e 3e a6 d7 ad 3c
       -0.15549195 -0.04197941 0.15468048 0.021220993
000160 fe 7c 06 3e 6f 36 33 be b8 91 1a 3e d7 cb 9f bd
       0.13133618 -0.17501234 0.1509465 -0.07802551
000170 dd 4c 0b bd 37 a9 3a 3e 00 f3 56 be 1d 98 2b 3d
       -0.03400885 0.18228613 -0.20991135 0.041893113
000180 a5 3f 92 3d 5a 30 d8 bd 31 24 f1 3d 45 49 35 3e
       0.071410455 -0.10556097 0.11774481 0.17703731
000190 ab d8 13 bd a5 e8 29 bd 3e 74 00 bd 4f 64 30 3e
       -0.036095303 -0.041481633 -0.031360857 0.17225765
0001a0 23 a1 a5 bd df 22 8d 3d 78 14 df 3d dd 7d f8 bc
       -0.08087375 0.06891417 0.10892576 -0.030333454
0001b0 59 fa fa bd 7c 65 89 bd aa de 85 3e 73 04 6e 3d
       -0.12254781 -0.0670881 0.26146442 0.05810971
0001c0 cd 66 c0 3d 0f 68 b0 3d 07 b6 32 be 99 26 a3 3d
       0.09394608 0.086135976 -0.1745225 0.07966346
0001d0 ab b7 c1 3d 40 57 69 bd 71 ca be 3c 3e 37 c8 3d
       0.0945886 -0.056967974 0.023289891 0.097761616
0001e0 c1 2f 10 bd 1c 11 8e 3c 64 70 bd 3d 4d fa 36 bc
       -0.03520179 0.017342143 0.092499524 -0.011168075
0001f0 98 8f 56 3e c6 75 b6 bd 3c 93 fb 3d f0 02 0a bd
       0.20953214 -0.08909182 0.12283942 -0.033694208
000200 55 be 39 3e bf 5b 25 3e e5 5d 17 3e 53 bf ff bd
       0.18139012 0.1614828 0.14781912 -0.12487664
000210 f8 53 1c bd cf 06 05 3e c5 5b 08 3e 51 bf a8 bd
       -0.038166016 0.12990879 0.13316257 -0.08239616
000220 65 68 44 bd e2 23 15 bc 6f 64 49 be 4e 45 b5 3d
       -0.04795112 -0.009102793 -0.19667219 0.088511094
000230 c6 4c ee bc 19 5d 00 be bb d4 ac 3d 55 a7 57 be
       -0.029089343 -0.12535514 0.084390126 -0.21059926
000240 36 66 aa bd ce f3 2b 3c d5 83 b9 3d 7d a6 43 bd
       -0.083202764 0.010495139 0.09058348 -0.047766197
000250 95 93 1b 3e 75 09 28 be 98 03 95 3d d8 3f c9 3b
       0.15193017 -0.16409858 0.07276076 0.006141644
000260 5f 54 52 3d 16 6c 53 be e9 24 c9 bd a8 e6 b5 bc
       0.051349994 -0.206467 -0.09821493 -0.022204712
000270 f2 bd 30 bd 90 cc ec 3d 00 e3 e3 bd 42 94 43 bd
       -0.043149896 0.11562455 -0.11127281 -0.04774881
000280 ad 6a 3b 3d 9a ac 28 bc 58 80 40 3e b2 76 02 3e
       0.04575603 -0.010295058 0.1879896 0.12740591
000290 14 92 f9 bd ca cf cc 3d 52 fb 24 3e 26 15 43 3e
       -0.12186065 0.1000057 0.16111496 0.19051036
0002a0 46 d2 ee 3d eb e9 9d bb 90 02 ff 3d 46 38 3b 3e
       0.116612 -0.004819145 0.12451661 0.18283185
0002b0 6f 49 13 3e 07 7c 08 be 8d ce ea 3d a5 cd cf bd
       0.14383481 -0.13328563 0.11465178 -0.101466455
0002c0 2e bc 3f 3e a4 6b c5 3d ed 6b 1e 3e 41 50 d6 3d
       0.18724129 0.096396714 0.15470858 0.10464526
0002d0 5a 09 37 be 2e 29 3e 3c ba 2e 4b bc fa 8a 9d 3d
       -0.17874661 0.011606498 -0.012401277 0.07692523
0002e0 1d 15 33 bc 04 49 a7 bd 4b f3 74 bd 21 57 d2 3d
       -0.010930327 -0.081682235 -0.059802335 0.10270525
0002f0 a2 0f 1f bc 5f ad e7 bd 9e fd ee bd f5 81 2d 3e
       -0.009708317 -0.11312365 -0.116694674 0.16944106
000300 83 d4 c2 bd e8 fc 15 3e e2 07 20 bd be e9 72 bb
       -0.0951319 0.14647257 -0.039070018 -0.003706559
000310 a9 69 bc bd 4f 45 eb 3d 0c ab 8a 3d 72 e6 23 3e
       -0.091998406 0.11487829 0.06770906 0.16005877
000320 d2 84 dd 3d d5 a4 1f 3c 30 a6 51 3e 73 15 03 bd
       0.10816349 0.009743889 0.20473552 -0.032002877
000330 ea ea 19 be e2 f3 ae 3b cd 0f 1d be cc a7 68 3e
       -0.15031019 0.0053391317 -0.15338059 0.2272026
000340 16 60 db 3d 3b 9e 24 3d 9f 49 0f bd 52 dd 04 be
       0.10711686 0.040189963 -0.03498232 -0.12975052
000350 18 1c 18 be f0 0a ca bc e7 3a 29 be 90 fd 18 3d
       -0.14854467 -0.024663419 -0.16526376 0.03735119
000360 0d 1f ff bd fc 0e 3c 3e a7 98 02 3e 6d e8 18 3e
       -0.12457094 0.18365091 0.12753545 0.14932413
000370 a8 66 0a be ef 1e 91 3d b2 a9 92 3c 05 f1 e5 bd
       -0.13515723 0.07085978 0.017903183 -0.112276115
000380 8d 0b 6f 3d ef 89 e0 3a af 3a 3d bd fa 1a ab bc
       0.058360625 0.0017130951 -0.046198543 -0.020886887
000390 52 17 0c 3e 1d f1 0e bd 80 f1 21 bd de ba 43 be
       0.13680771 -0.034897912 -0.039536953 -0.19114253
0003a0 01 da 29 3e 82 6f 4b 3e 36 ed a6 3d 43 e5 d2 bd
       0.16587068 0.19866756 0.08150713 -0.102976345
0003b0 8a 58 3e 3e 05 c6 09 be 44 fb 56 be aa 62 d7 bc
       0.18588462 -0.13454445 -0.20994288 -0.026292164
0003c0 fb a6 0e be 6a 7f 15 be 73 54 5d 3e c5 8d 85 bd
       -0.13930885 -0.14599386 0.21614246 -0.06521181
0003d0 18 5e 15 be 94 a2 0e 3e 7f 9e 13 3d a7 9d 6f 3d
       -0.14586675 0.13929206 0.036039826 0.05849996
0003e0 4f 79 08 be 59 d5 0a be 16 88 3a 3e 87 87 99 bb
       -0.13327526 -0.13557948 0.18215975 -0.0046853456
0003f0 14 8c 4d be d6 e7 97 bc 75 63 93 3d c4 1e 23 be
       -0.20072967 -0.018543165 0.07196704 -0.15929705

encoder.6.bias f4 [8]
000000 93 3a 36 3e a4 27 0a 3d 2e 27 76 3d 01 cd 31 be
       0.17795782 0.03372921 0.06009596 -0.17363359
000010 f7 b3 ae bd 3a ed 9d 3d 36 df fb bd 6b 1b ec 3d
       -0.08530419 0.07711263 -0.122984335 0.11528667

decoder.0.weight f4 [32, 8]
000000 95 d7 03 3e 75 fc bf 3c d3 1b 56 be 17 6e 9d be
       0.12875207 0.02343581 -0.20909052 -0.30748054
000010 81 a4 80 be 90 23 ec 3d bc 97 9c 3e 40 71 89 3d
       -0.25125507 0.115302205 0.30584514 0.06711054
000020 27 8e 90 3d 16 d2 cd bd 08 ec 87 3e dc 90 fd 3d
       0.070583634 -0.10049836 0.26547265 0.12381145
000030 10 f2 80 3e f8 06 ea bd 68 a8 db 3e ba 20 a0 bd
       0.2518468 -0.114271104 0.4290192 -0.07818742
000040 aa 3f b2 3e 03 ac 08 3e d9 c6 85 be be a5 9c 3d
       0.34814197 0.13346867 -0.2612827 0.076488
000050 b4 b5 1d 3e 60 60 ac 3e 37 74 54 3e e8 1b ab be
       0.15401345 0.33667278 0.20747457 -0.33419728
000060 0c 2c 3b 3e b2 53 28 be 60 8f ca be e7 7d 49 3e
       0.18278521 -0.16438177 -0.3956251 0.19676934
000070 ca fc fa bd 09 21 1d be fa 32 8a 3e cd 29 ba 3d
       -0.12255247 -0.15344633 0.26992017 0.09090004
000080 eb 51 08 3e 20 9a 40 be 0e 1c 35 be 83 39 a7 be
       0.13312499 -0.18808794 -0.17686483 -0.32661065
000090 fb 7c 9d 3e d6 bd 51 3e 4d b6 fa 3b 99 dc be 3e
       0.30759415 0.20482573 0.0076511265 0.37277678
0000a0 5b 03 42 3e b2 8c bd 3d 53 39 19 3e e9 03 ad 3e
       0.18946593 0.09255351 0.14963274 0.33792046
0000b0 1f 90 a2 3e 9b ca 9d bd b7 73 9e be 2e de cc be
       0.3175058 -0.077046596 -0.30947658 -0.4001326
0000c0 7f 51 e1 bc f5 18 ab be 2c 2f af be ca ac 26 3e
       -0.02750468 -0.33417478 -0.34215677 0.16276851
0000d0 ef 30 dc bd 42 5f f0 3d b9 eb 8a 3c 68 a8 e5 3d
       -0.10751521 0.11736919 0.016958104 0.112137616
0000e0 40 59 8f 3e 47 e4 21 be 69 81 23 3c da db b9 be
       0.2799778 -0.15809737 0.009979584 -0.36300546
0000f0 d0 41 bf 3d 84 9f a9 be ba c2 d8 3d bd db e7 3d
       0.093387246 -0.33129513 0.10584016 0.113212086
000100 b2 1f 22 be ed 67 98 3e b2 d0 4c be 28 07 99 be
       -0.15832403 0.2976679 -0.20001486 -0.29888272
000110 5f a9 2f be cf f8 da ba a3 5a 58 3d e7 7f 83 3e
       -0.17154454 -0.0016706231 0.052820813 0.2568352
000120 bb 28 63 3e 84 e5 6a 3d 39 c3 7b 3e e2 25 e5 bd
       0.22183506 0.05734779 0.2458619 -0.11188866
000130 35 7a ed 3c 78 df 8f be 39 19 88 be a5 b8 56 be
       0.028988937 -0.2810018 -0.26581743 -0.20968874
000140 ce 70 82 be 87 4d b4 be 05 de 40 3e 34 e8 92 3e
       -0.25476688 -0.352154 0.18834694 0.28692782
000150 67 ed 33 be 16 b5 3d be f6 bb 87 be c9 9d 14 bd
       -0.1757103 -0.1852611 -0.2651059 -0.03628329
000160 ee 33 5f 3e b7 82 49 be 9a 2f ad 3e 2c 56 bb be
       0.21797153 -0.1967877 0.3382538 -0.3658918
000170 cb 85 b2 bd b5 78 0b bd d8 76 82 be 69 32 dc bb
       -0.08716925 -0.034050662 -0.25481296 -0.0067198765
000180 c9 55 9e be 81 e0 31 be 38 d2 66 3e e4 5b 35 be
       -0.30924824 -0.17370798 0.2254113 -0.17710835
000190 7b fd c1 3d 81 a3 e7 bc 9e 02 17 bd 41 8d d8 3c
       0.09472176 -0.028276207 -0.03686773 0.026434543
0001a0 40 45 ac 3e de 1d af bd 80 f7 a9 3e b9 ce fb 3d
       0.33646584 -0.085506186 0.3319664 0.122952886
0001b0 4d 13 bb 3d 52 94 4f bd 7c 0b 6d 3d c3 7c 5f be
       0.09134541 -0.05067856 0.05787228 -0.21824937
0001c0 7d bc 12 bd 14 37 6d 3e 41 c7 9e 3d c9 a8 6a 3e
       -0.035824288 0.23165542 0.077528484 0.22915949
0001d0 63 ce 35 3e 8c a6 dd bd 8b 9d ab 3d 71 4e 2a be
       0.17754512 -0.10822782 0.08379658 -0.16631486
0001e0 8a 55 12 bc 39 e1 05 3d c1 ce b0 3d da f7 ee 3d
       -0.008931527 0.032685492 0.08633185 0.11668368
0001f0 ee ce 58 bd d5 61 72 3e ff 94 a9 3e 1b 35 f1 bd
       -0.05293172 0.23670132 0.33121487 -0.11777707
000200 0e e9 51 3e 4d fb cb bd 19 1c af 3d 51 7f 18 3d
       0.2049906 -0.09960041 0.08550281 0.037230793
000210 37 f9 9b bd a4 e1 65 3e ab e7 a4 bd 91 81 8d be
       -0.07615893 0.22449356 -0.08052 -0.27637914
000220 71 79 9e 3e a3 51 e8 3d cf db a5 3e 28 71 07 3e
       0.30952027 0.11343696 0.32394263 0.1322676
000230 5a e4 43 3e 94 c4 70 3e dc ef 39 bc 0f 47 21 be
       0.19130078 0.23512489 -0.011348691 -0.15749763
000240 45 41 18 3e 25 d1 88 bd 9a 3f f9 3d 12 93 51 bd
       0.14868648 -0.06680516 0.12170334 -0.051165648
000250 7d 2c e5 3d 13 9a 4a be 5c c1 53 3e 73 e7 1c bd
       0.11190126 -0.19785337 0.2067923 -0.038306665
000260 ac 15 2b be 02 e3 0d bf 19 64 a5 bd 89 83 70 3e
       -0.16707486 -0.5542451 -0.08075733 0.23487677
000270 1d 5b e1 bd 01 26 88 be 8c d2 1b be dd 5c 4a be
       -0.110037066 -0.26591495 -0.15217036 -0.19761987
000280 b3 69 e5 3c f9 7d b4 be 22 34 23 be c5 d5 59 3e
       0.028004503 -0.3525236 -0.15937856 0.21272953
000290 3a 1f 95 be ab a1 85 be 4b 05 10 3e 02 5d 92 3e
       -0.29125386 -0.26099905 0.14064519 0.28586584
0002a0 01 81 27 bd d2 32 40 be 15 9b 9c 3e 9d c3 a4 3e
       -0.040894512 -0.18769386 0.30587068 0.3218049
0002b0 11 1b 40 3e 9f e2 12 be 86 bb cf bd 66 5b 3c be
       0.18760325 -0.14344262 -0.10143189 -0.1839424
0002c0 33 49 a0 3e f4 95 41 bd c5 79 78 3e 4d 44 13 be
       0.31305847 -0.047262147 0.24265201 -0.14381523
0002d0 ed 5b 0a 3d f2 15 a9 3e d2 de 4b 3e 46 af 29 be
       0.033779074 0.33024555 0.19909218 -0.16570768
0002e0 57 d7 41 3e b8 7c a2 3e 74 e2 9b be d3 a6 a4 be
       0.18929802 0.31735778 -0.30446208 -0.32158527
0002f0 b4 76 fe 3d a9 46 85 3b 65 2b a0 be 95 61 90 3e
       0.124249846 0.0040672612 -0.31283107 0.2819945
000300 8e 7f 57 bc 06 48 7f bd 4d a9 94 3c 11 e7 11 bd
       -0.01315297 -0.062324546 0.018147135 -0.035620753
000310 e4 35 aa 3e 7c 9b 5b 3e 43 a7 f1 3c 48 b6 b4 be
       0.3324424 0.21446031 0.029498702 -0.3529532
000320 8d 51 ae 3e ce 1f d7 bd 81 02 cc bd 2a 58 5c 3c
       0.34046593 -0.10504113 -0.09961415 0.013448754
000330 2c 25 c3 be 42 11 7c bd 3e f0 f2 3b 38 98 88 be
       -0.38114297 -0.061539896 0.007413893 -0.26678634
000340 55 66 37 bd 34 e3 b3 be b4 bf 45 be 2b 50 45 be
       -0.044775326 -0.3513428 -0.1931141 -0.19268863
000350 a4 1d 98 be e8 4d 45 3d bb 6d e6 bd 1f 1b 80 be
       -0.29710114 0.04817 -0.11251398 -0.25020692
000360 fb 25 04 be b3 e3 45 3e 61 3f 20 be c4 bb 18 3e
       -0.12905113 0.19325142 -0.15649177 0.14915377
000370 fd 16 16 3c 97 3c 45 3c 6c 81 8e be 43 e8 8a 3e
       0.009160754 0.0120383715 -0.27833116 0.27130327
000380 ae 68 0b be 0e 2b 95 3e 0d 40 83 3e a9 42 5a be
       -0.13614151 0.2913441 0.25634804 -0.21314491
000390 10 80 34 3e 3b 7c 5d be 7d 5e 5d 3d 4f 9f b4 3e
       0.17626977 -0.21629421 0.05404519 0.35277793
0003a0 f7 cd 97 be 7e e3 19 3e 02 26 54 3e ec a1 8f 3e
       -0.29649326 0.15028188 0.20717624 0.28053224
0003b0 f4 2c 8e 3e 14 6c 5c 3d 4b 59 94 be 7e f8 8a be
       0.27768672 0.05381401 -0.28974375 -0.2714271
0003c0 e2 d2 8e bd c6 75 25 bd b2 1f a5 3e c3 f0 6e be
       -0.069738165 -0.04039552 0.32250744 -0.23334031
0003d0 28 8b 32 3e 0a b4 8c bd 30 1b 95 be 96 b4 c0 bc
       0.17435896 -0.06870277 -0.29122305 -0.02352361
0003e0 70 11 ee 3d d6 4c 70 3e f6 42 3d be 38 c7 92 3e
       0.1162442 0.2346681 -0.18482575 0.28667617
0003f0 b8 48 41 be 0f 2f 20 3e 8a eb 73 bd 4d 01 80 3e
       -0.18875396 0.15642951 -0.0595508 0.25000992

decoder.0.bias f4 [32]
000000 a1 ae 0c bd 0e 16 82 be 90 0c 35 3d b6 ff 1b 3e
       -0.034346227 -0.2540745 0.044201434 0.15234265
000010 5d fa 79 bd 85 5b df bd 93 7e 67 3d dd 2d a5 be
       -0.06102978 -0.10906128 0.056517195 -0.32261553
000020 26 5f ae 3e 05 3e af be db 8b 85 3e 46 c5 12 be
       0.34056967 -0.34227005 0.26083264 -0.14333066
000030 7c 87 05 3e bb c6 a6 bc 23 eb aa be df c0 23 bc
       0.13039964 -0.020358434 -0.3338252 -0.0099947145
000040 d2 c2 a7 be 72 43 37 3c 93 8a 8f 3e 6f d8 99 3d
       -0.32765824 0.011185514 0.2803541 0.075119846
000050 a6 1b e1 3c 71 50 9c be 53 07 f4 bb 28 d2 a7 be
       0.027479004 -0.30530122 -0.007447162 -0.32777524
000060 27 87 25 be 57 ef 6a bc 3b 0e c7 3d 2d 94 75 be
       -0.16164838 -0.01433929 0.09719511 -0.23982306
000070 b7 68 a3 3e 18 ae 66 be 2b 43 36 bd 86 ed bf 3e
       0.3191583 -0.22527349 -0.04449765 0.37485904

decoder.2.weight f4 [64, 32]
000000 aa 62 d5 3d 88 61 75 3d 18 81 d2 bd 77 fd 00 be
       0.10419209 0.059907466 -0.10278529 -0.12596689
000010 90 44 5f 3c aa 1d 9c bd 09 f9 2c be 3b f3 e6 bd
       0.013627186 -0.076228455 -0.16891874 -0.11276861
000020 95 9d 06 3e d8 1d 14 be bd 7b 03 3e 80 56 19 bd
       0.1314605 -0.1446451 0.12840171 -0.03743601
000030 e0 b7 39 bd 00 63 53 3c 00 f3 65 3b 56 e0 a6 3d
       -0.045341372 0.012902021 0.0035087466 0.081482574
000040 a8 9b 4a 3d 99 10 a8 bd e8 a3 b9 bd 4a ed 65 bd
       0.04946485 -0.08206291 -0.09064466 -0.0561345
000050 45 e3 2f 3e 1b fa 23 3e 34 e2 c7 bd ff df 31 be
       0.1717654 0.16013376 -0.09759942 -0.17370604
000060 05 3f 27 3e 80 87 f8 bb 60 d8 23 be 60 34 be bc
       0.16332634 -0.0075845122 -0.1600051 -0.023218334
000070 60 7a 03 3d 8e c7 85 3d 43 fb fb bd 00 ca 75 bb
       0.032099128 0.06532203 -0.12303784 -0.0037504435
000080 06 e7 c9 3d 00 c7 97 3e 29 bd 2c bd 8e 7e e1 3d
       0.09858517 0.29644012 -0.042172585 0.110104665
000090 9c 46 16 3d 1d 0a 5f bd c3 5c 13 3e 61 1b e7 3d
       0.036688432 -0.054453004 0.14390855 0.11284519
0000a0 d3 59 6b be b8 ac 7c 3e 3e ba ef 3d d2 2d 6f bd
       -0.22983484 0.24675262 0.11705445 -0.058393307
0000b0 98 27 de 3d 12 a5 f7 3d cf b7 9d 3e d3 eb e0 bd
       0.10847396 0.120920315 0.30804297 -0.1098248
0000c0 bc c4 ea 3d 7b 29 83 3d 5f 10 d8 bc 7c 95 81 be
       0.11463305 0.06404396 -0.026374994 -0.2530936
0000d0 46 cf 98 3d c3 4e 82 bc fe 26 0a be 3e 3a 3a 3e
       0.07461409 -0.015906697 -0.13491437 0.1818628
0000e0 52 22 30 3d 40 15 67 3a 88 29 14 3d e8 39 5e 3d
       0.04300148 0.0008815117 0.03617242 0.054254442
0000f0 d1 af cf 3d 2e f4 86 bc 36 d3 09 3e f7 1a a8 be
       0.10140956 -0.016473856 0.13459477 -0.32833073
000100 8c 9b 8b bd c1 df 2f 3e aa 7e d6 3d 18 f6 04 3e
       -0.068167776 0.17175199 0.10473378 0.12984502
000110 67 1d 84 3d 1a 6b 93 bd 6e 2c ba bd ee 0e 0f 3d
       0.064509206 -0.071981624 -0.090905055 0.034926347
000120 04 9b 5e bc ef 90 86 3e 5e 0c dd bd 98 1c 47 bd
       -0.013586763 0.2628245 -0.107933745 -0.048611253
000130 0b d9 fc 3d 74 cd fe 3d fd cd 98 3d 55 ab f3 bd
       0.12346085 0.12441531 0.07461164 -0.11897913
000140 97 23 d8 3c b0 aa 31 be f1 4b d5 bd c9 67 3e 3d
       0.026384158 -0.17350268 -0.10414875 0.046485696
000150 a0 1a 58 3e e5 d6 dd 3d 43 26 07 3e 98 d6 80 be
       0.21103907 0.108320035 0.1319819 -0.25163722
000160 e8 47 f9 3d 10 db 3b 3e 0b 8f c1 3c 00 d8 bc bc
       0.12171918 0.18345284 0.023627779 -0.023052216
000170 05 9b 82 bd c4 e9 58 3e 71 fd 72 bd 35 f1 c3 3d
       -0.06377224 0.21182925 -0.05932373 0.09567491
000180 c1 8d 15 3e f3 a2 01 be ca 1e c4 bc fc bf 8a bd
       0.14604856 -0.12659816 -0.023940463 -0.06774899
000190 07 b9 00 be c8 8c c3 3c 9a 51 15 be 0e c2 3d be
       -0.12570582 0.02387084 -0.1458191 -0.18531057
0001a0 aa 62 c2 3d 69 05 0e 3e 80 ae 66 3b 1c 41 ae 3c
       0.09491475 0.13869251 0.0035199225 0.021271281
0001b0 38 79 22 3e a4 47 94 3d 2e 91 02 be 18 48 26 3e
       0.15866554 0.07240227 -0.12750694 0.16238439
0001c0 10 ab 62 bc e6 81 54 3c c6 2a b9 bc be 55 83 3d
       -0.01383473 0.012970423 -0.022603404 0.064128384
0001d0 54 df f1 bd 0e 3c 8a 3d 40 aa 3b be 8b 9c 16 be
       -0.118101746 0.06749736 -0.18326664 -0.14708154
0001e0 36 0c d9 bd 9f 10 14 3e d0 0a e8 3c 88 00 c2 3c
       -0.10598032 0.14459465 0.028325468 0.023681894
0001f0 8d 9a e8 3d f6 1c b1 3d bf 80 f0 bd e3 54 1f be
       0.11357603 0.08648102 -0.11743306 -0.15559725
000200 9c 5c 2d 3d a5 af 9f bd f4 63 3e be 06 9b 63 3d
       0.042324647 -0.077971734 -0.18592817 0.055567764
000210 79 75 42 3e a4 f2 b6 3d 9e a6 03 be 1d c1 a3 bd
       0.18990125 0.08932999 -0.12856528 -0.07995818
000220 48 23 70 3d a0 51 31 3d 56 1b 1e bd f6 12 03 be
       0.058627397 0.043290734 -0.03860029 -0.12800202
000230 98 4e 0c bd 61 ad e6 3d a7 2b 34 be 1f a0 06 3d
       -0.03425464 0.11263538 -0.17594777 0.032867547
000240 27 eb 25 3e c1 91 5b bd a3 d8 16 be b2 76 7c 3c
       0.16202985 -0.0536058 -0.14731078 0.015409159
000250 ed d1 4a bd ec 33 f6 bd 08 09 19 3e 91 95 1c 3e
       -0.049516607 -0.12021622 0.14944851 0.1529143
000260 a1 29 03 3d f0 eb 1c 3e 54 06 82 3d 30 a2 76 3d
       0.032022122 0.15324378 0.06348863 0.060213268
000270 53 85 cf bd c7 63 fc 3d 0d f4 34 3c eb 53 e2 bd
       -0.101328515 0.123237185 0.011044514 -0.11051162
000280 f8 7e 09 3d d0 07 38 be 57 e7 18 be 5e 50 a5 bd
       0.033568352 -0.1797173 -0.14931999 -0.080719694
000290 e2 ac 01 3c 78 5d 5a be e3 9f 29 bc 76 c3 93 3c
       0.007914754 -0.21324718 -0.010353061 0.018037539
0002a0 0b 45 b5 bd 6e d4 26 bc 35 ea f2 bd 96 66 09 be
       -0.088510595 -0.010182483 -0.11861078 -0.1341804
0002b0 24 5b f9 bd c6 1f a7 3d 9d e3 11 be 75 dd 3e 3d
       -0.12175587 0.08160357 -0.14246984 0.046597917
0002c0 42 03 30 bd 7e d9 27 be 22 da 60 be a5 a7 65 3e
       -0.042971857 -0.1639156 -0.21958211 0.22427233
0002d0 c1 54 0f 3e be 7c ee 3d 80 13 9b 3d 18 f9 13 3e
       0.13997175 0.116448864 0.07572079 0.1445049
0002e0 61 54 2d be c1 06 04 3e c6 85 8b 3b 07 08 91 bd
       -0.16926719 0.12893201 0.0042578904 -0.07081609
0002f0 be d6 ec bc 24 57 15 be 11 aa 00 3e e0 c2 58 3d
       -0.02891099 -0.14584023 0.12564875 0.052920222
000300 35 18 5f be 68 fc 7e be c8 27 32 bd e3 af 59 be
       -0.21786578 -0.24900973 -0.04349497 -0.21258502
000310 c2 b2 56 3e 39 17 d2 3d ac b9 66 be da d5 6d 3d
       0.20966628 0.102583356 -0.22531766 0.058065273
000320 12 26 f4 3c ef bd 1a be 78 b1 2f 3e f9 ab 00 3d
       0.02980331 -0.15111516 0.17157543 0.031414006
000330 8e fb b3 3c 51 51 e3 bd 96 79 2f 3d 13 5c 49 bd
       0.021970537 -0.11099494 0.042840563 -0.049160074
000340 68 64 7e be e3 49 ad bd fe a1 e9 3d 05 7f ad bb
       -0.2484299 -0.084613584 0.11407851 -0.005294683
000350 0a 7a b2 bd 49 12 1b be 7d 8b a0 3d 7f 7e 02 be
       -0.08714683 -0.15143694 0.07839105 -0.12743567
000360 f7 0e b5 bc e3 50 77 bd d5 94 8d 3c c8 4a 8d 3d
       -0.022101862 -0.060379874 0.017282883 0.06899029
000370 9f 5f 8f 3d 91 fe 63 bc 7f 95 a7 bd 31 e1 06 be
       0.0700066 -0.013915674 -0.08182811 -0.13171841
000380 11 96 a0 bc d7 b4 6e 3c e6 05 51 3d 80 98 ed bd
       -0.019602807 0.014569483 0.051031016 -0.11601353
000390 cb 98 ed 3d 51 9d 31 be b9 5b 92 bc 57 c6 15 bd
       0.116014086 -0.17345168 -0.017866002 -0.036566105
0003a0 f6 19 29 3e fc f4 5f 3d e6 2c 05 3d 26 53 86 3c
       0.1651381 0.054676995 0.03251352 0.01639707
0003b0 d2 5c 82 3d dd f1 d5 3c 4b a9 e8 bd b1 d4 83 3d
       0.0636536 0.026116306 -0.11360415 0.06437052
0003c0 d9 59 2b bd 8d 0c 48 3e 7c 4a 58 3e 47 42 80 be
       -0.041833732 0.19536038 0.21122164 -0.25050566
0003d0 cd c8 89 bd e5 45 4b bd dc d5 85 3d eb 80 b7 bd
       -0.06727753 -0.049627203 0.06534931 -0.08960136
0003e0 aa 3f 1a bd 4b 2b f6 3b 7c c7 f4 bc a9 84 65 3c
       -0.03765837 0.007512485 -0.029880278 0.014008679
0003f0 87 e2 95 3d 5c f4 5d be 00 38 3b 3e f9 46 4c 3e
       0.07318597 -0.21675247 0.18283081 0.19948949
