pyCode/Autoencoder - 副本/Autoencoder4Window.pth (torch, 95227 bytes, 16 tensors)

encoder.0.weight f4 [128, 4]
000000 09 44 2b 3e 05 05 fc bc e5 ed 15 bd e4 01 4a bf
       0.16725172 -0.030764112 -0.036603827 -0.78909135
000010 da 7b e6 3d 9c fc 26 bc f8 93 89 bd 7f 18 bb be
       0.112540916 -0.010192063 -0.06717676 -0.36542127
000020 25 ed fb 3e 7b 36 df 3b 2f 60 23 be 82 dc 83 3e
       0.49204364 0.0068119145 -0.1595466 0.25754172
000030 53 7f 30 3f 3e dd 80 3e 33 7d dd be 4e 87 25 be
       0.6894428 0.25168794 -0.43259582 -0.16164896
000040 80 c3 59 3b b3 b0 08 3d db c5 a0 bc 09 28 2a 3f
       0.00332281 0.03337164 -0.019625595 0.6646734
000050 8d 8c 8d be e6 1e 48 be 1e 97 70 be 46 70 b5 3e
       -0.27646294 -0.19543037 -0.23495147 0.3543722
000060 a2 eb 30 bd 0f 8e 41 bc 6e cd 98 bc 72 62 18 3f
       -0.043193467 -0.011813655 -0.018652644 0.59525216
000070 d7 16 80 3d a1 d3 26 3d 9b 9d ac bd 92 43 d6 be
       0.06254356 0.04072917 -0.08428498 -0.41848427
000080 e7 34 c6 3c cc 30 42 3e 83 cd 55 bd 45 2f 36 bf
       0.024195148 0.18963927 -0.052197944 -0.7116588
000090 8a c6 42 3b 41 c9 5a bc 0e 80 f5 3c 58 80 b8 bb
       0.002972039 -0.013353647 0.029968288 -0.005630534
0000a0 66 8e 7f 3b 16 e7 0f 3f 2e 7a 06 3f 58 5a f1 bd
       0.0038994788 0.56211984 0.5253018 -0.1178481
0000b0 08 24 4c be 38 c6 8d 3e bc d7 bc 3e c2 ac cd 3d
       -0.1993562 0.2769029 0.36883342 0.100427166
0000c0 39 7e a5 bf 5e b1 b2 bc 62 15 47 bc 40 6d 8b 3d
       -1.2929145 -0.02181309 -0.012151094 0.06807947
0000d0 40 bb 8b 3e ca 5a 34 be 7b 0e d5 3d 56 b6 04 bf
       0.27291298 -0.17612758 0.104031526 -0.5184072
0000e0 76 99 18 be 20 86 89 3e 61 06 fd bb 7e e9 0c 3f
       -0.1490229 0.26860142 -0.0077217077 0.5504378
0000f0 57 09 97 3c 97 4d 93 bc 5f 52 f7 3b 02 cb 00 3d
       0.01843707 -0.017981334 0.007547661 0.031443603
000100 87 22 c0 3c 21 a7 fa bd 46 ae 03 be 73 b3 5a 3f
       0.023453964 -0.122389086 -0.12859449 0.8543007
000110 65 11 e1 3d 66 07 2b bc f1 4f 0a 3d 3f 37 13 be
       0.10989646 -0.010438776 0.033767644 -0.14376543
000120 11 1d 06 be 27 31 bd bd ac 53 4a bd cf a7 81 bf
       -0.13097025 -0.09237891 -0.049396202 -1.0129336
000130 f5 dd 02 3c ab 8a e4 ba 44 57 5e bb 34 1e d1 bb
       0.007987489 -0.0017436346 -0.0033926526 -0.0063817743
000140 8c f8 49 3d f6 b1 dc 3b 8a 73 af bb d3 18 4e bf
       0.0493093 0.006735082 -0.0053543495 -0.8050663
000150 ae da 8c bb eb 2c 8b bd b0 72 18 bd 8b 66 2d bf
       -0.0042985296 -0.06795677 -0.03721875 -0.67734593
000160 20 a5 9a bd 70 eb f0 be b4 95 f9 be 2a ef 90 3f
       -0.07551026 -0.47054625 -0.48747027 1.1322987
000170 24 9c 88 3f 2b b2 37 bc 0e 50 c1 3c 17 ea 9e be
       1.067265 -0.011211912 0.023597743 -0.3103797
000180 17 dd ef be aa d5 77 be 84 35 47 3e 6b 66 cd ba
       -0.46848366 -0.242026 0.19454008 -0.0015670782
000190 34 db cf 3b be b4 73 bd 34 81 f8 bd 52 5d 45 bf
       0.0063432697 -0.05949854 -0.121340185 -0.7709552
0001a0 e3 ee 14 bf 9a 68 8d be 30 b9 32 bf c8 ad 77 bd
       -0.5817701 -0.27618867 -0.69813824 -0.060468465
0001b0 c9 de 11 be 8d 86 c4 bc 09 44 15 bc d7 06 8d bf
       -0.14245142 -0.02398994 -0.009110459 -1.1017712
0001c0 15 25 54 3f 9d 8d 21 3f f1 f1 03 3f 3d e4 5e be
       0.8286908 0.6310671 0.5154105 -0.21766753
0001d0 28 e1 36 3e 18 6e 25 bf cb 9b 39 bf c3 df b3 3d
       0.17859328 -0.64621115 -0.72503346 0.087829135
0001e0 7d 0f f1 3d 27 30 23 3f fc b4 52 3f e2 61 ae 3e
       0.11770532 0.6374535 0.8230741 0.34059054
0001f0 5c 51 e0 be f9 9e 53 3d 81 b6 dc 3e 54 6a 99 3e
       -0.43812072 0.05166528 0.4310799 0.29963934
000200 04 a6 31 be 6a 64 26 bd b6 8f a8 bc 69 92 80 bf
       -0.17348486 -0.040623106 -0.02057634 -1.0044681
000210 79 dc 7c 3c 56 52 f5 bc b4 03 32 3c 33 9f 4f be
       0.015433424 -0.029946487 0.010865141 -0.20275573
000220 01 1a 7d be 2a f0 21 be f6 df 76 bd f3 58 ce 3e
       -0.24716951 -0.15814272 -0.06027218 0.40302238
000230 c9 63 96 3d 3e 13 c6 bd d8 8e cf 3d 1f 2d bb 3e
       0.07343251 -0.09671639 0.10134667 0.36557862
000240 3a d2 99 3d ea 88 aa 3d bc 22 00 be 7c e6 f6 be
       0.07510801 0.083268955 -0.1251325 -0.4822272
000250 7b a4 2a 3e 6a d0 6d be 66 9e 72 be e7 d7 30 3f
       0.16664307 -0.23224035 -0.23693237 0.6907944
000260 49 ad 20 bd 67 fc 33 bf 4b ce 3c bf c6 f9 0a be
       -0.039227758 -0.7030701 -0.7375228 -0.13571844
000270 f9 13 1f 3d ab 6f ac 3c f6 04 2b bd e7 40 0f bf
       0.038837407 0.021049341 -0.041752778 -0.5595841
000280 f2 85 4e 3f 59 a6 6d 3e 4d 1b 30 3e 31 b8 84 be
       0.80673134 0.23207988 0.17197914 -0.25921777
000290 61 88 2b bd 10 90 3f 3c 76 dc 96 3d 86 78 e8 3c
       -0.041878108 0.011692062 0.07366268 0.028377783
0002a0 a1 35 8f be ee ae 6a bd 0e e2 0e 3d 32 39 cd bc
       -0.27970603 -0.057295732 0.03488355 -0.025051687
0002b0 39 49 2d be aa b0 8e bd 97 1d 7b be de 8e 47 3c
       -0.16922463 -0.0696729 -0.24523006 0.012180058
0002c0 b1 b1 40 be 74 79 9f bd e9 3a 8c be c1 c3 bc be
       -0.18817784 -0.07786837 -0.27388695 -0.36868098
0002d0 bc 30 08 bc bd 7e 2e 3d e3 6a 12 3c e7 10 60 3d
       -0.0083124 0.042601336 0.008936617 0.05470362
0002e0 d0 f2 02 be e4 66 38 3d b9 8e 7b 3e 5b a8 cd 3e
       -0.12787938 0.04502 0.24566163 0.40167508
0002f0 45 bd c1 3d 6f ef 7f 3d ea b9 86 bd d4 ac 0b 3f
       0.094599284 0.0624842 -0.06578429 0.5456059
000300 a0 34 1b 3e b9 58 c9 3e 62 52 b0 3e 12 85 ae be
       0.15156794 0.39325503 0.34437853 -0.340859
000310 45 67 79 bb e6 7f f9 3b 25 14 9e bc a8 54 a4 3c
       -0.0038055938 0.0076141236 -0.019296715 0.020059898
000320 19 6d 09 3e c9 d4 5e 3e 96 9a 76 3d 60 3c 2e 3e
       0.13420524 0.21760859 0.06020602 0.17015219
000330 b6 96 6c bf 04 43 84 be 2b eb 48 be ac 85 84 3e
       -0.92417467 -0.2583238 -0.1962096 0.25883234
000340 cd aa 18 bc f4 f4 45 3b 35 73 3f bb 7f 82 b7 3c
       -0.009318066 0.0030205818 -0.0029212956 0.022401093
000350 af 8c a6 3c 9c 16 a7 bb 41 f3 33 bb f0 b6 e7 bc
       0.020330755 -0.005099131 -0.0027458223 -0.028285474
000360 2c 05 89 3e d5 cb b5 3d f4 97 ad 3d 69 07 06 3f
       0.26761758 0.088767685 0.084762484 0.52355057
000370 e4 56 f7 3d 8a 39 4e bf 57 02 90 bd 38 da bd 3d
       0.1207712 -0.8055655 -0.07031696 0.092701375
000380 d9 8b 8e bc 27 e6 41 3e 4a bd 75 bd 41 0c 90 3e
       -0.017400669 0.18935452 -0.059994973 0.2813435
000390 71 f6 b9 3e 0d b7 a5 3e 58 59 7c 3e 47 56 04 3f
       0.36320832 0.3236622 0.24643457 0.5169415
0003a0 93 e1 20 bd 14 f9 ca 3b 64 91 98 bc c8 9d 1d 3d
       -0.039277624 0.006194243 -0.018624015 0.03848055
0003b0 b1 6c 0f 3d ff 33 3e bd 4e 15 9a 3d 83 17 90 bc
       0.035015766 -0.046436306 0.07523595 -0.017589336
0003c0 bf d8 95 bd 04 70 9d bc 5a 6c cc ba f5 cb cc 3d
       -0.07316732 -0.019218452 -0.0015596256 0.09999839
0003d0 eb fd f4 3c 12 30 df bc 88 de 83 3d 62 f2 ec 3d
       0.029906234 -0.027244601 0.06438929 0.11569668
0003e0 0a 83 39 3c 8b 22 20 bd b5 d9 3f ba 89 08 57 bd
       0.011322746 -0.039095443 -0.00073185127 -0.052498374
0003f0 7d 45 8b 3d 06 31 19 be 2e 99 11 be 29 28 68 bf
       0.06800363 -0.14960107 -0.1421859 -0.9068628

encoder.0.bias f4 [128]
000000 fc c2 a3 bb 4a 58 57 be 80 19 2a bd 88 41 83 be
       -0.004997609 -0.21029773 -0.041528225 -0.25635934
000010 32 58 72 bf 8f 01 63 bf 00 b6 68 3f 24 30 2c bf
       -0.94665825 -0.88674253 0.9090271 -0.67260957
000020 3d 27 bc be ab 52 04 be ee 63 a5 be 36 c2 37 bf
       -0.36748686 -0.1292216 -0.32302803 -0.7178072
000030 08 84 c6 bd cc bb c6 be 2c f4 00 3f 46 fb ff bd
       -0.09693152 -0.38815153 0.50372577 -0.124990985
000040 21 94 74 bf bb 2a fd be c4 b9 42 bf 35 2c 05 bd
       -0.95538527 -0.49446663 -0.76064706 -0.032512862
000050 53 27 54 bf b8 96 38 bf bc e7 fe 3d b0 75 a2 3e
       -0.82872504 -0.7210498 0.124465436 0.31730413
000060 39 11 0c bf 53 43 29 bf 14 c7 82 bf 0b 1c 1e bf
       -0.5471378 -0.66118354 -1.0217004 -0.6176154
000070 f6 f9 15 bf 48 c7 51 bf 3c 42 99 bf c0 3f 29 bf
       -0.58584535 -0.81944704 -1.1973338 -0.661129
000080 51 8f 09 bf 5d b6 e8 be 76 50 85 3e 36 8e f0 be
       -0.5373431 -0.45451632 0.2603795 -0.46983498
000090 17 20 1d bf 01 86 e6 be f9 b5 d0 3d fe c7 4d bf
       -0.6137709 -0.45024112 0.101909585 -0.8038329
0000a0 28 a9 26 bf 6a 56 98 be 8f 2e 2a bf d0 45 50 bf
       -0.6510186 -0.2975343 -0.6647729 -0.81356525
0000b0 c0 54 24 3e 9d 6c 41 be 5e a9 6d 3e c7 7d 34 bf
       0.16047955 -0.18889089 0.2320914 -0.7050442
0000c0 f2 00 83 bf 32 da b3 bd 43 10 15 3e 3e d0 e7 be
       -1.0234663 -0.08781852 0.14556985 -0.45276064
0000d0 b9 fa 91 bd 7c a4 d5 bd 6f 5b 12 bf 6e fc 14 bf
       -0.071279 -0.104317635 -0.57170767 -0.5819768
0000e0 ca 2e d6 be b9 f0 4b be 1e bd 34 be 4f 93 93 be
       -0.41832572 -0.19916047 -0.17650267 -0.28823325
0000f0 71 16 b5 be 45 a8 cd be c1 a8 33 be 42 fa 5b bf
       -0.35368684 -0.40167442 -0.17544843 -0.8592874
000100 32 b5 4a bf 82 17 4d bf 52 c7 60 bf c5 55 08 bf
       -0.7918273 -0.80113995 -0.8780414 -0.53255874
000110 c2 30 79 bf 97 4d cb 3e eb 25 95 3f 8a 6f 06 bf
       -0.97340024 0.39707634 1.1652197 -0.52513945
000120 aa c9 33 bf df cd 1c bf 9e dc 6c bf 36 90 2e 3e
       -0.7022959 -0.61251634 -0.92524135 0.170472
000130 a2 7e 2b 3f 90 d6 49 bf 37 c4 07 3e 10 07 35 bf
       0.669901 -0.7884302 0.13258444 -0.707139
000140 1b 42 49 bf 1f 58 cc bc 28 39 46 3e 1b d3 06 bf
       -0.78616494 -0.024944363 0.19357741 -0.5266587
000150 f8 2c 75 bf d0 34 d4 be 28 d6 8b be 92 c1 a4 bf
       -0.9577174 -0.41446543 -0.27311826 -1.2871573
000160 e9 64 39 bf e3 b8 ed 3e cc 31 6e bf 07 70 b6 bd
       -0.724196 0.4643012 -0.93044734 -0.08908086
000170 45 e1 9b 3e 81 15 bb be da 29 0f bf d5 25 1f be
       0.30445305 -0.36539844 -0.55923235 -0.15541776
000180 07 79 7c be e9 98 82 be 71 b4 b7 bd 44 1f 84 be
       -0.24655543 -0.25507286 -0.08969963 -0.25805104
000190 8e e3 00 3f 1c 50 36 bf cf d4 e1 be 16 3a 63 bf
       0.5034722 -0.7121599 -0.44107673 -0.8876051
0001a0 4b a9 9d bd 64 50 f5 be 58 be 3b bf 5b 8c 9e be
       -0.07698306 -0.47912896 -0.73337317 -0.30966458
0001b0 e4 44 7e bf 62 41 50 bf 53 34 6f bf 20 a1 73 be
       -0.9932387 -0.81349766 -0.93439215 -0.23791933
0001c0 68 ec 16 bf 5d 64 30 be 7d 3c 82 3e 47 7a 7d be
       -0.5895448 -0.17225786 0.25436774 -0.24753676
0001d0 03 8a 44 bf b0 e9 a4 be be b0 19 be 76 0b 3b bf
       -0.7677309 -0.3220954 -0.15008828 -0.73064363
0001e0 d4 d8 7f bd 7e ab 5e bf 46 e6 66 3e 54 3a 62 bf
       -0.062462643 -0.86980426 0.2254878 -0.8837025
0001f0 7d e3 95 3c 6a 99 89 bd 68 9d 10 be 32 f6 47 3c
       0.018296951 -0.067187145 -0.14122546 0.012204694

encoder.2.weight f4 [64, 128]
000000 53 67 a2 3c 1b 5f 52 bd 38 be 6f be cd de 0e be
       0.01982466 -0.05136023 -0.23412406 -0.13952179
000010 74 61 fb be 70 1c f4 bc bd 34 ba bb 26 83 16 c0
       -0.49097788 -0.029798716 -0.0056825564 -2.3517547
000020 dc c6 a4 3c a6 94 aa 3d c4 a5 10 bf 29 98 da 3e
       0.020114355 0.08329134 -0.5650294 0.42694214
000030 c1 ff c2 c0 eb e2 3f 3d e9 d0 49 3e 52 52 04 ba
       -6.09372 0.046847265 0.19708599 -0.0005047667
000040 8f cf ea be fc 2d 98 bc 3a ab a4 bf 1d 1e d8 3c
       -0.4586148 -0.018576615 -1.2864754 0.026381547
000050 89 34 d2 bf 17 0a 7e be 5a 20 7d bf b5 f4 dd bc
       -1.6422282 -0.24808536 -0.9887749 -0.027094224
000060 ae d5 a7 be dd e0 14 bf df 6a f0 bb e0 00 bd bf
       -0.32780212 -0.58155614 -0.007336959 -1.4765892
000070 8c e3 06 3f 94 71 cc be 9a 63 8d be af 23 cc 3d
       0.5269096 -0.39930403 -0.27615052 0.099677436
000080 b1 a1 30 bf d0 38 a2 bd b4 e8 b9 be 7d 3b 6c be
       -0.6899672 -0.079209924 -0.3631035 -0.23069568
000090 1f 76 63 bf 77 c8 46 bf 84 99 24 c0 a6 5b 09 bf
       -0.88852113 -0.77649635 -2.5718699 -0.5365547
0000a0 e4 11 9d 3e 24 9a 1f 3f a3 6d 39 bd 12 54 fc be
       0.30677712 0.62344575 -0.045270573 -0.4928289
0000b0 25 0a f9 bc 2c 72 b5 bc 0f 3f ae 3e a8 53 6a 3e
       -0.030400345 -0.022149168 0.34032485 0.22883475
0000c0 a1 70 0b bf 4a df 24 be bc 91 2a 3e d2 f0 1c c0
       -0.54468733 -0.16100803 0.16657156 -2.4521985
0000d0 5b d5 2d 3e 89 e3 0f bd 45 18 6a bd ab 8d b0 bf
       0.1697592 -0.035129104 -0.05715205 -1.3793234
0000e0 a8 76 a2 3e e9 fd 20 3e 9b 5a c7 3d d5 96 3e 3d
       0.31731153 0.15721859 0.097340785 0.046530563
0000f0 85 0d a1 3d fa 2c d8 bc 36 43 b8 3b 61 cc 79 bf
       0.07863907 -0.026388634 0.0056232465 -0.9757748
000100 b0 17 80 3e 41 b8 7f bd 24 d8 33 bf 2b c9 3b bd
       0.25018072 -0.062431578 -0.7025168 -0.045846146
000110 57 15 5f bf 1a 2a b9 3e 86 f9 24 3e a6 9e 90 be
       -0.87141937 0.36164933 0.1611081 -0.2824604
000120 0e cf 16 be c1 63 5a bf bf 77 1f 40 dc ee e7 3e
       -0.14727423 -0.8530846 2.4916837 0.45299423
000130 d0 bb 32 be 19 41 00 be a1 03 50 c0 2f 03 8e 3e
       -0.17454457 -0.12524833 -3.2502215 0.27736804
000140 a3 21 90 3e ef df ba 3b ce 2e 4b be 2d ff eb 3e
       0.28150663 0.0057029645 -0.19842073 0.4609312
000150 15 24 dc 3f ad c7 0b 3e 56 fd 4c bf 0f 42 0e 3c
       1.7198511 0.13650389 -0.8007406 0.008682742
000160 15 14 2b be ef 2e b1 3e 0c c2 77 bf 15 cf 7f bd
       -0.1670688 0.3460612 -0.9678047 -0.06245335
000170 05 10 37 3f 60 26 89 3e d4 7e 11 c0 b9 63 94 3e
       0.7150882 0.2678709 -2.273366 0.28982332
000180 f8 72 e2 be d2 27 45 bc c7 fc 0c bc eb 91 e8 bf
       -0.4422834 -0.01203342 -0.008605189 -1.8169531
000190 03 d1 89 bc ea 1a 20 bf e7 75 39 3e d0 b6 2c bf
       -0.016823297 -0.6254107 0.18111382 -0.6746645
0001a0 d2 40 64 3c 6b 19 ec 3e c5 db 51 c0 df 3d 2c bd
       0.01393147 0.46113142 -3.2790387 -0.042051192
0001b0 e0 5e 22 bf 3b e1 20 bf ec 3d 1d be fe 0e d9 bd
       -0.6342602 -0.62843674 -0.15355653 -0.10598563
0001c0 c7 d6 2e 3e 23 94 ac bb 1c ca cc 3e ab 10 b6 bd
       0.17074119 -0.0052666827 0.39997947 -0.08889898
0001d0 04 74 54 bf e9 8d 90 3e b2 59 a0 bf 12 39 22 be
       -0.82989526 0.2823327 -1.2527373 -0.15842083
0001e0 b7 cb a5 bb cf 91 57 bf e6 5a 47 3e 85 ae db be
       -0.005059685 -0.8420686 0.19468269 -0.42906585
0001f0 7e ee 1a 3e 54 40 f8 be 4b dd 1a be d3 25 94 bd
       0.1513004 -0.48486578 -0.15123479 -0.07233777
000200 a8 06 8c 3e 1b 74 54 3d 64 e2 b4 bd ee 67 1c be
       0.27348828 0.05186854 -0.08832243 -0.15274021
000210 f3 29 ca bf e7 39 2e be 92 f5 8c 3d df c9 60 bf
       -1.5794052 -0.17014275 0.06882776 -0.8780803
000220 e4 b7 36 bd f5 89 92 3d 17 77 9c bf 21 31 75 3e
       -0.044608966 0.071552195 -1.2223843 0.23944522
000230 5c dc ba c0 96 0d 4d 3d 3a 7e 31 3e 7c 0e 82 3d
       -5.8393993 0.050061785 0.17333308 0.06350419
000240 69 ca 05 be 3a 6f f8 be 24 1e 0d bd 0d f1 ba 3d
       -0.13065495 -0.4852236 -0.034452572 0.09128008
000250 9b e6 f8 bd f0 ee 86 be ab 2f 07 be 8a 43 77 bd
       -0.121533595 -0.2635417 -0.13201778 -0.060367145
000260 a5 af 1b 3f 4b bf 20 3d c9 54 8b 3c 09 d5 fd 3d
       0.6081489 0.03924493 0.017008202 0.12394149
000270 73 b7 02 3f ed c8 90 bd a6 92 3f 3f ea 93 88 3f
       0.5106117 -0.070695736 0.7483314 1.067014
000280 ae a1 cc 3d 5f 2c 83 bd b3 c3 8c 3e c3 1e 49 be
       0.099917755 -0.064049475 0.27493057 -0.19640641
000290 5b 77 98 be b3 be 21 c0 72 07 df bf cc fb 06 bb
       -0.2977856 -2.5272644 -1.7424147 -0.002059686
0002a0 a8 9b 02 3f 97 6b 82 be 67 56 3f be ed 1f ca be
       0.5101876 -0.2547271 -0.18685304 -0.39477482
0002b0 2e 81 b3 be 7b c5 a1 3e 33 a8 b4 3d e8 04 c9 bf
       -0.35059494 0.31595978 0.08821144 -1.5704622
0002c0 86 91 c5 3b 55 5f b4 3c 9c 32 43 3d fa 3a eb bf
       0.0060293106 0.022018114 0.047655687 -1.8377373
0002d0 03 68 cb 3d 08 aa a4 3c 11 b1 96 bf e7 aa 5c bf
       0.09931948 0.020100608 -1.1772786 -0.86198276
0002e0 91 8d 8d 3e 08 79 79 3e bc d6 c6 bd ea 69 9a be
       0.2764707 0.24362576 -0.09708926 -0.3015893
0002f0 ff 4a 5f 3e f4 31 e7 bb 51 4b ec bd 5f 6d de 3c
       0.21805952 -0.0070555154 -0.11537803 0.027151762
000300 2f 22 2e be 74 26 3c bd 98 c1 89 bf e8 ef f3 be
       -0.17005228 -0.04593511 -1.0762205 -0.4764397
000310 98 db 89 bd ef 72 8b 3c 11 53 d3 3d d2 a6 96 be
       -0.06731337 0.017022578 0.10318578 -0.2942415
000320 94 45 6f 3e 8a cd 8d be 5a 08 91 3f 0a 7a 83 bd
       0.23366386 -0.27695876 1.1330674 -0.064197615
000330 f0 bc 41 bd 7c f4 93 bf 4a e5 03 c0 77 7f 2c bd
       -0.047299325 -1.1558986 -2.0608697 -0.042113747
000340 d1 33 67 bd b8 d0 84 37 48 22 96 3e ed 3a c8 3e
       -0.0564459 1.5832818e-05 0.2932303 0.39107457
000350 a0 9d 8c 3f da 5a be bc e7 9d c2 bf 67 41 4f bd
       1.0985603 -0.02323668 -1.5204438 -0.050599482
000360 9b f9 1a bd 16 5f 68 3e f0 41 03 3e 21 eb 76 bd
       -0.0378357 0.22692522 0.12818122 -0.06028283
000370 a7 62 eb 3e 29 bb 52 3e 52 6c fc bc 0d 04 23 3e
       0.45973703 0.20579208 -0.03081337 0.15919514
000380 98 b4 37 bf 8c ec 46 3e 96 e0 cb 3d b6 50 90 bf
       -0.7175994 0.19426173 0.09954946 -1.1274631
000390 8a 81 e5 bc 66 4f d8 be 67 b4 bc 3e c0 b3 35 3e
       -0.02801587 -0.42248076 0.36856386 0.1774435
0003a0 a3 6c 06 3f b4 08 e1 bf a8 2d dc 3d 51 37 dc bd
       0.52509516 -1.7580781 0.10750896 -0.10752738
0003b0 cb 69 8c bf fa fc 68 c0 96 48 c4 bf 82 d1 42 bf
       -1.0969785 -3.6404405 -1.5334651 -0.76100934
0003c0 fc 3e d4 bf 88 97 97 bd 56 ff 9d 3e a2 4c bf be
       -1.6581721 -0.07401949 0.30858868 -0.37363154
0003d0 58 52 bc bf 97 ca 37 3c 17 ca 70 c0 50 47 97 c0
       -1.4712629 0.011217735 -3.7623346 -4.727455
0003e0 39 7b e0 3d 37 c3 b2 bc 6c 09 8c 3e 86 c4 9a bf
       0.10961003 -0.021821601 0.27350938 -1.2091224
0003f0 80 2c e0 3e e6 c1 6c c0 ee 01 3e bc 65 d9 77 3e
       0.4378395 -3.6993346 -0.01159714 0.24204023

encoder.2.bias f4 [64]
000000 45 f9 05 3e fe 7c 85 bd 36 3b e2 3d b2 e7 a6 bd
       0.1308337 -0.06517981 0.1104645 -0.08149661
000010 ac 2d 51 bf 98 1f 06 be b4 c8 60 be 6e e0 02 3d
       -0.81710315 -0.1309799 -0.21951562 0.031952314
000020 d2 d1 3f 3d a4 2a 3a 3e f4 c7 e0 be 3e 46 99 bc
       0.04683096 0.18180329 -0.43902552 -0.018710252
000030 a8 10 21 ba 62 23 63 be c1 d1 26 bf a8 39 27 bf
       -0.00061441446 -0.22181466 -0.6516381 -0.6532235
000040 f8 c8 14 bf da 0b 8f bd f2 c4 98 bd 31 ed 00 3f
       -0.58119154 -0.069846824 -0.07459439 0.50361925
000050 7b 25 96 bd cf 87 e3 bd 04 59 ca 3d 54 9e fa bb
       -0.073313676 -0.11109888 0.0988026 -0.0076482687
000060 b3 e2 b6 be 2b 58 cb be d2 00 0b 3e 83 96 2e bd
       -0.35719833 -0.39715704 0.13574532 -0.042624008
000070 e1 65 41 bd f9 ca a7 bd d2 65 9a be c8 76 55 bf
       -0.0472163 -0.08193011 -0.30155808 -0.8338437
000080 05 da 12 bf 3f 9b ed bd 2d 9d 10 bd f1 42 d6 be
       -0.5736392 -0.116018765 -0.035306145 -0.41847947
000090 48 25 6c bd 31 0e 9c bd 6f 7c 21 be 17 ad 16 3e
       -0.05765274 -0.07619894 -0.15770124 0.14714466
0000a0 e8 a8 84 3e 27 a8 89 bd bd 8c 4d bd 5a 30 07 bf
       0.25910115 -0.06721526 -0.050183047 -0.52808154
0000b0 69 5d b6 3e c0 02 36 bf ef f7 10 3b 1b 04 f1 38
       0.3561814 -0.71097946 0.0022120436 0.0001149254
0000c0 b2 ac 3b bd e6 cd f9 bd 42 dc 0e 3d 15 9a 59 be
       -0.045818992 -0.12197475 0.034878023 -0.21250184
0000d0 2b 18 86 be 1a 11 07 bd 3f fa 74 bf 82 7b 4d be
       -0.26190314 -0.032975294 -0.95694345 -0.20066646
0000e0 82 ee 1f be 07 04 56 3e 42 01 21 bf c1 4c 62 3e
       -0.15618327 0.20899974 -0.62892544 0.22099592
0000f0 21 16 82 3d c8 9e 82 3e 87 2a 71 bf 36 b4 fc be
       0.06351877 0.25511765 -0.94205517 -0.4935624

encoder.4.weight f4 [32, 64]
000000 d7 ff 8b 3e 15 14 44 3f 34 83 93 bd 80 88 51 bd
       0.27343628 0.7659314 -0.072027594 -0.051155567
000010 cd 9c 97 be 80 54 34 3d 07 0b b5 3d 10 3d 34 bc
       -0.29611817 0.044025898 0.08839994 -0.011000887
000020 a6 ff 24 3e 49 8f 1f bf 1e 88 a2 3d 62 10 f8 bc
       0.16113147 -0.6232801 0.079361185 -0.03028125
000030 84 22 63 3e 5e 34 e5 be bc 95 10 bf 99 73 03 bd
       0.22181135 -0.44766515 -0.56478477 -0.032092664
000040 fa 42 65 bd 85 95 bc 3d 2f 8d f1 bd 18 4c a3 bf
       -0.055972077 0.09208206 -0.11794507 -1.2757597
000050 b1 8d 56 bf 7c a3 a3 3d cd 92 74 be 78 83 e1 bd
       -0.83809954 0.079901665 -0.23884125 -0.11011404
000060 76 e5 4f bf b4 d6 a0 3d 40 d0 82 bd 20 5b af 3b
       -0.81209505 0.07853451 -0.06387377 0.005351439
000070 77 6e b1 3d 67 06 00 3f d3 04 1c c0 06 75 28 3e
       0.086636476 0.5000977 -2.4377944 0.16450891
000080 46 93 bb be 73 3b ea be 7b 65 b5 be 5f a8 1d bf
       -0.36635798 -0.4574848 -0.35428986 -0.6158504
000090 f0 3a b8 bd f8 62 62 3b 71 68 13 bf d8 4d 6b be
       -0.089956164 0.0034543853 -0.5758124 -0.22978914
0000a0 b1 7d ad be e6 b1 25 be 4c 95 e3 bd d5 70 35 3f
       -0.33884957 -0.16181144 -0.111124605 0.70875293
0000b0 17 05 3c 3d 37 d9 b2 3d fb 81 10 bd 02 80 6a 3d
       0.04590329 0.08732837 -0.03528021 0.057250984
0000c0 d7 a0 4a 3d 57 cb 8e bd c5 3d d4 3e 96 a2 7a bd
       0.049469795 -0.06972378 0.41453376 -0.06119021
0000d0 5c 70 ba bd 5e a7 f0 bf d7 02 b3 3d 2f 56 c7 3d
       -0.09103462 -1.8801076 0.08740776 0.09733235
0000e0 4d fd 96 be 94 92 0e 3e c0 74 a1 3f 02 18 b5 bd
       -0.29490128 0.13923103 1.2613754 -0.0884247
0000f0 3d e1 60 bd 55 ff 24 3e 31 b8 07 3d ac ea 8f bc
       -0.054902304 0.16113026 0.033134643 -0.017567955
000100 87 26 b6 bf a6 e5 2a be 45 98 11 be 20 94 0b 3b
       -1.4230508 -0.16689166 -0.14218242 0.0021298006
000110 46 5a 29 bf 30 16 7c bc 85 14 a9 bd a0 ab 05 bd
       -0.6615337 -0.015386149 -0.08255867 -0.032634377
000120 ed bc 9c be 57 cb f3 3e 6b 34 8c be 80 7f b0 bd
       -0.3061289 0.47616073 -0.27383742 -0.08618069
000130 9d 28 a3 3c 32 05 42 be 14 19 de bc ad 04 51 3f
       0.019916827 -0.18947294 -0.027111568 0.8164776
000140 2e 9f bc bd 1b 95 0f bd ed bf e4 bc 1a 88 d6 be
       -0.092100486 -0.035054307 -0.027923549 -0.41900712
000150 05 47 29 3e 23 ed 43 bc 55 f6 13 3e 4c e5 39 c0
       0.16530998 -0.011958393 0.14449437 -2.9046202
000160 60 cd 41 3b 0c 96 3b 3e a5 9d b3 3e ac c2 c7 3d
       0.0029571876 0.18318957 0.3508121 0.097539276
000170 d0 37 64 bd 25 d0 29 3b f3 2e c7 bb 4e 84 84 3e
       -0.05571729 0.0025911417 -0.006078595 0.2588219
000180 29 1e b1 3f a4 3b 25 3b ca 53 e9 3c 51 90 96 3e
       1.3837329 0.002521255 0.028482337 0.2940698
000190 68 d5 0c 3d 94 df 34 be 10 c8 31 bd 0b 41 a8 3e
       0.034383208 -0.17663413 -0.043403685 0.32862124
0001a0 79 48 af 3d 91 14 2c 3d 24 a0 9e 3e f3 d3 2c 3d
       0.08558745 0.0420118 0.30981553 0.042194318
0001b0 51 6e 81 3e eb a1 88 3e 07 e1 01 3d b1 c7 c2 bc
       0.25279477 0.26686034 0.031708743 -0.02377686
0001c0 22 69 9e 3d d1 4a 20 3d e9 73 d4 3d f7 84 c1 3d
       0.07734896 0.03913385 0.103736706 0.09449189
0001d0 8d b5 85 be b8 d7 0e 3c d6 f5 78 bd 8c bb e3 3e
       -0.26115075 0.008718424 -0.060781322 0.44479024
0001e0 27 ef 01 3d db 60 a7 bc 3a 1e 06 3d d6 ed 8c be
       0.031722214 -0.020431926 0.03274367 -0.27525204
0001f0 f8 40 a5 3e 5d 47 ab be c4 e7 72 3e 7b 5d ab bd
       0.3227613 -0.33452883 0.23721224 -0.08367439
000200 79 19 ed bf ae ae 66 be 6d 36 1e be 7a 38 9f 3d
       -1.8523399 -0.22527573 -0.1545045 0.07774444
000210 7f 67 2f 3f 28 72 09 3d 97 b3 27 3e ae 9b e8 3d
       0.685173 0.033556134 0.16377102 0.113578185
000220 98 58 2a be f3 98 fb bc f3 d4 4e bd 16 49 90 bd
       -0.16635358 -0.03071258 -0.050496053 -0.0704519
000230 55 1c 01 bf a3 cf 6c 3e 54 d7 15 c0 3e bf e1 be
       -0.50433856 0.23126082 -2.3412676 -0.4409122
000240 b0 47 fe bd d3 79 b7 bd 80 4b fa 3b ed 70 6c bd
       -0.12416017 -0.08958783 0.007638395 -0.057724882
000250 9c 1e 66 be e8 7e dc bc e8 62 e8 3d 2f ff 80 c0
       -0.22472614 -0.026915982 0.1134699 -4.0311503
000260 11 ef 43 bc 90 bc 4f be e7 59 5f be 5c da 94 3d
       -0.011958853 -0.20286775 -0.21811639 0.07268211
000270 70 01 46 bd 00 8b 9d be 4e 7c 40 3f 4b a2 30 be
       -0.048341215 -0.3077011 0.75189674 -0.1724941
000280 cf f9 3e be 64 e2 5f 3c 96 6c 97 bd 8e 3b 02 3e
       -0.18649982 0.013664816 -0.07393758 0.12718031
000290 52 3c f5 3d a0 f6 3c be 0c 16 4e 3e d9 f5 b5 be
       0.11974396 -0.18453455 0.20125598 -0.3553913
0002a0 4a 21 16 be 05 63 1d 3e 2e 28 9b 3a ba 13 a6 bc
       -0.14661136 0.15369804 0.0011837536 -0.020273078
0002b0 e9 b1 9d 3e 25 51 c2 3c e7 66 aa 3d e2 a0 82 3d
       0.30799797 0.023720333 0.08320408 0.06378342
0002c0 01 92 20 bc c2 23 60 3d 69 9f 0a bf 51 7e 27 be
       -0.009800435 0.0547216 -0.5414949 -0.1635678
0002d0 b8 b6 e2 bd ba 57 dd 3d ad 4e 5d 3f b8 ac b9 be
       -0.11070007 0.10807748 0.86448175 -0.36264586
0002e0 a4 4a 04 be 77 c4 f5 3d f9 3f bb be 2c 44 02 3f
       -0.12919098 0.12000363 -0.36572245 0.5088527
0002f0 b8 da 7a be 13 43 43 3e 8d 5a 3c bd 48 5a 13 bf
       -0.24497497 0.19068556 -0.045984793 -0.57559633
000300 5c 05 c0 3e eb b5 61 bd ae 73 38 3e 9e 91 62 bc
       0.3750409 -0.05510513 0.18012878 -0.013828663
000310 90 ad 5a 3f d0 1f 1f 3c 68 19 db be 00 f6 62 bc
       0.85421085 0.009712175 -0.4279282 -0.013852596
000320 c0 cb 29 be 80 de 01 3e dd 30 4f 3e e9 02 d0 bd
       -0.1658163 0.12682533 0.20233484 -0.10156805
000330 ca 52 86 bc 61 82 f9 bd c5 ba 63 be 91 07 2b be
       -0.016396899 -0.12183071 -0.22239216 -0.16702105
000340 b6 ee 4d bd e4 ef ab bd 8b 46 e6 bc 11 29 27 bf
       -0.05027648 -0.08395365 -0.02810981 -0.6529704
000350 03 66 8a 3b 28 45 b8 3c dc 93 72 be 26 a6 52 be
       0.0042235865 0.022493914 -0.23689216 -0.20571193
000360 ef eb f8 bc 68 15 be bd b1 26 19 be 05 bc d4 3d
       -0.03038594 -0.09281427 -0.14956166 0.103874244
000370 07 00 47 3b b6 8f a0 3d 6b 3b f9 3e e6 b2 a6 3c
       0.0030365007 0.07839911 0.48678145 0.020348977
000380 76 7d aa 3e a2 e9 f8 3b 14 71 fb 3d b6 e1 95 be
       0.33298844 0.0075962106 0.12277427 -0.29273766
000390 01 cb b0 3d e3 9d d2 bd 92 44 07 bd 2d 53 be 3d
       0.0863247 -0.10284021 -0.033024378 0.09293208
0003a0 81 eb d6 bd ad ab 0a 3e 48 48 8a 3e 0a 08 93 be
       -0.104941376 0.13542052 0.2700827 -0.2871707
0003b0 52 c3 58 bd d6 71 8f be bb ee ad bd 49 06 ee bd
       -0.052920647 -0.28016537 -0.084928 -0.116222925
0003c0 49 c1 bf 3d 5d 2c c8 bd 20 93 61 3f 9b 94 f3 bd
       0.09363038 -0.097740866 0.8811512 -0.118935786
0003d0 e8 49 02 3e 51 e9 53 3f d4 b8 13 be da bd 07 be
       0.12723505 0.8277789 -0.14425975 -0.13256016
0003e0 99 be 9b bd bb e9 d0 3c cb 8e 2f be 69 a3 e9 be
       -0.07604713 0.025502076 -0.17144315 -0.45632485
0003f0 c4 59 e1 3e 27 37 e1 3d be 31 5d bf 29 2b 4c 3f
       0.44013798 0.109968476 -0.86404026 0.7975336

encoder.4.bias f4 [32]
000000 b4 10 40 be 02 f2 43 be 5f 25 16 bf 74 f2 ff be
       -0.18756372 -0.19135287 -0.58650774 -0.49989665
000010 8c b3 ea 3e d1 4d 7e 3e 20 6d eb be 65 87 b9 be
       0.45840108 0.24834372 -0.45981693 -0.3623611
000020 4a 74 10 3d 53 1e a5 be f5 79 9a bd 16 82 dc be
       0.035267152 -0.32249698 -0.07542793 -0.43067998
000030 79 98 38 3d 46 15 93 be b5 22 19 bf 36 e9 7e 3e
       0.045067284 -0.28727168 -0.59818584 0.2489365
000040 97 5f 8e bf 1d e2 89 bf 8c 42 6c be 95 01 07 be
       -1.1122922 -1.0772129 -0.2307226 -0.13184197
000050 2b 75 b4 be 4b 7c 33 3f 33 51 12 be 69 37 a9 3d
       -0.35245642 0.7011153 -0.14288788 0.08262522
000060 7d 76 16 3f 68 37 26 be 95 36 14 3f 02 9b 31 bf
       0.5877455 -0.16232073 0.57895786 -0.6937715
000070 03 19 b5 be 45 77 d8 be 7c 8d 12 be a0 95 f9 3e
       -0.35370645 -0.42278495 -0.14311785 0.48746967

encoder.6.weight f4 [8, 32]
000000 10 55 ee bd 3e 77 54 3e 14 d8 ca be 59 92 4c be
       -0.11637318 0.20748612 -0.3961798 -0.19977702
000010 19 ee e0 3d 02 97 99 3e 25 14 0a 3d 93 8c bb 3d
       0.109829135 0.29998022 0.033710618 0.09157672
000020 7f 01 b5 be f0 98 10 3d b5 05 15 bd 10 5c 58 3d
       -0.35352704 0.035302103 -0.036382396 0.052822173
000030 26 d1 ba be 08 fc 9b be e2 3e 4b 3e e4 49 ce bd
       -0.36487693 -0.30465722 0.19848207 -0.10072687
000040 1b ff 53 be 02 c1 fb bc e0 e4 e8 3d 26 53 f9 3c
       -0.20702784 -0.030731682 0.113717794 0.030435156
000050 ee 40 ec bd fb 67 65 be f9 03 38 3e e1 1c 56 3e
       -0.11535822 -0.22402947 0.17970265 0.20909454
000060 b4 f3 09 be c9 16 f2 bc 9f 7f 8b bc aa 3c 67 bf
       -0.13471872 -0.02955188 -0.017028628 -0.9032694
000070 ed 15 d6 bd 35 b2 e0 bc 96 58 fd bd 0b 1f ea bd
       -0.10453401 -0.027428726 -0.12370412 -0.11431702
000080 9c 6b 29 be c3 ce 4b be b4 e9 d8 3e e0 1d 44 be
       -0.16544956 -0.19903092 0.423658 -0.19152021
000090 bb f2 65 3e 5f 84 1e be d2 b6 11 3e a1 52 7c be
       0.22455876 -0.15480183 0.14229897 -0.24640895
0000a0 75 3a 99 bd 09 ef 16 3e 2e cc 73 be 78 15 ac 3d
       -0.07481853 0.14739622 -0.23808357 0.08402532
0000b0 0d 68 fa bc 95 c4 24 3d f6 d2 c4 be e6 bd 20 be
       -0.030567193 0.040226538 -0.384422 -0.1569744
0000c0 7c 5b f2 bc 35 d8 94 be 34 e3 f8 bc 63 3a b2 3d
       -0.029584639 -0.29071203 -0.030381776 0.08702543
0000d0 c2 8e 8a 3e e6 ff d5 3e 1c 43 82 bd a9 02 d4 3d
       0.2706204 0.41796798 -0.06360456 0.1035207
0000e0 46 32 0a 3e ac ab 87 3d 77 40 f9 3e 0f 66 7e be
       0.1349574 0.06624541 0.48681995 -0.2484362
0000f0 83 56 70 3d 19 fc bf 3c 9a 00 a7 3e 95 65 34 be
       0.058676254 0.02343564 0.32617646 -0.17616875
000100 98 ab 4b be 81 0f 8a 3e 58 79 bf bc f8 f7 01 3e
       -0.19889677 0.26964954 -0.02337329 0.12692249
000110 5d 52 01 be 81 23 49 bd 9e 01 26 be cd 50 36 3e
       -0.12629075 -0.049106125 -0.16211554 0.1780426
000120 20 17 24 3e 22 7e 9b be 8f b6 6d 3e 88 6e ef 3b
       0.16024446 -0.3036967 0.23214172 0.0073068775
000130 71 35 5e bd dc 80 92 be f7 f7 2d be f1 6d 93 3e
       -0.054250184 -0.28613937 -0.16989122 0.28794816
000140 a7 0f 7f 3d 80 74 9f 3d 89 76 1b 3e 9a 6c e4 bd
       0.062270787 0.077858925 0.15181936 -0.111535266
000150 91 8b c7 bd e6 57 75 be ed 05 d1 bd 75 72 12 3e
       -0.09743417 -0.23959312 -0.102062084 0.14301474
000160 94 5d e5 be 42 d1 3a bd 24 ce d6 be 27 15 8a be
       -0.44797957 -0.04560972 -0.41954148 -0.26969263
000170 47 81 2c be 1a ce cf 3b 20 89 b0 3e 92 3e b3 be
       -0.1684619 0.006341708 0.34479618 -0.35008675
000180 88 c3 2f 3e 15 39 cb 3e a9 c7 61 3d c4 82 ce bd
       0.17164433 0.39691988 0.05512205 -0.10083535
000190 b7 bc 31 be 6f fa 56 bd d7 4a 54 be 00 49 fd bd
       -0.17357145 -0.052484926 -0.20731674 -0.12367439
0001a0 78 5f 22 be 29 ef 16 bb 4c 25 b8 bd c8 8f 65 be
       -0.15856731 -0.0023030734 -0.08991489 -0.2241813
0001b0 37 95 5b 3c af 7d d5 3e 00 4d a9 3e 85 20 98 3d
       0.013402275 0.4169745 0.3306656 0.074280776
0001c0 14 42 be bb 25 ea c4 bd d6 04 ca 3c dd 0d 93 3c
       -0.005806217 -0.09614972 0.02466051 0.017950946
0001d0 8e 93 b8 3d a5 4e 7b 3e b0 d8 84 be 30 32 3c be
       0.09012519 0.2454172 -0.2594657 -0.1837852
0001e0 2e 59 7c 3e d2 dc 4c 3e 4b af 6a 3e b6 9c 19 3f
       0.24643394 0.20006111 0.22918431 0.60004747
0001f0 a2 c0 e5 bd 85 fb 00 3e a9 24 39 be f5 0a 9f 3e
       -0.112183824 0.12595947 -0.18080391 0.31063047
000200 77 c1 74 bd 62 96 07 be 80 ef cf be 2f 52 eb ba
       -0.059754815 -0.1324096 -0.40612411 -0.001795357
000210 cd 53 28 3e c7 b0 0e 3d 75 db b6 be 3e 8d 90 be
       0.16438217 0.034836557 -0.35714307 -0.2823276
000220 40 0c e4 3d ba c0 53 3e 1f ce 78 bd a9 35 15 3d
       0.11135149 0.20678988 -0.060743447 0.036428127
000230 8d 86 2d bd fd ef c1 be 60 51 c7 bd de a6 a0 3d
       -0.042364646 -0.3787841 -0.09732318 0.078443274
000240 65 97 94 be 69 31 93 3e c1 69 87 3c dc d2 0f be
       -0.29021755 0.28748634 0.01652992 -0.1404528
000250 62 bd df bd 0b 2e a1 3e 22 ec 7a bc 72 17 03 3e
       -0.10924794 0.3148044 -0.0153150875 0.12801912
000260 86 4b e8 3d 09 53 9e bd f9 db 15 3e 6b 1a 41 bf
       0.1134253 -0.077306814 0.14634694 -0.75430936
000270 73 42 9e be da c4 38 bf 43 75 a2 3c 2c 22 3e be
       -0.30910072 -0.7217537 0.019831305 -0.18567723
000280 90 d7 c2 3e 32 fd 70 3e 87 7a 70 bc 86 a4 a7 bd
       0.38055086 0.23534086 -0.01467765 -0.08185677
000290 4c f6 ad 3d c2 71 94 3e ec 11 9e bd 45 c6 0c 3c
       0.08494243 0.2899304 -0.07718262 0.008592193
0002a0 ae 4e 97 bb 00 6e 78 3e 2f 78 46 3c 4e 13 67 3d
       -0.0046175336 0.24260712 0.012113615 0.056414895
0002b0 d7 15 1b be 68 5c 0d 3f cc fd 3c be e2 6c cf 3c
       -0.1514505 0.55219126 -0.18456191 0.025320474
0002c0 45 4c b0 3d 9d bd 9f 3e 84 70 47 be 1b 5c 32 be
       0.08608297 0.3119935 -0.19476515 -0.17417948
0002d0 a4 5c ca bc 0b e3 36 bd 00 2f 1b 3d 4b 12 05 3e
       -0.024702378 -0.04465012 0.03788662 0.1299526
0002e0 65 18 8a 3d a7 4b 07 3b 90 87 16 be 28 35 f0 3d
       0.06742934 0.0020644458 -0.1470015 0.11728889
0002f0 2b a3 59 3e c8 0a eb 3e 63 d8 66 3e 5a 7f 6b be
       0.2125365 0.45906663 0.22543482 -0.229978
000300 7c 08 19 bf 43 c8 c8 3d 9b 8b bf bc 68 5b 5a 3e
       -0.5977857 0.09803822 -0.023381999 0.21323931
000310 03 bb 15 be 06 2a d8 bd f6 fa 9a 3d 17 4a 0d be
       -0.1462212 -0.1055489 0.07567398 -0.13797794
000320 3e fd ab 3e ba 70 9e bd b1 7d 18 be d2 02 26 3e
       0.33591646 -0.07736345 -0.14891697 0.16212013
000330 6f 54 45 3e 11 90 e8 be fe 8f 81 bd 85 b9 62 3e
       0.1927049 -0.45422414 -0.063262925 0.22141083
000340 d1 0c ec 3d 4e 46 a5 bd f7 1b 92 3e 88 6f 1e be
       0.11525882 -0.0807005 0.2853696 -0.15472233
000350 8f c4 4b 3e dc ef a2 3c 92 df 8d 3e cb 34 c1 be
       0.198992 0.019889764 0.27709633 -0.3773559
000360 39 87 48 be c4 f0 86 bc 62 61 67 be f9 3e 10 be
       -0.19582833 -0.016472228 -0.22595742 -0.14086522
000370 00 0c 78 bd 3b 55 4e be 5a 20 39 3b d8 38 08 3e
       -0.06055832 -0.201497 0.0028248043 0.13302934
000380 6f 61 9f bd 90 c1 81 bc 10 2b 05 bf 65 8a 7c 3e
       -0.07782256 -0.015839368 -0.52018833 0.24662168
000390 72 48 22 be c6 5c c7 3d b8 c6 5d 3e 37 13 d4 3d
       -0.15847948 0.09734492 0.21657836 0.103552274
0003a0 a2 3d aa be cd 74 bc 3d d9 f5 77 be c3 98 c0 be
       -0.33250147 0.092019655 -0.24214877 -0.37616548
0003b0 10 be 3d bd 12 85 fe be 36 0d 32 be 03 32 9e 3d
       -0.046323836 -0.497109 -0.17387852 0.07724383
0003c0 22 19 f5 be 13 7e 02 3e 48 1a 25 be 2c 14 f4 3c
       -0.47870737 0.12743406 -0.16123307 0.029794775
0003d0 0e 46 88 3e eb 4c c7 be 62 43 d9 bd 6a 13 d6 be
       0.26615947 -0.3892587 -0.106085554 -0.41811687
0003e0 d2 a6 9b be b7 42 95 bd ae 57 f1 be 2d d9 ca bd
       -0.3040071 -0.072881155 -0.47137207 -0.09904704
0003f0 9f 2f b0 be 93 7d 89 be 7e 4f c4 3d 7c 69 7a be
       -0.34411332 -0.26853618 0.095854744 -0.24454302

encoder.6.bias f4 [8]
000000 f5 2b e9 3e 18 5f 30 bb d2 d2 c3 bc 85 ec b2 3e
       0.4554135 -0.002691215 -0.023904238 0.34946075
000010 b2 24 31 3f f3 76 cf be 66 50 63 be 9a d8 84 3e
       0.6919662 -0.4052044 -0.22198638 0.25946504

decoder.0.weight f4 [32, 8]
000000 0d 91 5b 3c da 76 82 be ee fe ab 3e bb 19 5d bd
       0.013401282 -0.25481302 0.33592933 -0.053979617
000010 01 20 b7 bd 4a 92 53 be 5a 02 69 bd 3c 42 6c 3d
       -0.08941651 -0.20661274 -0.05688701 0.057680354
000020 35 f0 11 3f 7f b2 db bd 44 ac 27 3d c9 89 0a 3f
       0.5700715 -0.10727405 0.04093577 0.54116493
000030 e3 c5 34 3f 7f 72 01 bc 55 5c 5b bd 95 fd 15 3e
       0.7061445 -0.007900833 -0.05355485 0.14647515
000040 3a 1b c0 3e 5f 1e 89 3e 58 86 54 3e 80 6f 67 3d
       0.37520772 0.26780984 0.20754373 0.05650282
000050 6d 9b 9d 3d 75 14 9b bd 95 22 e1 3e bf d3 89 be
       0.07695661 -0.07572261 0.43971696 -0.26919362
000060 27 fe a7 3e f7 c2 cf bd 6b 46 b9 3d b5 d1 4c 3f
       0.3281109 -0.101446085 0.09046634 0.8000749
000070 bb fb a5 3d 2a c0 7c 3c 30 d2 c2 3d 04 c4 3c 3e
       0.081046544 0.015426675 0.09512746 0.18434149
000080 26 2a 52 bd a7 03 a2 bd f5 ec 81 bd 2a 14 e5 bd
       -0.051309727 -0.07910853 -0.06344024 -0.111854866
000090 4b 95 5d 3c bc 4f 3d bd a3 3d 88 be 9d 97 ec 3d
       0.013524364 -0.04621862 -0.26609525 0.115523554
0000a0 cd c4 ee bc 32 86 da bd b8 f0 a2 3e f6 82 bb 3e
       -0.029146576 -0.10670127 0.3182428 0.36623353
0000b0 84 ec 9c be cd ef 19 bb 27 8d 57 3d 97 65 1b 3e
       -0.30649197 -0.002348888 0.052624848 0.15175472
0000c0 89 b0 26 bf c8 39 d7 3e 02 1d 07 be d0 ee 3d 3e
       -0.6511312 0.4203627 -0.1319466 0.18548131
0000d0 ca fa 18 3f 1a f2 7c be 92 62 44 bd 24 05 3c be
       0.59757674 -0.2470173 -0.047945566 -0.18361336
0000e0 eb b7 58 3e 8e ed 18 3e f6 e0 d4 3e 2f a6 4f bd
       0.21163909 0.1493437 0.41577882 -0.050695594
0000f0 62 c0 3a 3e 8b 55 3f 3d b4 1b 35 3e 80 f2 c8 3e
       0.1823745 0.04671244 0.17686349 0.39247513
000100 d0 30 31 be d1 60 a7 3d fe ad ae 3c c9 95 7c bd
       -0.17303777 0.08172763 0.0213232 -0.061666284
000110 62 de d7 3e b6 7a 27 be eb 5e 3e be bc 80 3e 3e
       0.42161852 -0.16355404 -0.18590896 0.18603796
000120 da d3 06 be 7b 9f c7 3e ac 79 f1 be 16 07 06 bf
       -0.13166752 0.3898886 -0.4716314 -0.5235456
000130 f5 63 ad 3e ac e1 d9 bd 4e 53 18 3e f1 66 a5 be
       0.33865324 -0.106387466 0.14875528 -0.323051
000140 79 2e 3a bc 5b 9f 15 3e b7 50 8c 3e 31 12 10 bf
       -0.011363619 0.1461157 0.2740533 -0.5627776
000150 d9 42 6c 3e 6a 0e 12 be 41 b7 79 bd 88 ab 87 3d
       0.23072375 -0.14263311 -0.06096578 0.06624514
000160 ce 5b 02 3e e9 3f 2e 3f 06 f6 91 be 7c 2f 60 3e
       0.12730333 0.6806627 -0.28508013 0.21893114
000170 ae 27 9a 3e 59 3d 03 bd d4 3e 22 3c d6 59 b7 3e
       0.30108398 -0.032040928 0.009902675 0.35810727
000180 25 35 a4 be 30 ba 56 be 54 7f 71 3e df 47 51 bd
       -0.32071796 -0.20969462 0.23583728 -0.051093932
000190 71 c4 ae 3e 6c c2 3b bd 83 ec f4 3d cc 08 89 be
       0.34134248 -0.045839712 0.119591735 -0.26764524
0001a0 8d 7a bd be 3a 54 dc bd 30 e7 67 bc 0b 12 b2 3e
       -0.3700756 -0.107582524 -0.0141542405 0.3477939
0001b0 45 86 9d 3e 2a 11 24 bf 3c e2 89 be 00 fe f4 3d
       0.30766502 -0.6408869 -0.26930416 0.11962509
0001c0 a0 18 40 be 3a 04 ad be 03 c2 4e 3a 0e 51 91 be
       -0.18759394 -0.33792287 0.00078871864 -0.28382152
0001d0 f4 30 9a 3e 54 7f 9e be df 1a 87 be e3 23 b4 bd
       0.30115473 -0.3095652 -0.2638769 -0.08795907
0001e0 f9 6a 37 3d aa c7 27 3e 80 98 bd 3e e3 88 1e bd
       0.04477975 0.1638476 0.3703041 -0.038704764
0001f0 22 b1 45 3e 9c c8 e0 3e 1a 13 ce bd 7d 8b 79 3e
       0.19305852 0.43903053 -0.10062237 0.24369617
000200 85 37 18 3f be 0a b6 be b5 16 bc bd ae f5 b8 bd
       0.59459716 -0.3555507 -0.091840185 -0.09031235
000210 59 03 cd 3d c4 04 12 be eb 77 be 3d dd 54 d9 3e
       0.10010404 -0.1425963 0.09300216 0.42447558
000220 4b f2 92 bd cf b2 6c 3d 2f 4d 65 3d 1e 98 17 bd
       -0.0717512 0.057787713 0.05598181 -0.037010305
000230 f6 e3 ef 3c b3 43 e8 bc fa 8e ca be 63 3c f7 3e
       0.029283505 -0.028352594 -0.39562207 0.4828826
000240 5e ce 12 3e 3f 23 bb 3b ba 8c 59 be d7 54 80 be
       0.14336535 0.005710989 -0.21245089 -0.25064728
000250 c9 cb aa be 07 49 3b be 09 63 35 bd 22 77 02 3e
       -0.333586 -0.18289576 -0.0442839 0.12740758
000260 eb 18 3b 3e 27 5c 75 bb 52 1e b4 3d 93 a2 77 3d
       0.18271224 -0.003743896 0.08794846 0.060457777
000270 8d 83 a7 3e ba 67 0f 3c 19 cb db bd 1b ca 33 3d
       0.32717553 0.008752758 -0.10732097 0.043893915
000280 e9 f5 99 3e cf fc ec bd 5e e7 32 be 77 bf 56 3e
       0.30070427 -0.11571657 -0.17471072 0.20971476
000290 83 db 05 3c 2b c9 d0 3e 70 c9 85 be e8 91 94 bd
       0.008170011 0.4077848 -0.26130247 -0.07254392
0002a0 2b 54 c6 3e bb d8 a0 bd 4a da ce 3d 9f b4 26 bd
       0.3873609 -0.07853838 0.10100229 -0.040699597
0002b0 5b 30 ef bd f4 e8 8c 3e 55 d6 68 bd f0 cb b5 3d
       -0.11679145 0.2752148 -0.056845028 0.088767886
0002c0 85 5b c1 be 27 7c d0 bd 21 86 8e bd cb 4e 3b be
       -0.37765136 -0.1017993 -0.06959177 -0.18291776
0002d0 ad 98 50 3e 67 70 85 be a9 7e a4 bd e6 17 bc 3e
       0.20370741 -0.2606232 -0.08031971 0.36736983
0002e0 f8 e5 8d be ef a6 4c 3e 9e a7 21 3e 43 73 34 be
       -0.27714515 0.19985555 0.15786597 -0.17622094
0002f0 ae f4 c9 be 64 22 80 3e c8 81 60 37 91 c4 cb bd
       -0.39444488 0.25026238 1.33816575e-05 -0.099496014
000300 63 58 91 bd 25 df 99 3e 72 ec 80 3e 61 61 88 3e
       -0.070969366 0.30053058 0.25180393 0.26636794
000310 ad 6c eb 3e 12 83 94 3e 48 f4 b2 3d 2c 0c 43 3e
       0.4598135 0.2900625 0.08737999 0.19047612
000320 0c d4 bb 3c 5e ef 30 be 8f 17 6d 3e 07 f0 d6 3e
       0.02292826 -0.17278811 0.23153518 0.4198
000330 47 4f 2a 3f 9c 2c 5b 3d 4d 0b 4d bd d5 29 14 be
       0.6652722 0.05350934 -0.050059605 -0.14469083
000340 c5 a1 a2 3e ea 28 27 be f3 17 8d be 7b c1 15 3e
       0.31764045 -0.16324201 -0.27557334 0.14624588
000350 c5 93 ea bd f5 c2 05 bf ea c8 f1 3d 35 72 64 be
       -0.11453966 -0.52250606 0.118058994 -0.22309192
000360 84 e2 7f be 50 76 7f 3e 4a 1e bc be 24 c2 d5 bd
       -0.24988753 0.24947476 -0.3674186 -0.1043742
000370 88 73 a6 3d b5 61 18 3e 01 2b 52 3d 86 12 b5 3e
       0.081275046 0.14881022 0.051310543 0.35365695
000380 24 58 82 3e 61 a8 0e 3e e2 47 8e 3d 3a 1e 79 be
       0.2545787 0.13931419 0.06947304 -0.24327937
000390 3a 2d 5e 3d ae 4a d2 be 94 97 c0 be 90 23 a5 be
       0.05424235 -0.410726 -0.37615645 -0.32253695
0003a0 63 38 8c 3d 16 b9 9e 3e ed 26 02 be 5e 47 d6 3b
       0.068466924 0.31000584 -0.12710162 0.0065392694
0003b0 e0 38 ed bb 0b 60 20 be 54 62 d5 3d 45 b1 34 3e
       -0.007239446 -0.15661637 0.10419145 0.17645748
0003c0 49 46 94 3d 81 21 87 be 13 1e 34 be ed 9c 84 3e
       0.07239968 -0.2639275 -0.17589597 0.25900975
0003d0 0e e1 8f be cb bc 22 be a8 8f de bc 6a 35 2a 3c
       -0.2810139 -0.15892331 -0.02716811 0.0103887115
0003e0 46 dc 04 3f 8d 08 67 3c 32 16 c8 3d 8e ac 78 be
       0.5189861 0.01410116 0.097698584 -0.24284574
0003f0 96 fa 02 3f 8a 50 b4 3c 0e ce c9 bd 9b 2b b6 be
       0.51163614 0.02201106 -0.09853755 -0.35580143

decoder.0.bias f4 [32]
000000 b1 a9 1e 3c 23 44 44 bd c0 9f de be 99 d6 e9 be
       0.009684012 -0.047916543 -0.43481255 -0.45671538
000010 b1 00 30 bc 94 da 10 bf 17 ac 8d bb 07 99 cc bd
       -0.010742352 -0.56583524 -0.004323493 -0.09990125
000020 d7 67 1a 3e ac 90 2b bf 90 10 00 3e f8 ba 5f be
       0.15078674 -0.67017627 0.12506318 -0.21848667
000030 f1 b2 8c bd a4 c8 2d bf c4 33 04 3e 30 89 cf be
       -0.06870068 -0.6788428 0.12910372 -0.40534353
000040 c2 73 98 be c7 e9 00 be 4e 9d 12 bf 1c 07 40 3f
       -0.29775816 -0.12589179 -0.5727128 0.7501085
000050 19 85 e1 be e5 a2 af bd 88 61 2d 3d 18 85 61 bf
       -0.44046858 -0.085759915 0.04232934 -0.8809371
000060 c5 e3 a2 3e 95 69 33 bf 06 1d c2 be 59 52 c0 be
       0.318144 -0.7008298 -0.37912768 -0.37562826
000070 0c 6b d3 bd 02 5f 88 3e 43 73 75 bf bf bb b4 be
       -0.10323152 0.26634985 -0.95879 -0.3529949

decoder.2.weight f4 [64, 32]
000000 c2 f1 18 be 41 ee 7a be fa 57 cc be a2 b5 61 bf
       -0.14935973 -0.24504949 -0.3991087 -0.88167775
000010 56 c2 94 3e 66 6d 00 3f df 22 95 3d 53 54 01 bf
       0.29054517 0.5016693 0.07282042 -0.50519294
000020 ae c6 75 bf 81 fb 83 be 28 70 f8 3e 4c e3 a0 be
       -0.96006286 -0.2577782 0.48523068 -0.31423414
000030 ef e8 10 3e bb a7 48 be 62 0a 33 bf de b8 fe be
       0.14151357 -0.19595234 -0.6993772 -0.49750417
000040 ec 85 a8 3e 74 67 a1 3e c6 0d 3d bc 5e 65 11 be
       0.32914674 0.3152424 -0.011538928 -0.14198825
000050 f7 6d e5 3d 55 72 19 bf 45 24 94 3d 54 ef 9d be
       0.11202615 -0.5994008 0.0723348 -0.30846655
000060 e7 cf f7 be 18 f0 0d be a6 3f f1 bf e3 4f 74 3e
       -0.48400804 -0.1386112 -1.8847549 0.238586
000070 74 dd 6b bf 27 c7 55 3e 49 81 88 3e bf d6 a8 bd
       -0.92134786 0.20876752 0.26661137 -0.082440846
000080 9d 6b 0e 3d 77 6b d2 be 3d c7 c7 be ec ff 11 bf
       0.034770597 -0.41097614 -0.39019194 -0.5703113
000090 6b 82 75 3e 44 dd 20 bd ed 73 a6 3e 97 66 a3 3e
       0.23975532 -0.039273515 0.3251032 0.31914207
0000a0 f9 73 13 3f a4 10 d4 be 1f 6a 53 bd e9 a5 c0 3e
       0.57598835 -0.41418946 -0.051614877 0.3762658
0000b0 99 bb 8a bd 08 1e d0 3d 85 e5 9c be 86 80 8e 3e
       -0.06774063 0.10161978 -0.3064386 0.2783243
0000c0 7d 57 3b bf 5c d5 7d 3e f9 4e 83 3d cb a0 c7 be
       -0.7318037 0.24788421 0.06411547 -0.38989863
0000d0 38 3b 82 be 81 0c 0a be 2e b1 0b be 98 99 71 3e
       -0.25435805 -0.13481332 -0.13641807 0.23593748
0000e0 00 cf a3 3e 81 f5 0a 3f b6 3d 88 3d 91 c5 c7 3e
       0.31993866 0.5428086 0.066523954 0.3901792
0000f0 00 2a 8a bd a7 5e 3b be a5 78 6b 3e 90 d1 f3 3d
       -0.06746292 -0.18297826 0.22995241 0.11905205
000100 ef a9 f5 3e 38 3e e1 3e de 0f 5c be 33 23 60 3e
       0.47981212 0.43992782 -0.21490428 0.21888427
000110 0d 3a 57 bd f4 a8 2a 3e 2e 9e 45 be 50 4f 16 3e
       -0.052545596 0.16666013 -0.19298622 0.14678693
000120 37 9e 40 3e 85 8c 87 3d 25 5e 0c 3f 2f af 0e 3f
       0.18810354 0.06618599 0.54831153 0.5573606
000130 0e 71 3c 3b 55 13 4a 3e 18 25 24 3d f2 32 a9 bd
       0.002875391 0.19733937 0.040074438 -0.0826167
000140 b7 a8 7e bf d9 97 32 3e 73 a8 0b bf 67 3f 36 bd
       -0.9947619 0.17440738 -0.5455391 -0.04449406
000150 c9 52 e9 be e1 b0 f0 3d 29 de 59 be b3 86 4f 3e
       -0.45570973 0.11752487 -0.21276154 0.20266227
000160 f2 a3 2a bf 6b 2d 1a 3f 07 85 94 be 46 97 4b be
       -0.6665641 0.6022555 -0.29007742 -0.19881925
000170 d5 cb 90 bf 91 69 31 bf 3d 68 be be b4 87 91 bd
       -1.1312205 -0.69301707 -0.37188902 -0.071059614
000180 cd 91 cd bd 19 73 3f 3e f7 ef ef bd 02 43 ac 3d
       -0.10037575 0.1869625 -0.117156915 0.08411218
000190 f9 6d a5 3d 29 87 61 3e d0 56 83 bf 79 1c ac 3e
       0.08077616 0.22024216 -1.0260868 0.33615473
0001a0 40 3f a1 be e8 a3 e8 bd 24 c7 d6 bf ce 78 0f 3f
       -0.31493568 -0.11359388 -1.6779523 0.5604371
0001b0 e3 4d d6 bf d8 d9 e7 bd fc c1 f1 bc e4 43 a9 bf
       -1.6742519 -0.11320847 -0.029511444 -1.3223844
0001c0 10 a9 9d bf c4 0d 4e 3d f7 e3 70 3e ac 59 99 be
       -1.2317219 0.050306097 0.23524462 -0.29951227
0001d0 86 dc 17 bf 0b 8e 48 be 7c 80 8c bd a0 68 b6 3e
       -0.5932087 -0.19585435 -0.06860444 0.35626698
0001e0 2a 1d b7 be d5 e1 44 3e 76 dc 55 3e 5f 01 06 bc
       -0.35764438 0.19226773 0.2088488 -0.008179038
0001f0 91 0b 08 3e 5b 36 a1 be 56 d6 cf 3e ef 7e 83 3e
       0.13285662 -0.31486782 0.40593213 0.2568278
000200 d7 42 d6 bc 26 46 0b 3e 26 0e a9 bd b4 3b 92 bf
       -0.026154919 0.13600978 -0.08254652 -1.142447
000210 16 07 e9 bd 37 bf 99 3e 35 6f d3 3e 2c 88 87 be
       -0.11378305 0.30028698 0.41295782 -0.26471078
000220 9c 4d bb 3b 21 7c b3 be 15 9b 51 bf f5 77 8b 3d
       0.005716039 -0.3505564 -0.8187726 0.06809989
000230 d7 89 60 bf cf 1c 20 be 6d e1 a7 3d 9f ad 05 3e
       -0.87710327 -0.1563599 0.081972934 0.13054512
000240 12 68 39 bd 5b f8 04 be f9 c8 57 3e 0e 7a 54 3e
       -0.045265265 -0.12985365 0.21072759 0.20749685
000250 46 55 2f bf 70 2b 13 be a8 4a 0b be b1 73 82 3e
       -0.6848949 -0.14372039 -0.13602698 0.2547889
000260 91 47 fd 3e d6 18 50 bf eb 36 d3 3d c1 0d 8d bd
       0.49468663 -0.81287897 0.10313209 -0.06887389
000270 7a 80 c4 3d c1 63 b0 3d 48 df df 3b ac fb 1f bb
       0.095948175 0.086127765 0.006832037 -0.0024411483
000280 32 e1 91 be 45 e6 95 bd 95 85 10 be ce 71 0b bf
       -0.28492123 -0.07319311 -0.14113458 -0.5447053
000290 bd da 90 3d d5 cd 4a bf a0 50 e0 3e 68 71 01 bf
       0.07072971 -0.79220325 0.43811512 -0.5056367
0002a0 9f a8 47 3e 0f c9 4b be 5e 2c c6 bd 4a de a3 bd
       0.19497918 -0.19900917 -0.09676431 -0.08001383
0002b0 1e 28 15 3f 8d 0e 2e be 43 ab 81 bd 5a ea 06 be
       0.5826434 -0.16997738 -0.06331494 -0.13175336
0002c0 51 89 16 bf 24 58 a3 be f6 82 e3 be 0d be 6b 3d
       -0.5880328 -0.31903183 -0.44435853 0.057554293
0002d0 2b 50 a7 bd c9 aa 65 bf a1 fe cb bb e3 ba 6a be
       -0.08169588 -0.8971372 -0.0062254225 -0.22922854
0002e0 97 c8 68 3d e1 e9 0d 3f db 6c de 3d 9c a3 71 3e
       0.056831922 0.55434996 0.10860606 0.23597568
0002f0 7e 88 b6 3d cd 43 d0 3c 17 e3 b9 be 5f 0f 03 3e
       0.089127526 0.025422955 -0.36306068 0.12798832
000300 6c 99 a7 3d 91 10 32 be 85 02 1a be 9e df b8 3d
       0.0818356 -0.17389132 -0.15040024 0.090270266
000310 7e 51 11 be 15 e2 5f 3d 52 88 82 bd 4c bc f1 bd
       -0.14191243 0.054658968 -0.06373657 -0.11803493
000320 6c 11 c7 3d 2c 50 8c 3d b9 34 2a be 82 0b 36 be
       0.0972012 0.06851229 -0.16621675 -0.17777827
000330 b2 40 bf bc a1 f5 d0 3a e6 dd 90 3d 4c 1c 9a 3d
       -0.023346279 0.0015942344 0.07073574 0.075249285
000340 b0 ed f2 bd 12 3c f6 bd 49 f9 f7 bd 66 92 99 3d
       -0.118617415 -0.12023176 -0.12108094 0.074986264
000350 01 88 e6 bd 55 5f d9 bc a6 1d 04 3d de 04 5e bd
       -0.112564094 -0.026534716 0.032254837 -0.05420386
000360 37 5f 04 be 71 21 07 be 96 4e 98 3d 03 1a 29 be
       -0.12926947 -0.1319635 0.07436864 -0.16513829
000370 16 49 0c bd 62 b5 0c be 47 c8 eb bd 27 14 20 be
       -0.034249388 -0.13741067 -0.11512809 -0.15632688
000380 a9 79 04 3e 73 3b 14 bf b3 bf c0 3e ce ea 1a 3e
       0.12937035 -0.5790321 0.37646255 0.15128633
000390 ce f9 40 3e 61 a6 26 3e 68 5d 98 bf 78 48 1b be
       0.18845293 0.16274406 -1.1903505 -0.15164363
0003a0 2b 9e 37 be 5d 04 70 be 30 cc 90 be d3 a8 f7 be
       -0.1793143 -0.23439164 -0.28280783 -0.4837099
0003b0 1d ee 6d bf 7e e8 f7 bd 79 87 e8 3e b0 3c 43 bf
       -0.9294146 -0.12104891 0.45415857 -0.76264477
0003c0 0c 4e 46 3c a1 1e 39 bc 0d a6 ca bd 61 c5 55 bf
       0.012103569 -0.011298806 -0.09894953 -0.835043
0003d0 b7 76 8a be 8b 58 a5 3d 75 97 da bd fb 23 ab 3e
       -0.27043697 0.08073529 -0.106734194 0.33425888
0003e0 9a d8 b5 3e 09 a4 00 be 42 75 9e be 8d 63 97 bf
       0.35516816 -0.12562574 -0.30948836 -1.1827255
0003f0 64 ff be bd a5 a1 5d be e5 16 35 be 16 7a ab bd
       -0.09326056 -0.21643694 -0.17684515 -0.083728954
