pyCode/Autoencoder - 副本/Autoencoder4HighFreMoredata.pth (torch, 94941 bytes, 16 tensors)

encoder.0.weight f4 [128, 4]
00000000: 82f0 d73e db95 bbbe eb28 e63d 1c69 5bbe
00000010: 6555 993e 1c34 3d3e d8ae 8d3e f859 cbbe
00000020: d514 ff3e b3ec 8dbe 2d55 c8bc 3291 873e
00000030: 3b90 92be d319 cc3d 2307 283f 15ed a7be
00000040: c1f9 3dbd 5349 0e3e 1d39 9bbd 905a b73d
00000050: e0f2 18bd a3a4 e93e 3d0c d23e db13 d63e
00000060: f6ce 9b3e cbb2 e0bd c07e 003f 1bc0 a1be
00000070: c6a1 c5be cbef ebbd e96d 76be c00c aebe
00000080: 3f11 72be f7aa 413d 3e9d 69be dc73 e0bd
00000090: 9218 23bf e84f a73c 4fef 82be 5ded bb3e
000000a0: c0e3 1dbf c576 08bf 1e4a 84bd 40af 9dbd
000000b0: 1a25 20bf 3267 3dbd d940 07bf b6ea 6dbe
000000c0: d1f9 df3e 7842 ebbe 9c51 ffbe ad75 853d
000000d0: 2c0d c93e e586 b13e 1cfd d83d f1fe 71be
000000e0: 7fec 6bbd 3069 0dbf 5800 85be 6eb7 e03e
000000f0: 29d6 6ebe b823 ee3e 7188 5ebe fc41 bcbe
00000100: 6090 a43e db33 0d3e ee07 da3e 9d6e 8f3e
00000110: 5ff5 0d3e 68d6 613e fe72 7dbe 5eb5 99be
00000120: adce f5bd a293 b2be e156 64bd 2f00 dcbe
00000130: 4169 d93d 26ac 68be 296b d2bd 82b9 813e
00000140: 5475 683e 8a48 07bf cd1d 7cbe 8b35 c6be
00000150: 9e8b 113d aca3 e13c 4e16 b1bc a634 adbc
00000160: cd40 203f 6a06 ed3d 6188 fe3e 6920 1f3c
00000170: 8369 cabe 643e ab3e 6777 04bf fa7d 0fbe
00000180: 192f 043f 7055 a43d 00bb 0b3e 1867 f43e
00000190: 75e3 5f3e 3c53 cf3b 13c3 a13e f337 c6be
000001a0: ac22 493d 27a7 9dbe 2914 0abf 05ff 1d3e
000001b0: fa04 fdbe 9a77 8ebe 15cb 98be 8b9b a43c
000001c0: 2415 233e c6a6 5abd 2e06 5c3e 546b f4ba
000001d0: cb30 0cbf 9513 7fbe a82e bbbe 35a5 e23e
000001e0: 8851 a33e 2371 74be 6993 dabe 8bb0 d7be
000001f0: 00ba de3d 3d68 39be 4653 a53d b0d3 b53e
00000200: 43fe f8be e268 dbbe 4a82 223f acff f93e
00000210: d9b6 8fbe 744a 0bbf 866f 12bd 3d36 bb3c
00000220: fb78 f0bc 4a1e b8be 4e74 cf3e 91e2 b7be
00000230: e11e f3bd c29a 48be eb0b 093f c5b2 883e
00000240: a6d5 7dbe 7496 903e 2acb 623e a5aa b23e
00000250: 76ee 75be 5efa 06bf 9414 f7bb 2142 0abf
00000260: b8ec e43d 2ae4 bebd d55f f03e 1d94 0cbe
00000270: ac45 dfbe d559 af3c 34bf 053e 076a 7e3e
00000280: 2cec 12bf 011f afbd 7351 96be d195 de3e
00000290: 5f9e e93d 3f54 fabe 3498 b0be b334 423e
000002a0: 2f9d 8dbe da75 2fbf 636c e6be 2c49 2c3c
000002b0: 7522 13bf 05c5 96bd f1cb dcbe 3c1c cebe
000002c0: dc27 a43e b403 f1bd fb79 a83e c008 0ebd
000002d0: 8127 0dbe edb9 023f dbf6 b73e c4ef 4dbe
000002e0: f7b3 6dbe 3dcd 0dbf 04ba 4f3e 98ed 3d3e
000002f0: cd14 6f3e 7ac8 173e 833b 9b3b debe 88be
00000300: e87a bc3e e108 24be fe93 ebbe 8131 493c
00000310: 080d d5be e486 ad3e 56c3 0c3f 74c2 b2be
00000320: dfe6 e7bc 0b11 303e 707f 36be 6cb7 dcbe
00000330: b06a a43d 6a56 1c3e 8de3 ae3e 638c a5bd
00000340: 86ca 0fbf 9d08 06bf c34e 3abe 8597 5a3e
00000350: d694 27be 2975 09bf 508c 26be df81 a43d
00000360: 7171 53be 16ed adbd 16c9 86bc f1d6 c5be
00000370: ea9a e63e 1664 823d 3ee3 9b3e 5839 e43d
00000380: b479 c53e 0cd2 00bf d276 eb3d 59b9 d03e
00000390: 65f9 9c3e 1266 c9be 9768 c6be bcbc d93d
000003a0: 45e6 de3e 0c62 073f 1b97 debd 11d5 9cbd
000003b0: 5757 31be 6d2b 913e 2fda 71be 21c4 9cbd
000003c0: 6a54 703e 624c b93e 3f0e 803c 9fc7 1b3e
000003d0: d115 843e b450 593e 83e3 33bc 84a4 0abd
000003e0: 0c0a c4be 352f f8be e6fe 633e cf1c 01be
000003f0: 569c d03e b922 1cbf c316 86bd 03d7 843e
0.4217568 -0.36637768 0.11238273 -0.21426815 0.29947963 0.1847691 0.27672458 -0.39717078
0.4982058 -0.2771965 -0.024454677 0.26477963 -0.28625664 0.09965863 0.6563589 -0.32798067
-0.046380762 0.13895158 -0.07579253 0.0895282 -0.037341 0.4563342 0.41024962 0.41812024
0.30431336 -0.10971602 0.50193405 -0.31591877 -0.38599986 -0.11520346 -0.24065365 -0.33994102
-0.23639391 0.047282185 -0.2281389 -0.109595984 -0.63709366 0.020423844 -0.25573203 0.3670453
-0.61675644 -0.5330623 -0.06459449 -0.07699442 -0.6255661 -0.046240993 -0.52833325 -0.23234066
0.43745282 -0.4594915 -0.4986695 0.065165855 0.39267862 0.3467323 0.10595152 -0.23632409
-0.057598587 -0.5523863 -0.25976825 0.43889946 -0.23323883 0.46511626 -0.21731736 -0.36769092
0.321414 0.13789313 0.42584175 0.2801408 0.13863133 0.22054446 -0.24750897 -0.30021185
-0.12002311 -0.3487826 -0.055746917 -0.4296889 0.10615779 -0.2272192 -0.102743454 0.25336844
0.22701007 -0.5284506 -0.24620743 -0.38712725 0.03553354 0.027543865 -0.021617081 -0.021143269
0.6259888 0.11573489 0.49713424 0.009712317 -0.39533624 0.33446038 -0.51744694 -0.140129
0.51634365 0.080241084 0.13645554 0.47734904 0.21864112 0.006327061 0.31594142 -0.3871456
0.04910533 -0.3079159 -0.5393701 0.15429313 -0.4941786 -0.27825624 -0.2984244 0.0200937
0.15926033 -0.053381704 0.21486732 -0.0018647709 -0.5476195 -0.24909814 -0.36559033 0.44266668
0.3189814 -0.23871283 -0.4269059 -0.4212688 0.108753204 -0.1810617 0.08072524 0.35513067
-0.48631486 -0.42853457 0.63480055 0.48827875 -0.2806919 -0.5441048 -0.03575089 0.022853011
-0.029354563 -0.3596061 0.4051842 -0.35915044 -0.11871124 -0.19590285 0.5353381 0.2669889
-0.24788532 0.28239787 0.22147813 0.34895816 -0.24016747 -0.5272578 -0.007540295 -0.54007155
0.11177963 -0.093208626 0.46948114 -0.13728376 -0.43607843 0.02140514 0.1306122 0.24845134
-0.5739162 -0.085508354 -0.29359016 0.43473676 0.1140716 -0.488924 -0.34491122 0.18965416
-0.27658984 -0.685392 -0.45004568 0.010515492 -0.5747445 -0.07361797 -0.43124345 -0.40255916
0.3206166 -0.117682844 0.32905564 -0.034676313 -0.13784601 0.5106495 0.35930523 -0.20110995
-0.23213182 -0.55391294 0.20285803 0.18547666 0.23347779 0.1482257 0.004737319 -0.2670812
0.3681252 -0.16019012 -0.46011347 0.012279869 -0.41611505 0.33891976 0.5498556 -0.3491398
-0.02830833 0.17194001 -0.17822051 -0.4310869 0.080281615 0.1526734 0.34157982 -0.08083417
-0.561684 -0.5235689 -0.18194108 0.21346863 -0.1636537 -0.536944 -0.16264462 0.080325834
-0.20648743 -0.08492486 -0.016453307 -0.3864055 0.45040065 0.06366746 0.3044681 0.1114375
0.38569415 -0.50320506 0.114972726 0.4076641 0.30659023 -0.39335686 -0.3875167 0.10631701
0.43535057 0.5288398 -0.10868665 -0.07657827 -0.17318474 0.28353444 -0.23618387 -0.07654596
0.23469701 0.36191088 0.015631793 0.15212868 0.25797895 0.21222192 -0.010979536 -0.0338483
-0.38288915 -0.48473516 0.22265205 -0.12608646 0.40744275 -0.6099048 -0.0654731 0.2594529

encoder.0.bias f4 [128]
00000000: 59e1 bfbe 2e6e 88be 3f2a f1be 7943 823d
00000010: 9001 3cbe c05e 13be 135d b63c 1ccd a83e
00000020: fed6 243d faad 04bd 3cb2 e239 a380 4b3c
00000030: df43 a4be 4dbb a5bd 5d98 c5be 4c33 7ebd
00000040: 3baa 773d 801a f4bd 0027 41be 2fcf dc3d
00000050: c6e8 0ebf cb6d 733d e177 94be f940 02bf
00000060: 376c bdbe 96bf fb3e 9586 cfbe 408c dc3d
00000070: deb7 893e e5aa b3be 8d80 793e da9d 9d3e
00000080: ee86 a3bd 0d3e 8abd 73f9 ea3e e1e3 a7bc
00000090: a10a dc3e b26e 4bbb 9259 6abd 1afe 9b3e
000000a0: fa84 3ebe 9d1d 77bd b67c 293d 655a 933e
000000b0: 6629 bb3e 2d1d ff3e 4c58 6a3c eb5c a43e
000000c0: abbb 07bf 837c abbe ced5 063e dae5 b13e
000000d0: fc6a 64be 60fa b63e c1a2 bd3d 4f4d 3f3e
000000e0: 6d97 59be 1033 663d 2a78 e2be bffc afbb
000000f0: 39dd 053e 99c8 613d cd82 f7be d751 76bd
00000100: c59c a33e 40e0 3abe 3cc1 afbd 626d 9abe
00000110: 7c0f ba3d c9d4 c93d acbd c43e 2014 7abe
00000120: 1f17 12bf 922e c33e e89b c1be 881a f0be
00000130: 1e48 7bbe 133f f5bd 1c96 19be 51f4 9a3e
00000140: a624 dc3e 4f5b 87be bb8f 57be d377 99be
00000150: 2af8 5fbd 1820 c83e 4519 02bf 3b9d e43d
00000160: 145b 2bbd 074c debd 36c4 eebe 85b8 723e
00000170: dca8 30bd 89e8 8e3e 31bc 62be 873b 963e
00000180: c63e bdbe 1054 4ebe 944c 74be d541 01bf
00000190: 8c46 b03e 1711 a9be 9cd8 bd3e bf61 fe3d
000001a0: faeb 553e 7b9f 18be 0bff 14be f151 ca3c
000001b0: aeca c63e 378d 90bd dd31 d43d f754 993e
000001c0: 2605 9f3e 04ec edbe 8033 cbbd fca2 fd3e
000001d0: 5507 0d3e 7e68 e43d 2519 4f3e dfc0 1ebe
000001e0: 8c95 d13b a5ea 043e 3d23 803e 9cb6 b13d
000001f0: 72e9 8e3e 7ef8 743e 5333 4abe 287c bcbe
-0.37476614 -0.2664656 -0.47102544 0.06360526 -0.18359971 -0.14391613 0.022261178 0.32968986
0.040244095 -0.03239248 0.00043238874 0.012420806 -0.32083032 -0.080923654 -0.38592806 -0.06206064
0.06046508 -0.11919117 -0.18862534 0.10781705 -0.55823934 0.05943088 -0.2899771 -0.5088039
-0.36996624 0.49169606 -0.40532365 0.10768938 0.26898092 -0.3509132 0.24365444 0.30784494
-0.0798472 -0.067501165 0.4589344 -0.020494403 0.4297686 -0.0031041321 -0.057214327 0.30467302
-0.18605414 -0.060330976 0.0413787 0.28779903 0.36555022 0.49826947 0.014303278 0.3210214
-0.53020734 -0.33493432 0.13167498 0.34745675 -0.22306436 0.35737896 0.092595585 0.18681835
-0.2124917 0.05620104 -0.44232303 -0.005370706 0.13072671 0.055122945 -0.4834198 -0.060136642
0.31955543 -0.18249607 -0.085817784 -0.30161577 0.09084985 0.09855039 0.38425958 -0.2442174
-0.5706653 0.38121468 -0.3781426 -0.46895242 -0.2453923 -0.11974921 -0.14998668 0.30264524
0.4299671 -0.2643685 -0.21050923 -0.2997423 -0.054680027 0.39086986 -0.5081981 0.11162802
-0.041834906 -0.10854345 -0.46634072 0.23703201 -0.043129787 0.27911785 -0.22142102 0.2934229
-0.36961955 -0.20149255 -0.23857337 -0.50491077 0.34428823 -0.3302085 0.37079322 0.12420987
0.20890799 -0.14904587 -0.14550416 0.024697276 0.38826507 -0.070581846 0.10361073 0.29947636
0.31058615 -0.46469128 -0.09921932 0.4953841 0.13772328 0.11152743 0.20224436 -0.15503262
0.006396001 0.12980135 0.25026885 0.08677408 0.2791248 0.23922917 -0.19746141 -0.36813474

encoder.2.weight f4 [64, 128]
00000000: 4da7 553e 60b0 533d 079b 83be 0631 10bd
00000010: e186 2bbc 66db 89be 93b1 dabe 9101 163d
00000020: 57a5 173c 4836 9c3d b3c0 c63e f9f3 5abd
00000030: 2349 bb3d 65b7 54bc 4fe9 aebe de2d debd
00000040: 43e2 babc 1b60 d23d c6af 63be 5203 743d
00000050: c5e5 0e3e 2838 633d fc8b c03d c49e 28bf
00000060: 9333 01be 53e6 cebc f163 e53d 933f 3abe
00000070: 26f6 ce3c 1efd c7b8 2b9e 7a3d 290e ed3b
00000080: f92e 803d 7863 803e 4145 dabe a227 e3bb
00000090: 7aff 833d 6fb4 f2be 83cf 813d 5354 fdbb
000000a0: 7d99 d73d d516 ba3d e6a8 27bf 2857 5a3a
000000b0: ea33 0a3d 9c30 1cbf b2c5 903e 0672 403b
000000c0: 8d18 18bd 3416 d6bd dbf0 9bbd e2e6 d8be
000000d0: 45b4 8c3e 5831 803d 7755 1cbd 649a 6d3d
000000e0: 695f 6bbe 409e 923d 848c 163e 0e27 8abb
000000f0: 0065 31bd a7aa a53d 8cb5 583e 85a7 e6bc
00000100: 72a6 e6be 9df9 1cbf a019 e1bd 0847 b3be
00000110: 4dd2 ca3d 62ad 5e3e 22b1 dd3d 5d64 633e
00000120: 72e7 d13d de9b 0ebe 2161 943e e12e 503d
00000130: 5ded 833c aca2 54bc 4bff 613e 06a9 de3d
00000140: e01f 93be 7340 8d3d 5fa4 57bb c2cf 43be
00000150: 1df4 013e 1e1e 543c 8854 753d 57cd 50bd
00000160: 3ed5 933c ca95 bdbd 126a 6e3d 3302 563c
00000170: 20f0 36bd e39f 7e3d 139b 653d 1983 70bd
00000180: d175 493e cf7e 78be 4616 3b3d c1cc a2bd
00000190: 02c5 c83d f6df 4e3d 4fd5 91bd a2b2 9f3c
000001a0: 35ca 48bd da21 27bd 0cbf ce3d 95cb 0dbf
000001b0: b76e 07bf f263 1fbe 9cc9 09bf 50ca 04be
000001c0: 34c2 b2bc 7f60 f03d 6cb8 443d 23be 28be
000001d0: f86e 1dbe d528 9fbe ad3f fcbd 11dd d7bd
000001e0: 25b3 413b d6ef 31be 3189 be3d 4015 8dbe
000001f0: 1fad 8c3d cd96 5f3c 5e26 dabe b2a9 7cbd
00000200: 9b78 cd3d 5f4c d53d 19d9 2bbd fea0 163a
00000210: 037b 13bd 65c7 bebd c8fb 113e 429a 1b3e
00000220: 57bb 59bd ed68 01bd 91f1 0abe 5f53 5c3c
00000230: 2e40 07be 68ec 33bd 11ec 243e 434d b2bd
00000240: 6379 64bd a075 1bbd b30a ed3d 7492 333c
00000250: 5038 3cbd 77f4 bcbc 3230 db3a 60f2 e23d
00000260: bba4 57be 4cd4 133c 19a0 bdbd f6a2 643e
00000270: f6c5 573c 9302 9f3e 15b7 25bc 1160 4cbc
00000280: b92b 173e f1ef ddbd 1164 563e 266c 343e
00000290: a606 74bd 0dc4 5b3e 7a6a a2bd a77d d83d
000002a0: 3d7c 83bc 6025 9f3c eeff 4b3e adde 4e3c
000002b0: ab19 d03d 57e8 d03d a681 a9bd 8f88 d9bc
000002c0: 3688 d7bd 9a66 b3bb 3543 42bd fcce 103d
000002d0: 31b5 42bc eb00 e83d 7beb c13d f471 38bd
000002e0: ae9c c63d 5f60 8f3d eda9 7ebd 93b3 d8bd
000002f0: 63d6 f1bd 807f a23c 258e 6bbd d7ac 10bd
00000300: 3523 013d d9cc a2bd 501d 6d3e 7c02 c83d
00000310: 615b 20bd a429 21bd 0dba c63c 9e1e 2bbe
00000320: f615 453d dccb 0b3e dcb6 a7bd a0e4 043e
00000330: c232 99bd bde1 8bbd 689e 18be 07a4 163d
00000340: 0dff a33d a22c e2bc fd6b ccbd 7a37 e5bd
00000350: c5c9 edbd f2a9 8d3d fc81 89bd 3f80 523d
00000360: 4833 45bd 43c1 843d b208 58bd 15e0 19bd
00000370: 5de8 cf3b bfc5 853d 0334 83bd 0910 9fbd
00000380: 1332 2ebe 62ed 40be c1a9 96bd 9dff afbd
00000390: bbf4 73bd 17aa 56bd 5354 233c 895c da3b
000003a0: 21b3 533e 5ed3 45bc 25cc 16be 342b 3a3d
000003b0: cf88 aa3d 625e 19be 434e 863d 9e03 ab3d
000003c0: 7593 2bbd 153f e63a f936 b6bd d49f 933e
000003d0: 8428 08bd 9406 1c3d d125 8c3c 8664 48bd
000003e0: cb0e d4bc 80ef cd3d 2099 353d 0e2c ac3e
000003f0: aa5e f63b 07bf 9a3d c7ac 73bd a371 a73d
0.20864601 0.051681876 -0.25704214 -0.035203002 -0.010469169 -0.269252 -0.42713603 0.036622588
0.009255729 0.07627541 0.38818893 -0.053455327 0.09144809 -0.012983178 -0.34162375 -0.10848592
-0.022812968 0.10272237 -0.22235021 0.05957348 0.13954838 0.055473477 0.094017 -0.6586726
-0.1261733 -0.025256312 0.11200703 -0.18188314 0.025263857 -9.536206e-05 0.061185997 0.007234354
0.06258959 0.2507589 -0.42630962 -0.006932215 0.06445213 -0.47403285 0.06338408 -0.0077309995
0.105273224 0.09086386 -0.65492094 0.00083290273 0.033740915 -0.6101167 0.2827583 0.0029364838
-0.03713279 -0.10453454 -0.07614299 -0.4236365 0.27481285 0.062594116 -0.038167443 0.058008566
-0.22985615 0.0715909 0.1470204 -0.0042160815 -0.04330921 0.0808919 0.21163005 -0.028156051
-0.45048863 -0.6131838 -0.10991216 -0.3501513 0.09903393 0.21745828 0.10824801 0.22206254
0.10249223 -0.13926646 0.28980353 0.050825957 0.016104395 -0.012978237 0.22070043 0.108720824
-0.28735256 0.06897058 -0.003290437 -0.19122222 0.12690778 0.012946634 0.05989507 -0.050977077
0.018046018 -0.092570856 0.058206625 0.013062048 -0.044662595 0.0621642 0.056056093 -0.058718774
0.1967385 -0.24267124 0.04567554 -0.0794921 0.09803201 0.050506555 -0.071207635 0.019494358
-0.049020965 -0.040803768 0.10095033 -0.55388767 -0.5290331 -0.1556547 -0.53823256 -0.12967801
-0.021821119 0.11737155 0.04802744 -0.16478781 -0.15374362 -0.3108584 -0.12316833 -0.10540212
0.0029556241 -0.17376646 0.09303511 -0.27555275 0.06868958 0.013646794 -0.42607397 -0.06168527
0.10032769 0.10414957 -0.041955087 0.00057460356 -0.036005985 -0.09315375 0.14256203 0.15195563
-0.053157177 -0.031594206 -0.13568713 0.013447612 -0.13208076 -0.043926626 0.16105677 -0.08706143
-0.055779826 -0.037953973 0.11574306 0.01096021 -0.04595214 -0.023065789 0.0016722737 0.110813856
-0.21058933 0.0090227835 -0.09259052 0.2232779 0.013169756 0.3105665 -0.010114451 -0.012474076
0.14762773 -0.10836781 0.2093661 0.1761938 -0.059576653 0.21461506 -0.07930465 0.10570841
-0.016050452 0.019427001 0.19921848 0.012626332 0.10161146 0.10200565 -0.082766816 -0.026554374
-0.10524027 -0.0054748775 -0.047427375 0.035353646 -0.01188402 0.113283 0.094687425 -0.04503055
0.09697853 0.07000803 -0.062173773 -0.10581126 -0.11808469 0.019836187 -0.057508606 -0.035321083
0.031527717 -0.07949228 0.23155713 0.09766099 -0.039149646 -0.039346352 0.024258638 -0.16710898
0.048116647 0.13651985 -0.081891745 0.12977839 -0.074803844 -0.068301655 -0.14904177 0.036777522
0.080076315 -0.027609173 -0.09981535 -0.11192222 -0.1161075 0.0691718 -0.06714246 0.051391836
-0.04814461 0.06482174 -0.052742667 -0.037567217 0.0063448385 0.06531858 -0.06406405 -0.0776673
-0.1701129 -0.18840554 -0.07356597 -0.08593676 -0.059559565 -0.052408304 0.009968835 0.006663863
0.20673801 -0.01207432 -0.14726312 0.045451358 0.083268754 -0.1497741 0.06557896 0.08350299
-0.041888673 0.0017566407 -0.08897204 0.28832877 -0.033241764 0.03809221 0.017107876 -0.04892399
-0.02588596 0.100554466 0.044335485 0.3362736 0.007518609 0.07555967 -0.059490945 0.08175971

encoder.2.bias f4 [64]
00000000: a44d 7dbc bb4c a83d c9ac b7bc a3dc 2ebd
00000010: fbb3 8abc ec84 c73d da7d 853c d2f6 733c
00000020: 2939 8a3d 0090 563d b265 96bd 0ae5 8a3d
00000030: c2f6 ef3d b879 09bc 251c d83b fad7 8d3d
00000040: f8da 803c cbc3 e53c 610d 98bd d47c 673b
00000050: 0e8a 803d 9232 94bd 8d7d 643d 8260 95bd
00000060: e9f1 4c3d 0518 e33d bd7e 8c3c d10f 433d
00000070: 85ee d8ba b511 db3c 3fcc 2a3d 32b1 83bd
00000080: 56e6 9d3d 3b4b d4bb f12e 883d 1850 3fbc
00000090: 5e6c 75bd 79c4 873d cd80 773d ee95 0cbc
000000a0: 69f2 ae3b 1fa7 063d ba37 4c3d c896 1fbd
000000b0: ed0c 86bc bfb5 0b3e 1f40 7dbd a537 0c3e
000000c0: bbcd 453c 992f 2e3d 5f3e dc3d 28da 3a3d
000000d0: 9643 1ebd 6cdd ca3d 33ec 28bd 2e80 0cbd
000000e0: 8047 9d3d 8b0a 1bbd c969 1cbd 0553 f33d
000000f0: ce23 9d3d fec0 40bd 422f ef3d 8e3a 9dbd
-0.0154604055 0.0821776 -0.022421258 -0.042690884 -0.016931525 0.0974215 0.016295362 0.0148903895
0.06749184 0.052383423 -0.073436156 0.06781967 0.11716987 -0.008390836 0.006595152 0.0692596
0.015729412 0.028047463 -0.07424427 0.0035322206 0.06276332 -0.07236208 0.055783797 -0.07293798
0.05003539 0.11088566 0.017150277 0.047622506 -0.0016550577 0.026741842 0.04169869 -0.06430282
0.07709949 -0.0064786947 0.06649578 -0.011676811 -0.0599178 0.06629271 0.06042557 -0.008580668
0.005338956 0.032874223 0.049857832 -0.038962156 -0.016363585 0.1364355 -0.06182873 0.13693102
0.012072976 0.04252586 0.10754084 0.045618206 -0.038638674 0.09905514 -0.041240882 -0.03430193
0.07679653 -0.03785185 -0.038186822 0.11881069 0.07672845 -0.04705905 0.116789356 -0.07677184

encoder.4.weight f4 [32, 64]
00000000: 4dd4 13bd 7a2f a8bd 02d5 6b3d bc07 343d
00000010: 858d 273c cc24 6d3d e375 753d 018c f83d
00000020: 647f 573c c4c4 2c3e 9ecd c0bc d216 ec3d
00000030: 73a0 43bd e8ae 2c3e 5e16 cdbd d778 063e
00000040: 94c6 38bd 7a78 973d 4242 d73c a97a 403d
00000050: 229f 193e 3a4c b3bd ffaf 183e af74 a43d
00000060: b248 633e e254 d23d 47ab 073e 8cd5 933d
00000070: 046e 163d 64e8 13bd 158e e23d 5c87 0f3e
00000080: 7be5 0d3e 78f6 b0bd fe14 d83d a235 b6bc
00000090: fc61 283e 3d30 553d 2a92 923d d3bc 073e
000000a0: 163f c1bd df10 063e 8be9 2abd eae6 b6bd
000000b0: 5fef b23d e82b aabd de34 2ebd a9f3 58bd
000000c0: 5d99 c03d cf71 01bd ea00 afbd 05ae 0b3e
000000d0: 248a e6bd 30ec f53d 1888 46bc 00c2 57bb
000000e0: 5dee 163e b971 893d 98ea b5bd a06e 0f3d
000000f0: 525e efbd 51be 2c3e 0a21 693d 7239 31be
00000100: fb66 d7bc 42d4 40bd f880 a33d a1f9 e4bd
00000110: f7b4 303d 239e ecbd bef1 0f3d 0b59 e7bd
00000120: 83b8 ecbc cc85 1a3d 2a96 80bd 38ff 403a
00000130: 0113 9bbc e750 ffbb fb7d d73d 33fe 4c3d
00000140: 7330 5f3d 96a1 90bd 4d68 493d 44bb aa3d
00000150: f04a f13d 5097 b03d 093c 8b3a f114 00bc
00000160: e7d8 663d 367a e6bd 1f4d 593d 366e b0bc
00000170: 80b0 3a3c 2d4d f4bd 1bb1 dd3d e384 37bd
00000180: 8fb8 96bd 126c 96bd f96d 96bd 4a76 d7bd
00000190: 0e6e 533d 5ab4 8abd 2ab0 16bb 6ebf 8c3d
000001a0: 7a76 61bd c49b 5bbd f7d4 b43c d4d9 9ebd
000001b0: 2dce ea3d 910f efbd 5f0c d53d 433a cebd
000001c0: 73ea cc3d 8be3 4a3d 5dca dbbd 8542 aebd
000001d0: b46f 2a3d 0d4b e0bd 163e cbbc 0aad a9bd
000001e0: e070 c5bb 55c6 883d 1ee7 ce3d 512e a03d
000001f0: 69c8 b8bd dda5 f1bd d933 15bc f484 c13d
00000200: fc63 bd3d 0716 3abd e8dc 0dbe 7b72 023d
00000210: 64e6 1b3b 1517 4abd 5336 79bd c849 f2bc
00000220: 1988 89be c958 53bd 06d4 103c a048 713c
00000230: 236a 74be 4df0 2a3e 891a 453d a066 6c3e
00000240: 5ded 00bd f73b 8b3d db00 ac3a a5ee dbbb
00000250: fe93 3c3d 1b1e 773d 078b 813c e5c9 603d
00000260: 6de3 2a3e 826c d43d e383 54bd 164b 0f3b
00000270: 3026 d83d 2b67 523c 010a dabc 2627 97bd
00000280: a2d9 1b3e b887 503d 1d96 103e e074 2fbe
00000290: c4d5 663e c2b9 64bd 9775 76bc 0d11 a13d
000002a0: 9f8d 683d 8ff6 153e 5131 0cbe 9e33 593e
000002b0: 2216 7dbe 808b 81be 6268 25bd 0fa5 513e
000002c0: 39af dc3c 9f5c dfbd 9481 11bd 0e4a 093d
000002d0: bd0f ae3d 5179 7b3d 0048 3fbe f0d8 b23d
000002e0: 7dad e83d a42d aa3d 0e24 bc3c fc7e c13c
000002f0: fb92 28be b39a fbbb 5410 003c 08ef e8bd
00000300: c24b f2bd e1f5 363e a4de bd3d 05e8 b8bd
00000310: 70f5 94bc acee a9bc 20c9 103e 058a a83d
00000320: 74ce f13d 5794 b63d fa73 1dbd 36ff b33d
00000330: fb8c 383e 001d 253c 0d02 4dbc 4443 5c3d
00000340: 85ba 943c 8def 74bd fd0f d03c 4411 683c
00000350: 0343 113e a0d7 08bd 94c5 863d e2b2 5f3d
00000360: 1ba5 23be d609 3cbd 5892 0dbd 8245 87bd
00000370: 44d6 96bd 76a2 733c b907 37be df00 a5bd
00000380: 35df 123e e252 953d 7f45 583e 282b 843d
00000390: 3041 8a3d f0b4 bf3d 06e5 bf3d 16aa a0bd
000003a0: 50ad 47bd f767 b5bd 2fa5 2a3e 2b48 40bd
000003b0: 9d45 9ebd ee47 c1bd 503d 873c 21fe eb3d
000003c0: 51c1 733d bf45 bdbd 58bb 443b 035b 003d
000003d0: 0532 933d 9061 373d dfe2 c43d d4c9 30bd
000003e0: 27f7 babc 7591 42bb 526d bd3d 8da8 973d
000003f0: 34eb 753c ab17 ba3d cf7a f63d 3a57 debd
-0.036091138 -0.082121804 0.057576187 0.04395269 0.010226612 0.05789642 0.05992688 0.121360786
0.013152931 0.16871935 -0.023535546 0.1152779 -0.04776044 0.16863596 -0.10014032 0.13132034
-0.045111254 0.07396026 0.026276711 0.046991978 0.1500211 -0.087547734 0.14910887 0.08030068
0.221957 0.10270096 0.13248931 0.07218465 0.036726013 -0.036110297 0.11062256 0.14016479
0.13857071 -0.0864076 0.10550879 -0.022242371 0.16443628 0.052047957 0.07156785 0.13255624
-0.09435861 0.13092373 -0.04172663 -0.08930762 0.08737063 -0.08309156 -0.042530887 -0.052966747
0.09404252 -0.031602677 -0.08545096 0.13640602 -0.11256817 0.1200794 -0.012117408 -0.003292203
0.14739366 0.06711144 -0.08882636 0.03501761 -0.11687912 0.16869475 0.056916274 -0.1730707
-0.026294222 -0.047077425 0.07983583 -0.111804254 0.04314133 -0.115536 0.035142653 -0.112962805
-0.028896576 0.037725255 -0.062786415 0.00073622493 -0.01892996 -0.0077916267 0.10522076 0.05004711
0.054489564 -0.0706207 0.049171735 0.08336499 0.11781871 0.086226106 0.001062275 -0.007817493
0.056359198 -0.11253779 0.053052064 -0.021536928 0.01139462 -0.119287826 0.10824796 -0.044804465
-0.073594205 -0.073448315 -0.07345194 -0.10520609 0.05161863 -0.067726806 -0.0022993186 0.0687245
-0.05504463 -0.053615347 0.022074206 -0.07756391 0.11465106 -0.11672891 0.1040275 -0.10069706
0.10005655 0.049533408 -0.10731957 -0.08508781 0.041610435 -0.10951815 -0.024809878 -0.08284958
-0.0060254186 0.06678454 0.10102676 0.07821334 -0.090226 -0.11799214 -0.0091066 0.09449187
0.09247586 -0.045431163 -0.138538 0.03184746 0.0023788447 -0.04933842 -0.060842823 -0.029576197
-0.26861647 -0.051598344 0.008839613 0.014726788 -0.23868613 0.1669323 0.04812101 0.23086023
-0.031476367 0.06798547 0.0013122814 -0.0067117983 0.046039574 0.060331445 0.015813364 0.05488004
0.16688319 0.10372259 -0.05188359 0.0021864823 0.10554159 0.01284198 -0.026616098 -0.07380514
0.15219739 0.05091068 0.14119764 -0.17134428 0.22542483 -0.055841215 -0.015042684 0.0786458
0.056775685 0.14644836 -0.13690688 0.21211097 -0.24715474 -0.25301743 -0.04038275 0.20473121
0.026939021 -0.10906338 -0.035523966 0.03351789 0.084990956 0.061394993 -0.1867981 0.08732784
0.11361215 0.083094865 0.022966411 0.023620121 -0.16462319 -0.0076783537 0.007816393 -0.113737166
-0.11830856 0.17867233 0.09270981 -0.09028629 -0.01818344 -0.02074369 0.14139223 0.0822945
0.11806956 0.08915012 -0.038440682 0.08788912 0.1802253 0.010077715 -0.012512696 0.053775087
0.018155346 -0.059798766 0.025398249 0.014164273 0.14185719 -0.03340876 0.06580654 0.054613955
-0.15980951 -0.045907818 -0.034563392 -0.066050544 -0.07365087 0.014870277 -0.1787404 -0.08056807
0.14342959 0.07291199 0.2112026 0.06453544 0.06750715 0.09360683 0.09369855 -0.07844941
-0.048749268 -0.0885772 0.16664575 -0.046943825 -0.077281214 -0.094375476 0.016508728 0.115230806
0.059510533 -0.09241819 0.0030018892 0.031336796 0.07187275 0.044770777 0.09613585 -0.04316123
-0.02282293 -0.002968875 0.09249367 0.074051954 0.01500969 0.090865456 0.12035143 -0.10856481

encoder.4.bias f4 [32]
00000000: d78b 053e d00f 84bc 69b6 0e3d 9ddb 1dbb
00000010: f031 94bd cefb da3c 2cbe 663d abdf 33bb
00000020: c624 c1bd 4bd7 82bd 5dda 743d ddaa 8c3d
00000030: a8c4 38bc e042 343c e093 94bc 3a37 933d
00000040: 255e 823d 3232 2b3d 26e0 8a3d d8d0 f5bc
00000050: 6c27 f43d df66 ed3d e636 69bd 3836 75bd
00000060: 8714 403e 432e 293e 5d20 b9bd 8d8d 5e3d
00000070: a93f 093c aa90 553d bb2e d23d f82e f23d
0.13041626 -0.016120821 0.03484193 -0.0024087199 -0.07236087 0.026731398 0.056333706 -0.002744655
-0.09430842 -0.0638872 0.05977856 0.06868527 -0.011277355 0.011002272 -0.018136919 0.07188268
0.06365613 0.041795917 0.06781034 -0.030006811 0.119215816 0.11591887 -0.05693712 -0.05986616
0.1875783 0.16521554 -0.09039376 0.054334212 0.008376994 0.052139916 0.102628194 0.11825365

encoder.6.weight f4 [8, 32]
00000000: ccc8 01be 5138 8fbd e3fb 19be 890c 8ebd
00000010: 18e6 a4bd ab97 acbd bf1b 37bc b22d 103e
00000020: 2b77 72be 6b6e 123e c69b bfbd dd57 8b3d
00000030: 2ddc e4bd ca4e 7e3e f220 aebc b2e0 5b3e
00000040: 0ff3 6bbe 21e5 18bd 981d c2bd 73d3 c7bd
00000050: 13c5 3f3d f63c 51bd 3e64 22be 71db a93d
00000060: 0072 213e ab86 233e 7bfe 813d 00ad 21be
00000070: 976f 133d 5e4c acbd a1ad 953e f255 61be
00000080: 1a9f 033e dd8c 0bbe 4c07 053d 25c9 49be
00000090: c0fd c5bd 2073 abbb 10d8 233e b280 f8bd
000000a0: 3ca3 1cbe d6f4 513d a809 993d 976d e3bd
000000b0: db67 203d e239 c93c af23 543d 472f cabb
000000c0: 2fb4 893d e2d1 aabd 0a71 d33d c397 28bd
000000d0: 2463 1f3e c97f f03d 25e6 1e3e 9608 eabd
000000e0: 00a2 d7bd 6f9a 113e baaa 37bc e565 acbd
000000f0: e09b 84bc 9c4d 8fbd c3fa 30be 5387 c03d
00000100: 58cb b83d 9e86 fc3d fa1d 54be e6c5 213e
00000110: e507 67be 7b3e 1e3e cbc5 e43d 7110 c93d
00000120: 07d2 073e 13e6 133c a5b1 dfbd c63f 053e
00000130: faef 013d 66d8 323e 77a1 1c3e 5201 f6bd
00000140: 4bad 2d3e 87ca a63d b550 073d ff0b 02be
00000150: 4367 493e dd81 7bbe 5736 15bd b631 82bd
00000160: 33f5 713e a74d 42be 3114 51bd 18e3 333e
00000170: a19a 7ebc eee7 713d 4b8e ba3d d102 a83d
00000180: 1842 533e 6136 3e3e d36b 633d f3dc 2ebe
00000190: c9a1 debd f5e3 603d ac34 2f3d 58f5 2f3d
000001a0: 4036 a33d 42f3 debc f158 c1bd 33ef bc3d
000001b0: a6dc 76bb e555 9d3c 416a 21be baf1 01be
000001c0: 061a 23be 74bc 453e e3d6 2d3e 148d 36be
000001d0: d473 18be 6586 0e3b edc2 92bc 2e3d 173e
000001e0: e4ec f13c 0346 4a3e ea1d f83d 4946 3cbe
000001f0: 99bf 223c 0abe 2b3e 7240 103e 2ecc 773d
00000200: 9580 e23d 08ed d53d 4893 733e ed0a 6d3c
00000210: 5d89 7a3d ed7d f0bc 7f6d 2ebc 3977 efbd
00000220: 6db8 10be c4ca 4ebd 5705 acbd 8d37 bbbd
00000230: a495 8c3c 4a30 69be fdb4 0e3e 2a82 b1bc
00000240: ba6f 073d 74df 01bd 3276 1f3e b1c9 28bd
00000250: 3417 7c3d 62dc 5dbd 731f 4ebe 5a92 f5bd
00000260: 8682 21bd 77e6 4b3e 2580 aabd c232 f3bc
00000270: 476d 833c 4ee6 8b3d a8a2 bbbd e25a 14bd
00000280: f2d4 10be 3ec7 f93d 51eb 333e 2fa0 5ebd
00000290: 0be9 593d ff8c 103e 1034 99bd 0d2c b03c
000002a0: 00d0 093d 19b6 9e3d a76a b83d db3a 32be
000002b0: 1104 20be 876f 3bbe 1237 cb3d 4b81 d9bd
000002c0: a7ba 63bd 1fe3 2d3e b3f0 473d 3fe8 91bd
000002d0: c529 b03d db31 18bd 78ec 95bd 3441 133e
000002e0: 7ac0 df3d 2a9a f3bc bdaa 0d3b 101a 5e3b
000002f0: 985a 223d fae7 edbd 1167 17be e347 f5bd
00000300: 9fd2 61be c1d7 183d b3e5 62be 8961 0cbe
00000310: d136 f2bd 8237 683c b58f 4bbe d77d 693e
00000320: 07d3 c83c 47f6 1cbe cbee 483e 4672 98bc
00000330: 9f24 b73b 59d4 0abd 3376 d23c f824 3d3d
00000340: 228f a6bc 8f39 11be 3f22 21be 7912 0a3d
00000350: a36a 633d 53d4 1bbe 6f47 f5bd 835a 00be
00000360: 566c 3f3e 399f de3d 2ec4 ecbc a084 023e
00000370: f311 353e 519d 38be da28 a8bb ee58 023e
00000380: 3698 e0bc 0b4c 0bbd 831b 88bd c7cd 683e
00000390: 0856 e8bb 91b4 523e 28d7 68bd 6f2e f6bd
000003a0: 1eb9 213e f359 e03d 6357 87bd dcd8 613d
000003b0: 8a62 ccbd bbd8 ca3b 2a38 5b3d f1de 93be
000003c0: 5c14 cb3d b29b 293e 8002 14be 1a61 8cbd
000003d0: 12de 633c 4fd8 d4bd f43d 543e eeca e23d
000003e0: 166e febc 013a 793d debb e73d 6113 113e
000003f0: c2ce 8c3d 74a1 e93d bd23 69be f0fe 3d3e
-0.12674254 -0.069931634 -0.15037493 -0.06935985 -0.080516994 -0.08427366 -0.011176049 0.14079931
-0.23678271 0.14299934 -0.09355883 0.06803868 -0.11174808 0.24834743 -0.021255944 0.21472433
-0.23041938 -0.03732789 -0.09478301 -0.097571276 0.046818804 -0.051083528 -0.15858552 0.08293808
0.15766144 0.1596934 0.063473664 -0.1578865 0.035995092 -0.084130034 0.2923403 -0.22005442
0.12853661 -0.13627954 0.032477662 -0.19705637 -0.096675396 -0.00523223 0.1600039 -0.12133922
-0.15296644 0.051258884 0.07472545 -0.11104887 0.039161544 0.024563733 0.051791843 -0.0061701867
0.067238204 -0.08340813 0.10324295 -0.041160356 0.15565163 0.11743123 0.1551748 -0.11427419
-0.10528946 0.14219068 -0.011210138 -0.08417872 -0.016187608 -0.06997225 -0.17283158 0.09400811
0.0902316 0.12330364 -0.2071456 0.15798149 -0.22561605 0.15453522 0.111705385 0.09817589
0.13263713 0.009027022 -0.10922555 0.13012609 0.031723 0.17465362 0.15295969 -0.120119706
0.16960637 0.08144098 0.033035953 -0.12699889 0.19668297 -0.24561258 -0.036428776 -0.06357138
0.23628692 -0.18974935 -0.051044647 0.17567098 -0.015539796 0.059059076 0.091091715 0.08203662
0.20630682 0.18575431 0.05552275 -0.17076473 -0.10870702 0.054904897 0.04277484 0.042958587
0.07969332 -0.027215604 -0.09440792 0.09225311 -0.0037668138 0.019205997 -0.15763189 -0.12689868
-0.15927896 0.1931017 0.16976504 -0.17827255 -0.14887935 0.0021747586 -0.017915213 0.14769432
0.029531904 0.1975327 0.12115081 -0.18386187 0.009933376 0.16771713 0.14087084 0.060497455
0.11059681 0.10445601 0.23786652 0.014467937 0.061166156 -0.029356921 -0.010646223 -0.11692662
-0.14132853 -0.05048634 -0.08399456 -0.09141455 0.017161198 -0.22772327 0.13936229 -0.021668512
0.033065535 -0.031707242 0.15572432 -0.041207973 0.061545566 -0.05416525 -0.20129184 -0.11990805
-0.039431117 0.19912134 -0.08325223 -0.02968729 0.016043318 0.068310365 -0.091618836 -0.036219485
-0.14143732 0.121962056 0.17570235 -0.05435198 0.053200763 0.14116286 -0.07480633 0.02150538
0.03364563 0.07749576 0.09004717 -0.17405264 -0.15626551 -0.18304263 0.09922613 -0.10620364
-0.055597927 0.16981171 0.048813533 -0.071243756 0.08601717 -0.03715692 -0.073204935 0.14380342
0.10925384 -0.029736597 0.002161666 0.0033890046 0.03963718 -0.11616512 -0.1478541 -0.11976602
-0.22053002 0.037315134 -0.22157936 -0.13709082 -0.11826862 0.01417339 -0.19879039 0.2280191
0.024514688 -0.15328322 0.19622342 -0.018609177 0.0055890824 -0.033893917 0.025691127 0.046177834
-0.020331923 -0.14182113 -0.1573572 0.033709023 0.05552162 -0.15217714 -0.119765155 -0.12534527
0.1869367 0.10870213 -0.02890214 0.12745905 0.17682628 -0.18028761 -0.005131823 0.12729236
-0.02741633 -0.034008067 -0.066458724 0.22734748 -0.007090334 0.20576693 -0.056845814 -0.12020575
0.15793273 0.109546565 -0.066084646 0.055138454 -0.09979732 0.006190387 0.05352036 -0.28881028
0.099159926 0.165633 -0.14454079 -0.06854458 0.013907926 -0.1039282 0.20726758 0.11073862
-0.031058352 0.060846332 0.1131513 0.14167549 0.068753734 0.11407748 -0.2276754 0.18554282

encoder.6.bias f4 [8]
00000000: 6459 0f3d b122 e33d e8ec 643e c3cd e33d
00000010: 409b b4bc 7f6c 463b 40f2 3c3e 0283 353e
0.03499736 0.11090601 0.22355998 0.1112323 -0.022046685 0.003027707 0.18451786 0.17725757

decoder.0.weight f4 [32, 8]
00000000: 9f28 92bd 5f9a ca3e e4a2 cb3d d705 9c3e
00000010: d34d 793d 7c09 263e fd6d 18be ea09 823e
00000020: 4c31 7bbe b574 2abe 384a 8abe f084 813d
00000030: b501 d23d bde7 9dbe a2b0 de3d 2812 ccbd
00000040: 42be 23be e783 163e bc9e bc3e 6ebd ac3b
00000050: 03cb 41be f9aa ec3d 9028 ad3e 78db 89bd
00000060: 1d65 073d a6e5 423c 0fa2 973e 0df6 85b8
00000070: 89bb f63d e62c 4abe f726 cd3e 914d a03e
00000080: 8e17 043e 0635 99be 8264 82be 0251 623e
00000090: 8187 2d3e 5549 9d3e 6fae 4ebd cab9 ec3d
000000a0: 92d2 1bbe 8c6d 153e 2587 28be b058 f53d
000000b0: bc99 31be 1030 623e 6e95 ae3e a30c 5c3e
000000c0: 9845 9bbd acb0 333e 1e41 b83d c4c0 a03e
000000d0: d2d9 113e ed9f b83c b3e9 143a 4759 8b3d
000000e0: 631d 20be 991b 143e 977e 8abd 454f b73d
000000f0: 8ea9 00bc b075 f4bd 8f83 28be 96e3 153e
00000100: 2398 3ebe 428e 22be 2a9f 713e 43a9 b23e
00000110: e919 ac3e 8848 b9bc d2cd 17be 2e83 9abe
00000120: 282e 30be 1ef3 943e 846b 2bbe 5259 91be
00000130: 3682 453d b14f 5a3d 63f8 3a3d c106 d63c
00000140: 8518 733e ca73 4cbe 7cb2 6fbe aa09 ac3e
00000150: e69a 843e 8966 a13e 4b5c 93be 6f9e a63d
00000160: 81f6 953e 2a05 22be 1b5f b73c 3f96 1e3e
00000170: a104 7abe e17c 893e d201 45be 411e 90be
00000180: 32da 1abd f553 113e 2e04 413e 1545 663e
00000190: 1144 6a3e 22c0 e0bd 7950 c63e 0340 673e
000001a0: 05ed 0dbd 0d6c 9dbd f448 4ebe b6dd 51bd
000001b0: 673d 53be 6038 3cbe 6695 41bd de5a c5bd
000001c0: 3206 7bbe 4b17 1abd 8631 9c3e 2d82 d83d
000001d0: c8cf 1a3d 372e 503e b3d4 a5be 7da2 963e
000001e0: 2cd8 5c3c 41cf 113d a9ae 61bc d1f7 283e
000001f0: 6fa5 1e3d e411 6dbe b964 2bbe 9937 89be
00000200: aad3 cdbd 1843 89be 0f4b 903c 0a4d acbe
00000210: 26bc 9fbe f470 aebc eb05 bf3e 8cce 36be
00000220: 59cf bbbe ec35 92be 8cd4 48be 8232 273e
00000230: cd5f 4f3d e77d de3d 1e72 cd3d 4e24 2f3e
00000240: de66 363e 6977 c7be eed5 b23e ba50 8cbe
00000250: 30b2 41be 7f6c b33d 6fc1 3b3d d102 12be
00000260: 4a9c 28be 0cea a93e f506 8ebe 7b66 b53e
00000270: 0c33 60bd c246 723e e950 ccbd 4f76 9abd
00000280: d764 8f3e 0437 09be 25cc aebe b2c4 acbc
00000290: 6541 48be 840c 783e fd7f 80be 3097 d8bd
000002a0: 568e 933d 0541 41be 6e50 ad3b 693b 923d
000002b0: cbf7 94be b496 2f3e 66c3 9c3e c727 a23e
000002c0: e5d6 a83c 3fa3 05be fb2a b4bc d3af b5be
000002d0: 0dfb 0abe 22c7 1fbd 8533 3e3e f242 6abe
000002e0: 9e66 fe3c b43f 153d 9547 c9bd 208e ed3d
000002f0: ec23 5d3c fb62 afbe 1cfb a93c 3cec 923d
00000300: 6344 6ebe 6db5 953c bcb8 7b3e c1ae babe
00000310: 6944 f4bd 5f22 c1bc 0fd6 673e ba13 74be
00000320: fae0 b1bc f17a 51be 7b88 0fbe 0af4 d93d
00000330: 6c14 323e 3c3e 3fbd 0117 6e3e 31ce 1fbc
00000340: bc9c 28be 0b75 f23d dc7a 8ebe d380 94bb
00000350: f2de 23be 0dca 7e3e c1fe 05be 5cbd d1bb
00000360: e208 85be 313e 91be a4bd 5f3e e9fb 8bbe
00000370: 68b0 acbd 1504 25be dc5e 6a3e 5b02 d83e
00000380: a673 cc3e 955b 7fbe 6ebf 543e 2d3d 753e
00000390: a163 133e d825 fdbc e399 903d 5b43 cbbe
000003a0: e97e 61be 35af 033e 4913 693e 5fdb 643e
000003b0: 4395 19be c7a6 a8bc 35f8 063d c371 d53d
000003c0: 0a9f abbe 47a4 983e f76a 41be 71e1 babe
000003d0: 2eed 97be 7495 1e3d dbab c2bd ce50 5dbe
000003e0: de37 f13e dd3e f03d bdee a03e ac45 c43e
000003f0: 4788 85be 437f 85be 6ac3 e93d c48f 82be
-0.07136654 0.395709 0.09943178 0.30473205 0.060865235 0.16214556 -0.14885707 0.2539819
-0.24530524 -0.16646083 -0.2700975 0.06324184 0.10254232 -0.30840865 0.10873534 -0.099644005
-0.15990546 0.14698754 0.36839855 0.005271605 -0.18925099 0.11556048 0.3382001 -0.067313135
0.033055414 0.011895573 0.29615828 -6.387765e-05 0.12047488 -0.1974369 0.4006879 0.31309178
0.1289961 -0.29923266 -0.25467306 0.22101215 0.16946222 0.3072001 -0.05045932 0.11558874
-0.15217045 0.1459257 -0.16457804 0.119798064 -0.17343801 0.22088647 0.3409838 0.21489196
-0.07581633 0.17547864 0.08996795 0.31397069 0.14243248 0.022537196 0.0005680576 0.06804138
-0.1563621 0.14463653 -0.06762426 0.08950666 -0.007852925 -0.119365096 -0.16456436 0.14637598
-0.18612723 -0.1587458 0.23595873 0.3489476 0.33613518 -0.022617593 -0.14824608 -0.30178207
-0.17205107 0.29091734 -0.16740233 -0.28388458 0.048219882 0.053298656 0.045647036 0.026126267
0.23739822 -0.19966045 -0.2340793 0.33601123 0.25899428 0.3152354 -0.2878135 0.081356876
0.2928963 -0.15822282 0.022384217 0.15487002 -0.24415828 0.26853088 -0.19238976 -0.28148082
-0.037805744 0.14192183 0.1884925 0.2248729 0.22877528 -0.109741464 0.3873327 0.22583012
-0.034649868 -0.07686625 -0.20145017 -0.05123683 -0.20628892 -0.1838088 -0.047261618 -0.09636472
-0.24514082 -0.03761987 0.30506533 0.10571704 0.037795812 0.2033013 -0.3238884 0.29420844
0.013479274 0.035598043 -0.013774552 0.16500784 0.03873199 -0.23151356 -0.16737641 -0.2680023
-0.10050137 -0.26809 0.017613916 -0.33652526 -0.31198233 -0.021294095 0.37309203 -0.17852229
-0.3668163 -0.28556764 -0.1961233 0.16327861 0.050628472 0.10863858 0.10031532 0.17103693
0.17812678 -0.3895829 0.3492884 -0.2740534 -0.1891563 0.08760928 0.04583877 -0.14258887
-0.1646587 0.33186376 -0.27739683 0.3542975 -0.054736182 0.23659804 -0.0997637 -0.07542097
0.28006622 -0.13399893 -0.34140125 -0.021089885 -0.19556196 0.24223524 -0.25097647 -0.10575712
0.07204883 -0.18872459 0.005289129 0.07140238 -0.290953 0.17147332 0.30617827 0.31670973
0.020610282 -0.13050555 -0.021993151 -0.35485706 -0.13572331 -0.039008267 0.1857434 -0.228771
0.031054791 0.036437705 -0.09828106 0.11599374 0.013497334 -0.34255204 0.020749621 0.071739644
-0.23268275 0.018274987 0.2458219 -0.36461452 -0.11927111 -0.02357596 0.2264025 -0.2383565
-0.021713722 -0.20457055 -0.14016907 0.1064225 0.17390603 -0.04669021 0.23250963 -0.00975375
-0.1646604 0.118387304 -0.2782811 -0.0045319586 -0.16003016 0.24881764 -0.13085462 -0.006400747
-0.2598334 -0.2836776 0.21849686 -0.2734063 -0.08432084 -0.16114838 0.22887748 0.42189297
0.39931983 -0.2493728 0.2077615 0.23949118 0.14393474 -0.030901834 0.070606016 -0.39699826
-0.22021069 0.12859805 0.22761263 0.22349308 -0.14998345 -0.020587338 0.032951552 0.10422089
-0.33519775 0.29812834 -0.1888846 -0.36500123 -0.2967314 0.03871675 -0.09505435 -0.21612856
0.47112936 0.1173074 0.31432143 0.38334405 -0.26080534 -0.26073655 0.114142254 -0.2550031

decoder.0.bias f4 [32]
00000000: cfb2 09be 8bc4 86be 135b 84b9 ed4e d9bb
00000010: c7bd 22be 3568 45be 0d89 743d dc41 a13e
00000020: 6ef2 97be 9afa 023e 0e55 9fbe 7501 b4be
00000030: e9e9 83be 2f0b 56be d8d7 083d 0be4 25be
00000040: 0f61 5d3e 79d0 a0be ac1c 913e fcce 14be
00000050: 2a54 ff3c b0b1 293d b4ac 11bd 6a3f 99be
00000060: c1a2 e5be 4df3 94be 719e 71be d16c 123d
00000070: f8da a73e 7cf7 93be ccbc 75bd 6995 823e
-0.13447116 -0.26321825 -0.00025244858 -0.006631723 -0.15892707 -0.19278033 0.059701014 0.3149556
-0.29677147 0.1279091 -0.3111958 -0.35157362 -0.25764397 -0.20902704 0.03340897 -0.16200273
0.21619056 -0.31409052 0.28342187 -0.14532083 0.031168062 0.04142922 -0.035565093 -0.29931194
-0.44850734 -0.29091874 -0.23595597 0.035748307 0.32784247 -0.28899753 -0.059994504 0.25504616

decoder.2.weight f4 [64, 32]
00000000: 445f 1e3e 1c15 893d f656 ea3d 7111 2c3e
00000010: e749 5e3c 80e7 0cbd 7ef6 c0bd 5b53 90bd
00000020: 8c65 37bc c3d4 cd3d 4b85 05be 07ca d1bd
00000030: 0fc7 cbbb d082 e2bc 70b3 bd3d bf70 b6bd
00000040: 78ab b0bd 5b13 82bd b6c1 8d3d 1c34 f9bd
00000050: bf15 c4bd c9bf 803d 7958 0e3e eeb8 d9bd
00000060: 8e52 0fbe 4cdc 3c3d 5cee cfbc fd11 653e
00000070: 350b c8bd 107e 7fbd 1d91 3fbe 1be9 61bd
00000080: 9d02 10be cce1 403e 6b41 b33d 00f3 533d
00000090: e614 6bbd 588a 673d 412a 49be a390 44be
000000a0: 961b 66bd 27c1 523d 88a5 49bc 59f4 f3bd
000000b0: 9663 9f3d d68a 01be 509d 0f3e 5fa5 713c
000000c0: 94fb e8bd 38d9 473e cdf2 653d 335f c8bc
000000d0: 2e53 d8be 19d2 483e 382c d53d f7c2 eb3d
000000e0: d1ad 29bd 93f6 233e 077d cbbd 3e7c edbd
000000f0: 2add 9dbd 2363 c73d d0bf c5bc f3d4 2abe
00000100: 3c6a fd3b 491e 233d 0567 363e 31f1 ed3d
00000110: 2bc1 a73a 3c18 e33d 7fcc 04be 96f0 1dbb
00000120: 9328 c3bd 4e8e c73c 35fb 86be 6cb2 623d
00000130: 65a2 c13d fecd 283e 5a15 f7bd db53 0a3d
00000140: 8c74 213e 9490 7ebd 39ca 603e 56cb f8bd
00000150: 7f51 4abc e492 3e3e 22c6 ab3d ec55 86bc
00000160: d28f 49bc 5380 8ebd 8ac9 8d3d 5335 04bd
00000170: 8b98 da3c 97ad ddbd 5b68 023e 4335 203e
00000180: 1676 163e 8f97 84bd 2e10 8dbe af97 2dbe
00000190: 0eb5 0b3e a6db 363e f589 483e d1e6 68bd
000001a0: 4b60 4b3d 1ad0 61be fff4 343e 079c 77bd
000001b0: a679 3dbd 8105 843d e4a8 323d 6f2a b33d
000001c0: e121 0bbd 71e1 8cbc 75b6 5bbe a525 4cbc
000001d0: 2ccf 03bc 426a ccbd a14e 02be 809b 75bd
000001e0: 1eb9 1abe c6d5 fc3d d0d5 63bc fb67 9abe
000001f0: e98b 283e 6b3b 6ebe 5894 38be 6577 873d
00000200: 3abb 62bc 7374 9b3d d5f1 9bbd 0af1 563e
00000210: 3b98 b4bd d16c 3b3d f438 10be c26c 1e3d
00000220: 7c30 19be e982 273e b6af 4ebc b9b9 0fbe
00000230: f723 083e 596d 833e 7d9a 3d3d 4cf3 92be
00000240: dab2 e43d b27c 853d 80fb 923d b7ec e7bd
00000250: 3b01 e3bd 2ce3 fcbb 241a 9dbd b8fd 95bd
00000260: 2876 e9bd 18f8 f8bc 1b99 68bd cf39 123c
00000270: 5ec8 403d 2912 babd a15f 1dbb a018 babd
00000280: d850 113d 0634 953d fe00 4e3e d4a1 d43c
00000290: 08cb e9bd 7153 2bbe aeb5 0f3e 50b8 59bd
000002a0: 5bd1 06be 7b37 c2bd da2d bbbc 5efb 85bd
000002b0: 12d1 c43d be47 b53d 470c 10bd a747 5e3d
000002c0: dbc9 073e ddf0 0cbe 12fd 053d 4d53 f2bd
000002d0: 4df5 643d 0d88 a6bd 4b24 1b3e b45e e9bd
000002e0: a097 063c 79e4 a23d e123 bb3c 0b67 533e
000002f0: 1733 aabd 099a 513c 41df 503e 18db 0b3e
00000300: f217 28bd 9590 c93d 722b 97be 9a25 7ebe
00000310: 0d38 f4bd 278f 543d 9251 16be 9a45 093e
00000320: 34fc 14bd 857e 953d 0a4d dfbd a9b6 bbbd
00000330: 27bf afbd ad71 503d 906d d73d a9b1 103e
00000340: 528f e5bd 5315 82bd 9813 95bd 91b4 99bc
00000350: 6261 1dbe 164f 5fbe 45bb 1dbe 937c fa3d
00000360: 432e 7bbd b4f3 f3bd f4a5 933d b73a 7ebd
00000370: 61d8 2b3e f561 4abe 1ff2 cfbd cb34 383e
00000380: 6146 96bd 5357 30be 262f d93c a9c8 11be
00000390: bc1d 6fbd c7e4 aabb d892 6ebd d371 713d
000003a0: 079f 33be 0be6 f23c defc 5dbe 91a8 c6bd
000003b0: 53ba 62bc 613f 4cbd c0a3 373c 0759 5d3d
000003c0: df74 243e a05d a0bd e5ac e33d ae18 efbd
000003d0: 328a eabd 37e3 0f3e 14ed a43e 8fb1 343d
000003e0: dc02 92bd a1c6 3d3e 7d27 2f3e b1ae 80bd
000003f0: 7462 2e3d 25ba e6bd c052 4abc fbce e2bd
0.15466028 0.066934794 0.11442368 0.16803528 0.013567424 -0.034400463 -0.09422015 -0.07047149
-0.011193644 0.10050347 -0.13039128 -0.10243612 -0.006218798 -0.027650267 0.092627406 -0.08908223
-0.08626455 -0.06351348 0.06921713 -0.12168142 -0.0957446 0.0628658 0.13900937 -0.10630976
-0.13996336 0.04610853 -0.025382213 0.22370143 -0.097677626 -0.062376082 -0.187077 -0.055153947
-0.14063497 0.18836135 0.08752712 0.051745415 -0.057392977 0.05652842 -0.19645025 -0.191958
-0.05617865 0.051453736 -0.012307532 -0.1191184 0.077826664 -0.12650618 0.14024854 0.0147489
-0.1137611 0.19516456 0.056139756 -0.024459457 -0.4225096 0.19611396 0.10408825 0.11511796
-0.04142553 0.1601203 -0.099359564 -0.11595963 -0.07708199 0.09735706 -0.024139315 -0.16682796
0.0077336114 0.039823804 0.17812736 0.11618269 0.0012798657 0.11088607 -0.12968634 -0.00240997
-0.09529223 0.024359848 -0.2636353 0.055345938 0.094548024 0.1648483 -0.12064619 0.033771377
0.15767115 -0.0621496 0.21952142 -0.12148158 -0.012348532 0.18610722 0.083874 -0.016398393
-0.012302356 -0.0695807 0.06923206 -0.032277416 0.026684066 -0.10824125 0.12735121 0.15645318
0.14693484 -0.0647422 -0.27551407 -0.16952394 0.13643286 0.17857227 0.19583876 -0.05686075
0.04965238 -0.2205204 0.17671584 -0.060451534 -0.04625859 0.06446362 0.043618098 0.08748328
-0.033967856 -0.017197343 -0.2145632 -0.012460147 -0.008044999 -0.099812046 -0.12725307 -0.05996275
-0.15109679 0.123454615 -0.013905957 -0.30157456 0.16459621 -0.23264854 -0.18025339 0.066145696
-0.013838584 0.0759057 -0.07614485 0.20990387 -0.08818098 0.045758072 -0.14084226 0.03867794
-0.14959902 0.16358532 -0.012615135 -0.14035691 0.1329497 0.25669363 0.04628991 -0.28701246
0.11166926 0.06517924 0.07176876 -0.11324447 -0.11084219 -0.0077175107 -0.076710016 -0.07323784
-0.1139949 -0.030391738 -0.056786638 0.008924915 0.047066085 -0.09085495 -0.0024013298 -0.09086728
0.03547749 0.07285313 0.20117566 0.025956072 -0.11415678 -0.16731049 0.14034149 -0.05315429
-0.131658 -0.09483238 -0.022849012 -0.06542085 0.096101895 0.08851574 -0.03516796 0.05426755
0.13260596 -0.13763757 0.03271205 -0.118322946 0.055898 -0.081314184 0.15150563 -0.11395016
0.008214861 0.07953734 0.022844257 0.20644777 -0.08310526 0.0127930725 0.20397665 0.13657796
-0.04103846 0.0984203 -0.29525334 -0.24819031 -0.11924753 0.051894333 -0.14679554 0.13405457
-0.036373332 0.07299522 -0.10903366 -0.09165699 -0.08581381 0.05088966 0.10518944 0.14130272
-0.11208977 -0.063517235 -0.07279128 -0.018762859 -0.1536918 -0.21807513 -0.15403469 0.12230792
-0.061323415 -0.11911717 0.072093874 -0.062067714 0.16781761 -0.1976393 -0.10153603 0.17988889
-0.073376425 -0.17220812 0.02651174 -0.14236702 -0.058377966 -0.0052152607 -0.05824551 0.05894644
-0.17541133 0.029650709 -0.21678492 -0.0970012 -0.0138383685 -0.04986513 0.011208475 0.05403998
0.16060208 -0.078303576 0.111169614 -0.11674629 -0.1145214 0.1405152 0.32212126 0.044114646
-0.07129452 0.18532802 0.17104907 -0.0628332 0.04257436 -0.11265973 -0.012348831 -0.11074635

decoder.2.bias f4 [64]
00000000: 5ac2 fe3b 94d3 893d 3f26 573e aae5 373e
00000010: 6eb7 1b3e ad72 2d3d 208f 9e3d 3208 243e
00000020: 35f1 0bbb 5389 d83d 2daa be3d 2764 09be
00000030: b39a 013e 23c1 4c3e 6daa b9bd a99e 46be
00000040: 36bf 7d3d d3d3 63bd 4b4b 163e dbfb b5bd
00000050: 434a 13bd cb9d e93d 8148 1dbd 094d aa3d
00000060: 87e3 0c3e f3d3 e43c df7f 3ebe de8d 02be
00000070: 69d1 a93d d88e 093d effd 5fbd a1c5 84bc
00000080: 942f 88bd 13ea c93d 4a3a b1bd d7e0 c73c
00000090: 68b1 2fbd cc17 94bd fee5 79be 6eb5 443e
000000a0: 0bff 473e d939 f53d dc1d 62be ee3d f13d
000000b0: 12f6 153e 2829 2e3e ec25 d2bd f825 db3d
000000c0: ab16 17bd 74c0 333d 3733 9fbd e934 533e
000000d0: 4470 76bd 46ef 4abe 26cc 773d 4f88 45be
000000e0: 5b28 f63d ef23 033e 1775 da3d 98da 9cbd
000000f0: a206 ae3d eae1 05be 36f8 9cbd 1b9f e03d
0.0077746334 0.067298084 0.21010683 0.17958704 0.15206692 0.04234569 0.07742143 0.16018751
-0.0021353487 0.105730675 0.09309802 -0.13417111 0.1265667 0.19995551 -0.09065709 -0.19396462
0.06194993 -0.055621933 0.1467716 -0.08885928 -0.035959493 0.1140705 -0.038399223 0.083154745
0.1375867 0.027933097 -0.18603466 -0.1274943 0.08291895 0.033583492 -0.05468553 -0.016207518
-0.066497 0.09859099 -0.08653696 0.024399204 -0.042893797 -0.072311014 -0.24404141 0.19209835
0.19530885 0.11973924 -0.22081703 0.1177939 0.1464465 0.17007887 -0.10261139 0.10700601
-0.036886852 0.04388471 -0.0777344 0.20625652 -0.06016566 -0.19817838 0.060497425 -0.19290279
0.12019416 0.12806676 0.10666864 -0.07658881 0.08497359 -0.1307446 -0.0766453 0.10967847
