pyCode/Autoencoder - 副本/Autoencoder4Gun.pth (torch, 94149 bytes, 16 tensors)

encoder.0.weight f4 [128, 4]
00000000: 5eef c23d 2eda 003e 24cc a13b d5aa 9abe
00000010: 95a9 fe3c 1f1d e3be 4cd1 ebba c0b6 d8be
00000020: f233 153e a175 bf3e c0df 9f3e 12bf 85be
00000030: 8e6e 8bbe c8f8 80be 3ace 58bd 351f 8fbe
00000040: 9725 5f3d e80f 4e3e 36c7 d63d 6e7a d0be
00000050: c02c 7e3d 899e dc3d 5a7a 44bd da51 afbd
00000060: 87bd 4c3e 378c 79be 7c43 0bbf f130 bd3e
00000070: e872 803e 68a2 223f 90e4 eb3e abe6 783e
00000080: 7935 643e 31d7 8a3e 7242 babe b0dc c3be
00000090: d20e 903c a46d f33e 2d2e c1be 7edc a3bd
000000a0: e816 ab3e 20b4 d9be 5910 ff3e 1fea 9f3e
000000b0: f7ed 953e 09ba 523e 5165 bbbe ba2d e43e
000000c0: acca 8bbe 6750 ff3e 2392 cf3e 1c14 f63e
000000d0: 221e 41be 9238 b23c dcc5 703d 4d08 3f3d
000000e0: f3fe a0be 2e35 63be 64f5 573e e2f3 c23c
000000f0: a929 f0be d950 ae3d 8939 dd3e e8a4 f23e
00000100: 7bd4 5bbe 8374 4bbd 2153 0abe 763b 26be
00000110: c82d 9c3e 1c97 8cbd 1475 1bbf 3cc3 c0bb
00000120: 61e3 c73e c01f dabd 3202 8a3e d525 763c
00000130: 86c6 863e ad9d e33e 0012 3ebd e593 12bd
00000140: c402 c7bd e231 acbe 57b9 0cbe f997 65bd
00000150: cd25 d13d 9c23 373e 112d 453e 70b8 0a3f
00000160: 60b3 e3bb fd52 b03e 5565 b0be e754 be3c
00000170: 8413 673d f52d 403c cab4 633e 240f debd
00000180: 9f11 b2be 4e87 803e b30c d3be b2b6 a83e
00000190: e72c 0b3e 6f7c 0cbf 8a63 b23e 28d7 8e3e
000001a0: f4ce acbe 793d efbd 72de 18be 1669 19be
000001b0: 9a79 abbe 3908 d23d cae9 0a3f 6794 b3be
000001c0: dc55 c93e bce7 803e a2ee edbe 0e37 bebe
000001d0: a84b 5fbe 3616 8e3b 6d81 09bf 6f4b 993e
000001e0: e4f7 2fbe d7aa 5b3e 435c 033f afd7 133e
000001f0: abb2 d13e bf5d cebc dbda 033f e520 1bbe
00000200: 01ca 7c3e 4867 3f3e 0b92 23bf fef2 e1bd
00000210: c669 233e ba49 c23e f434 dabc 41e8 4c3e
00000220: dac7 c0bd 9b82 52be 53e2 e23e 84b0 b9be
00000230: dc53 cdbc 08fb 84bd 2868 15bf 6b38 8c3e
00000240: 5b54 c2be 115b b6bc 7aa5 73be 6cd2 d43e
00000250: 5aa8 463c 90df 383d 3bc1 503e 3591 ab3e
00000260: 3b4e ac3e 6a1d d63e 6084 ecbe d673 11be
00000270: ce04 2f3e 402d c73e 26d0 b4be 966f d23e
00000280: bcb9 f23d f7df 07be a2d6 d0bd d5be 97bd
00000290: 5030 af3d 2c3f 91be acdb adbd 0eb1 b6be
000002a0: 228b 8fbe 7abd dbbe 6c23 66be 940c cd3d
000002b0: 4255 163e f23f 263e 30fc 1ebe 2345 993e
000002c0: 0e24 b73e c32e 123f 7564 44be 46cd 61be
000002d0: c6ef bdbe 1092 973e d86e 90be 8ad8 b4be
000002e0: de5b 94be 9514 c6be 6962 bc3e d8a4 563e
000002f0: a4e4 d43e da3d 29bd 3d91 36bf ceb8 bc3d
00000300: 9728 e53d a95c dcbe 73e4 2a3e 5aa3 fc3d
00000310: fc0d bd3e 7e6e 36bb 0162 ae3e a055 72be
00000320: 83ef 8ebe 38d6 043e cd96 b23e 9ae4 c83e
00000330: 3b89 e2be 74de e53e d8bd ddbe 3792 7f3e
00000340: f587 423d 5c5f 003d 89b3 c6bd 3a2d da3e
00000350: 6246 9e3e 3771 48be e5d7 d4be 2cb7 6fbb
00000360: c865 b73e c100 d93d ed1d cd3e 0c8f 4bbe
00000370: d30b 76be 53b3 b83e 89c5 61be c47a ab3e
00000380: 006e 28be cef5 1dbe a186 abbe 10b0 b43e
00000390: 910a 2ebe 3b54 fa3d 8fe2 e73d d57b f73e
000003a0: 8e34 97be c56e aa3e 6352 97be ebbc 85be
000003b0: caac 4b3e dbc0 90be abc4 41be 16ab 693e
000003c0: aa65 2c3d 6d97 a13e 62b1 4e3e 98d7 13bd
000003d0: c8cf 24be 55c6 d5be 6b29 5cbc ff13 c2bc
000003e0: a5a4 993e 336c cebe 2fb8 f83e 7673 4cbd
000003f0: ef03 6d3e 7a47 9ebd 4cfa 6dbe c1b1 883e
0.09518312 0.12583229 0.0049376655 -0.3020846 0.031086722 -0.44358155 -0.0017991452 -0.42326927
0.14570597 0.3739443 0.31225395 -0.26122338 -0.27232784 -0.25189805 -0.052931048 -0.27953497
0.054479208 0.20123255 0.10487215 -0.40718406 0.062054396 0.10772426 -0.047968246 -0.08560534
0.19994174 -0.24369894 -0.5439985 0.36951402 0.25087667 0.6352906 0.46072817 0.24306743
0.22286023 0.27117303 -0.3637882 -0.3825431 0.017585192 0.47544587 -0.37730542 -0.0800104
0.33415914 -0.42520237 0.4981716 0.31233308 0.29283115 0.2057878 -0.36600736 0.44566137
-0.27303064 0.4986603 0.4054118 0.48062217 -0.18859151 0.02175549 0.058782443 0.046638776
-0.3144451 -0.22188255 0.21089703 0.023797933 -0.46906784 0.08511514 0.43207958 0.47391438
-0.21467774 -0.04967166 -0.13508274 -0.1623362 0.30503678 -0.06864759 -0.6072552 -0.0058826488
0.39040664 -0.10650587 0.269548 0.015023668 0.26323336 0.44456235 -0.046403885 -0.035785574
-0.097173244 -0.33631808 -0.13742577 -0.056053136 0.10212288 0.17884678 0.19255473 0.5418768
-0.0069488734 0.34438315 -0.3445231 0.023233844 0.056415096 0.011729707 0.22236934 -0.108427316
-0.3477907 0.2510323 -0.41220626 0.32951885 0.13591348 -0.5487737 0.34841567 0.27898526
-0.33751643 -0.11681647 -0.14928606 -0.14981493 -0.33491212 0.102554746 0.54262984 -0.3507416
0.39323318 0.251768 -0.46471125 -0.37151378 -0.21806204 0.004336144 -0.53713113 0.29940364
-0.17184407 0.21451889 0.51312655 0.14437746 0.40956625 -0.025191186 0.5150582 -0.15149267
0.24686433 0.18691742 -0.6389472 -0.11032675 0.15958318 0.37946874 -0.026636578 0.20010473
-0.09413119 -0.20557635 0.44313297 -0.36267483 -0.025064401 -0.06493193 -0.58362055 0.27386793
-0.37954983 -0.02226022 -0.23793593 0.4156679 0.012125099 0.04513508 0.20386212 0.33509222
0.33653435 0.41819316 -0.46194744 -0.14204344 0.17091677 0.3890171 -0.35315055 0.41100758
0.11851832 -0.1326903 -0.10197188 -0.07409445 0.08554137 -0.2836851 -0.08489165 -0.35681957
-0.28035837 -0.42917997 -0.2247445 0.10012165 0.14680961 0.1623533 -0.1552589 0.2993556
0.35769695 0.571026 -0.19178946 -0.22050962 -0.37096995 0.29603624 -0.28209567 -0.35321456
-0.2897634 -0.38687578 0.3679383 0.2096132 0.4158069 -0.041318752 -0.71315366 0.09214936
0.111893825 -0.43039444 0.16688709 0.12335844 0.36924732 -0.0027836855 0.34059146 -0.23665476
-0.27917108 0.12972343 0.34880677 0.3923691 -0.44245324 0.4489628 -0.43308902 0.2495812
0.04749294 0.03134094 -0.09702212 0.4261263 0.30913073 -0.19574438 -0.41570964 -0.0036577685
0.3581984 0.10595847 0.40061894 -0.19878787 -0.24027948 0.36074314 -0.2204801 0.334921
-0.16448212 -0.15425798 -0.3350115 0.35290575 -0.16996218 0.12223097 0.113225095 0.48336664
-0.29532284 0.33287635 -0.29555044 -0.26120695 0.19890133 -0.28272137 -0.18922679 0.2281917
0.042089142 0.3156084 0.20184854 -0.036094278 -0.16094887 -0.41752878 -0.013437609 -0.023691176
0.30008426 -0.40316924 0.4857802 -0.0499148 0.23146032 -0.07728477 -0.23240012 0.26698115

encoder.0.bias f4 [128]
00000000: 4fd8 693e 4078 eebe 3db8 de3e 9d37 e1bd
00000010: c223 44be 8abd f03d 94da a53e 37f6 34be
00000020: 6aa1 4a3d 7db5 9ebe e7a6 65be b1e8 b2bd
00000030: a8e9 c0be 531e 993e d9ac f1be 09be 51be
00000040: 92ce 523e 2faa 9bbe fd4f 363e 4b74 d6bc
00000050: 9b37 44be 9612 4cbe ba3b dd3e ac5b 7a3e
00000060: 5eeb 9a3e 55b5 a0be a51c 72be 8622 e1be
00000070: 8d15 863c b17a f83e 8819 ba3e c340 0d3e
00000080: 84ed 0d3f 2c38 61be bcc4 e0bd 9e93 b83e
00000090: 5a8a b6bd a85f c03e 5656 d53e 07d7 a4be
000000a0: 8ba7 8a3e 8844 9ebe d6e7 a53e 634e e4be
000000b0: 30f9 c3bd 2864 82be ddcd 4f3e 5062 3bbd
000000c0: 5231 a9be 1b7d 7bbd 0036 f5be 08d2 ebbd
000000d0: 1d14 0a3f c549 1e3e 3a2d b5be 74a2 a83e
000000e0: 5b37 f23e fcc5 143e ce68 b7be d989 e73e
000000f0: daaf 923e 0c43 29bd c097 973e c04a f23e
00000100: 64d5 2fbb 0e76 df3e d1ca 7e3e 08e1 70be
00000110: 3e15 abbe dd1b 17bd 7330 95bd a138 12be
00000120: 30a0 eb3d 01f9 b4bd 2ec1 acbe e398 00bf
00000130: c972 abbe 0734 e2bc 89fe d63e 102f c83e
00000140: 9b16 afbd d467 65bd b122 e6be 6a01 f33c
00000150: 4342 823d c7e0 253d 9dac 9d3e 8927 acbd
00000160: 7b7c ce3e f7ec 2abe 7a76 923e e5eb cbbd
00000170: 9f74 afbe 8bdf 013f 384c ab3e 8c8b 02be
00000180: f43e efbe acb9 943d 28c6 1abe c4b7 ca3e
00000190: 473c abbe e830 b2bd a4da ddbd 7685 8b3e
000001a0: c4db c1be a3ef 743d 2578 053e 5a6a b0be
000001b0: 53d8 fe3e 0725 943e 317b e1be 3a18 ad3d
000001c0: 1eab 543e 2026 a9be 4631 bb3e b46e 4cbe
000001d0: 2e94 b83e 855c a53e af50 543e 273b 923e
000001e0: 1330 f53e a1b9 6dbd 4a97 b53e 99f9 233e
000001f0: 401e 5e3e e9f2 b43d d7eb fa3e d08c f4bd
0.22836421 -0.46576118 0.43499938 -0.109969355 -0.19154266 0.11754902 0.32393324 -0.17672049
0.049470343 -0.3099784 -0.2242695 -0.087357886 -0.37678266 0.29905948 -0.47202185 -0.20482649
0.20586613 -0.30403277 0.1780395 -0.0261785 -0.19161837 -0.19928965 0.4320963 0.24449033
0.30257696 -0.31388345 -0.2364374 -0.43971652 0.016367698 0.48531106 0.36347604 0.13794236
0.55440545 -0.21994084 -0.10975024 0.36050123 -0.08913107 0.3757298 0.41667432 -0.32195303
0.2708095 -0.3091166 0.3240344 -0.44591054 -0.09569013 -0.25467038 0.20293374 -0.045748055
-0.3304544 -0.061398607 -0.4789276 -0.1151467 0.5393694 0.15457828 -0.35386068 0.32936442
0.47307858 0.1452865 -0.35822147 0.45222357 0.2864979 -0.041323707 0.29607964 0.47322655
-0.0026830072 0.43644756 0.24882056 -0.23523343 -0.33414644 -0.036891807 -0.072846316 -0.14279415
0.11505163 -0.08836556 -0.33741134 -0.50233287 -0.33486012 -0.0276127 0.4199107 0.39098406
-0.085492335 -0.05600722 -0.44948342 0.02966376 0.06360295 0.040497568 0.30795756 -0.08405978
0.40329346 -0.16691957 0.28606015 -0.09957103 -0.34268662 0.50731725 0.33456588 -0.12748545
-0.46727717 0.072619766 -0.15114653 0.39593327 -0.33444425 -0.087007344 -0.10832718 0.2725026
-0.3786298 0.059798848 0.13034113 -0.3445614 0.49774417 0.289345 -0.440393 0.084518865
0.20768401 -0.330369 0.3656103 -0.19964105 0.36050552 0.3229715 0.20733903 0.28560755
0.4788824 -0.058038358 0.35466987 0.16013183 0.21691227 0.08835394 0.49008057 -0.1194092

encoder.2.weight f4 [64, 128]
00000000: 45fd 523c fc63 f0bb 64de 183e e1a0 813c
00000010: 7ab0 b13d 89ff 843d b855 9f3d 8a69 0c3e
00000020: 757b 063e dd5d 003e 5773 9f3d fe41 cc3c
00000030: 7d52 a63d 51f7 0c3c b6b0 15be 3715 493d
00000040: 5a4f 3ebd 117d 453c 703a febc 9742 573b
00000050: 4fdf b6bd 8039 473d c310 133e 67f3 f53b
00000060: 2e27 d13d 3996 dabd 95e2 79bd c1c0 203d
00000070: 9742 24bd ed4c ae3d 97ff 823d a252 63bd
00000080: 5d65 0abb 367d 963d a688 8dbd 8962 143e
00000090: a395 973c 3b30 ce3d 32c8 053e 60c3 643d
000000a0: 9090 dc3d 57ee 10bd fa63 4fbc d432 8a3d
000000b0: 2cc0 a93d f260 0b3d 0388 5b3c fca2 10bc
000000c0: 6d9a e5bc 3699 fd3c c720 223d 67d8 0d3e
000000d0: a09e 683d bc0c 13bd 3b09 1abc 5ef6 de3d
000000e0: 8ba7 6f3d e32c 113e 46ea 13be 0753 2bbc
000000f0: 1bdf 223e 87dc 70bd 1695 8cbc 7a34 753d
00000100: 51da c33c 3c57 69bd ea6e 5ebd 36fb 9dbc
00000110: 45c3 8d3d d093 883c 75ec 1d3e 38fd c2bc
00000120: 8b06 463d 906a 953d 12d8 463d c3c6 cf3d
00000130: 553b a43d cac1 a13d 8919 e93d f883 86bc
00000140: 07e9 a43d 5019 ce3d 4fac 97bd bd5d f63d
00000150: 8780 693d 8bb3 f13d b25f b43d 3e85 d03c
00000160: a607 803c b4fb 8b3d 74b7 6fbd afcf d13d
00000170: a62d 12be f39f dd3d 3130 583c 3984 88bd
00000180: 298b 0dbe f98b 77bc 7199 7ebd 301f 96bc
00000190: 5394 503d 8f30 9d3d 7ad0 0a3e dfe0 503d
000001a0: d7fb 82bd 8aff 043e ca30 da3d 9616 3bbd
000001b0: 2250 0b3e bd8a 22bd 47b0 cdbd efd8 193e
000001c0: db78 183e 29e9 5cbd cc65 df3d 6ca7 df3d
000001d0: 0d5b 4fbd ac01 983d a71f 823d 9fe8 93bd
000001e0: 54a4 9f3d cb63 0b3e 0511 ea3c a8ff 25bd
000001f0: f484 e33c a8ae 3fbd e6fe dd3c 949e 703d
00000200: 4432 35bd 89f6 2d3c 4fd7 b8bc 86a1 9ebd
00000210: 3743 39bd 6733 d83d 3bc5 cf3d 2f9d c93d
00000220: 7faf 11bd 1809 2f3d c3c5 97bc 4901 b73d
00000230: f814 e93d ec86 743d d456 52bd 2ae3 06bb
00000240: 1e9b 523b 5a92 223e aed7 6f3d 01f7 913c
00000250: 258e be3c 46f3 6e3d cdcf 953d f01b 47bd
00000260: 2497 dabc 69e4 d1bd 5611 c3bd 7316 6d3c
00000270: 0d58 223d d44f 893d 75fa b03b d1c9 bdbb
00000280: 2d79 1a3e e925 923d 30aa 15bd ce61 1a3e
00000290: d1ce 87bd d5c1 fd3d 8681 12bc 6998 333c
000002a0: 608d b7bc f119 c8bd d95f 1f3d ef5a 19bd
000002b0: 0ba2 1abd 9d5e 14bd 7151 9e3a e83a 843d
000002c0: 1cbe 1dbb fa53 f5bc bf4a 6d3d aff9 223e
000002d0: 7411 013e 18ba 5abc f756 983d 85d6 56bd
000002e0: 19e7 2a3d 3885 00bd ae65 2cbe 0964 333d
000002f0: e19f 2a3e 90d9 40bd 2430 4bb8 5995 db3d
00000300: 7f07 dabc b399 203d ea9e 0f3d 9666 72bd
00000310: 1938 b8bb 01fb d1bc 3fde d73c c8a2 3bbd
00000320: 2a17 483d 7bff 653c bc1b dfbc e8a2 cb3c
00000330: 3fff 963c 752d 97bd dd63 823d f30b 003e
00000340: 1568 2b3d 6a66 713d 8deb 65bd ecfa ed3c
00000350: 6193 a63d c8c7 df3d 142e 90bd 5c76 cc3c
00000360: f3b1 4cbc a085 fd3d b87b 0ebb e9c7 9b3d
00000370: ba33 1cbe 48f3 153e 2a3d 723c c691 d1bd
00000380: 709a e8ba d94a ac3d fdf8 c13c 441f e9bb
00000390: bb6d 053c f4a7 ce3c 0808 e03d 8f3d 5abd
000003a0: d76e 8cbd 83d6 bd3c 8ccb 603d ce71 b4bd
000003b0: 34d8 193e 9ff4 1c3d f960 a1bc 6452 513d
000003c0: df44 8b3d 7df9 a73b 1b48 fc3d c4bb 4cbd
000003d0: b2db 8cbc 6d85 2b3d 0f3e 53bc 8051 85bd
000003e0: 36e9 823d e617 06bd f332 2ebc 9c38 393c
000003f0: a8aa a13a ebe7 583d e743 67bd 441d 053e
0.012877767 -0.007336138 0.14928585 0.015823783 0.08676238 0.06494052 0.077800214 0.13712135
0.13133033 0.12535806 0.07785671 0.024933811 0.08121202 0.008603887 -0.14618191 0.049092498
-0.046462394 0.012053744 -0.031033725 0.0032846087 -0.089293115 0.04863882 0.14361863 0.0075058225
0.10212551 -0.10673184 -0.0610071 0.039246324 -0.040102568 0.08510766 0.06396406 -0.055498727
-0.0021117546 0.07348101 -0.06910829 0.14490713 0.01850397 0.10067793 0.1306465 0.055850387
0.107697606 -0.03538355 -0.012658114 0.06747976 0.08288607 0.034028 0.013399127 -0.008827921
-0.028027738 0.030956846 0.03958204 0.13852082 0.0567919 -0.035900816 -0.009401615 0.108868346
0.05850939 0.14177279 -0.14444837 -0.010456807 0.1590542 -0.05880406 -0.017160933 0.0598645
0.023907812 -0.05696796 -0.054304995 -0.019284826 0.0692201 0.016672045 0.15422232 -0.023802385
0.048346084 0.07295716 0.048545904 0.10145333 0.08019129 0.078982905 0.113818236 -0.01642035
0.08052259 0.10063422 -0.07405912 0.12029598 0.05700734 0.11801823 0.08807315 0.02545416
0.015628647 0.06835118 -0.058524564 0.102446906 -0.14275226 0.108215235 0.0131950835 -0.066658445
-0.13822617 -0.015109056 -0.062158052 -0.018325418 0.050922703 0.076752774 0.1355609 0.050995704
-0.06395691 0.12988105 0.10653837 -0.045675837 0.13604787 -0.039683092 -0.10043388 0.1502416
0.14889853 -0.053933296 0.10908088 0.10920605 -0.050623942 0.07422194 0.063536935 -0.07222103
0.07795015 0.13612287 0.028572569 -0.040527016 0.027773358 -0.046797425 0.027099084 0.058744982
-0.04423739 0.010617861 -0.022563605 -0.07745652 -0.045230117 0.10556679 0.101450406 0.098444335
-0.035567757 0.04273328 -0.018526917 0.08935792 0.113809526 0.059698984 -0.051352337 -0.0020582178
0.0032135914 0.15876141 0.058555298 0.017817976 0.02326114 0.058337472 0.073150255 -0.048610628
-0.026683398 -0.10248644 -0.09524791 0.014470684 0.039634753 0.06704679 0.0054009506 -0.0057918807
0.15085287 0.07136137 -0.036539257 0.15076372 -0.06631244 0.12390486 -0.008942014 0.01096163
-0.02240628 -0.09770573 0.038909767 -0.037440237 -0.037752192 -0.036223043 0.0012078715 0.06456548
-0.0024069613 -0.02994727 0.05793261 0.15915559 0.12604314 -0.013350032 0.07438462 -0.052450676
0.0417243 -0.031377047 -0.16835663 0.043796573 0.16662551 -0.047082484 -4.8443806e-05 0.10721845
-0.026614903 0.03920908 0.03506366 -0.059179865 -0.0056219217 -0.025632383 0.026351092 -0.045809537
0.048850216 0.014037962 -0.027234904 0.024857953 0.018432258 -0.07381717 0.06366704 0.12504558
0.041847307 0.05893556 -0.05613284 0.029050313 0.08133579 0.10926777 -0.07040039 0.024958782
-0.012493598 0.123790026 -0.0021741223 0.07606489 -0.15254107 0.14643586 0.01478509 -0.10232882
-0.0017746221 0.084127136 0.023678297 -0.007114323 0.008143838 0.02522657 0.10939032 -0.053281363
-0.068570785 0.023173576 0.054881617 -0.08810769 0.15023881 0.038319226 -0.01969956 0.051103964
0.068002455 0.005126177 0.123184405 -0.049983755 -0.017194603 0.04187529 -0.012893214 -0.065096855
0.06392138 -0.032737635 -0.010632264 0.011305001 0.0012334185 0.05295555 -0.05646124 0.12999445

encoder.2.bias f4 [64]
00000000: 3512 133e abad e73d 3386 d8bb af41 37bd
00000010: 135f 8e3d 38ab 7fbd 0fb7 503d cbd7 053e
00000020: 2975 8abd 506f d93d 9869 6d3d 7dc0 a63d
00000030: 010c 533d 9b20 b3ba f3e7 893c 3247 34bc
00000040: 17c7 a1bd 1476 5cbd 0030 7abd b3be d73c
00000050: 6b42 023c d937 8b3d 737c 64bd 5939 473d
00000060: 6f6c 073c 8660 cd3d e874 fe3d 774a c43d
00000070: b5fb c0bd 8ce3 e3bc 6e37 433d a6f8 043e
00000080: 5811 4bbd 9767 b6bd 0d8c a43c ffda d33d
00000090: 9b0e 27bd a87a 163c 6c03 a93c 10fb cb3d
000000a0: 5bbf a23d 3ca6 5fba 07cc 823d d32e 99bd
000000b0: 3e48 68bd c6a2 b63c b484 85bc 943f c33d
000000c0: f9b5 8a3d 48c4 443d 72c2 8c3a 793a c73b
000000d0: cfca 1abd bb59 3e3c 3aa5 d93b c6f6 d03a
000000e0: 27a4 923b 6d73 5ebc c306 48bc 40fc 693c
000000f0: ccae f33c 8821 813d fd6c cebc 186c 8abd
0.14362414 0.113124214 -0.0066077947 -0.044740375 0.06951728 -0.062419146 0.05095583 0.130706
-0.06760628 0.10616934 0.05796203 0.08142183 0.05152512 -0.0013666333 0.016834235 -0.011003302
-0.078993015 -0.053823546 -0.061080933 0.02633605 0.007950406 0.067977615 -0.055782747 0.048638675
0.008265599 0.10028176 0.12424642 0.095845155 -0.09423009 -0.027818464 0.047660284 0.12985477
-0.049577087 -0.08906477 0.020086313 0.103445046 -0.040785413 0.009184517 0.020631514 0.09959996
0.079466544 -0.0008531546 0.063865714 -0.07479634 -0.05670952 0.022294413 -0.01629863 0.09533611
0.0677299 0.04803875 0.0010739102 0.0060799685 -0.03779107 0.011618073 0.006642011 0.0015942685
0.004475135 -0.013577324 -0.012208643 0.0142813325 0.029746436 0.06305224 -0.025198454 -0.067588985

encoder.4.weight f4 [32, 64]
00000000: eee7 98bd 19d4 573d d90e adbd 62c7 e6bd
00000010: 6c84 893c da3a 85bd 9d83 933b 426c 0dbe
00000020: 03ca 50bd 71da b53d 66ca 0dbe bc6d 9d3d
00000030: d6a7 ecbd 3598 3abe cd8c d13c 0c74 c4bd
00000040: 428e a4bd 70a0 f53c 2fd7 8a3d 4664 253d
00000050: 80ca c73a ccdc 0f3e 383e f7bc 511c a1be
00000060: d0ae e23c 3cb7 9e3c e78f ff3d 24a1 0dbe
00000070: 4099 4abd fbb7 ad3d a658 bfbd 2254 c23d
00000080: 522b 0bbe c493 0ebd 3bd8 b8bc 48a0 f1bd
00000090: 627b 4f3d a7bb 963d 7458 62bd ff8d 623d
000000a0: 1175 4cbe 9524 35bd f7c3 00be bb34 453d
000000b0: b03a 5c3d e256 bcbd 516b fd3d f5eb 22bd
000000c0: 4207 f0bd d824 353e f7e9 acbc 7590 e53d
000000d0: 3463 72bd a3e2 8d3d 2efa cfbc 306f 8d3d
000000e0: 0b3b f7bd 1836 8a3c c84e d3bd c4f6 c7bc
000000f0: 9b3b 6a3d d83f ea3c a0dc ea3b d08b 4dbc
00000100: 2a7f c43c 8710 603b 66f6 5c3d d3d5 11bd
00000110: 91ed fd3d a098 99bc a612 f63d eccd b2bd
00000120: 2c45 dcbd 3620 bb3d f5d7 3abe c290 5dbd
00000130: 8211 fb3d 0ab7 98bc c818 07be bae4 4bbd
00000140: 08c5 56bd 4344 82bd 4e47 f53c 9202 f13d
00000150: ecd3 a63d 5b0f 393d a3d6 e6bd 3298 0b3c
00000160: 9800 de3c c14a eb3d 3b4f e33d a9c1 5fbd
00000170: fb1a d7bd 768f 4c3d 6086 dfbb c0cf b73d
00000180: 9a86 973c 7394 e83d d3b9 ac3d e113 373d
00000190: 3370 4c3d f59a 05be 4dc6 d83c eecf 753c
000001a0: 4e62 603d d406 1b3e 13c1 ae3d 5850 923d
000001b0: 24b4 d4bd c01b 08be 03eb 953d 3df7 17bd
000001c0: e648 cabd 60e5 153e cb19 983d 7bb1 ea3d
000001d0: d91c 2abd 131f eb3d 9018 103d acd8 833d
000001e0: 9e13 d93d 83aa d53d 6e4d b4bc a20d 60bd
000001f0: ba2c df3d ffaa 50bd db90 ed3d 7f86 07be
00000200: c4ae c4bd a02f bfbb a4b0 fcbd e4bb 893d
00000210: 84e6 c43d 1059 fbbd 0093 093a b833 f5bc
00000220: 5ce1 25bd 4064 2e3b 0885 ccbc f04f 1f3c
00000230: 00c9 333d 0c5d f1bd 80f5 edbc bef0 f73d
00000240: 383a c6bd 2e2f f2bd 1051 abbd 864b e0bd
00000250: 3858 a3bd 1000 13bc 3afd 903d 5039 c13c
00000260: 5093 b5bd 40e2 c63b c0a0 04bc 60fd 813b
00000270: 581f e5bc f064 68bc 301f 14bc f6db f6bd
00000280: e08a 0a3c 6c7b 20bd 9c59 293d 783d 613d
00000290: 96b8 a8bd 8c2f 43bd 24f7 53bd 6016 fbbc
000002a0: 5a86 d9bd fc9a 6fbd 10a7 f8bd 9e40 cabd
000002b0: 6ec4 b4bd 96d5 923d 209e adbd be2b 84bd
000002c0: 9c83 bf3d 3860 f1bd 2c3d 78bd c0e3 d33d
000002d0: 5c5e a43d c813 ffbd e4ea 3cbd f078 0cbc
000002e0: 6032 cdbb 4ef6 ba3d dc48 89bd f8eb bbbc
000002f0: 1e09 863d 5427 7c3d e0ad 0abd d0c9 54bd
00000300: 55b6 8fbd 55a6 02be e4be 6b3c ec26 d43d
00000310: 1be6 12be 888e 05bd a72d 9d3d 09ed e5bd
00000320: 96f3 343e 8580 3e3c 6896 ce3d e55d 13bd
00000330: ca7f cb3d efa8 243e 5cb2 a53d c07e b43b
00000340: 606a 51bd f996 b6bc 4445 80bd e059 9dbd
00000350: 5aa5 ebbd dda0 9c3c e18c bbbd 75bd 67bd
00000360: 00a6 1b3d 98e3 b73c 2379 e73c b6c4 9fbd
00000370: f691 bbbd 6b42 813c 7a98 ca3d 76ab 6f3d
00000380: 5a0d 913c 7bd7 e03c 80aa 343d 9ff5 09bd
00000390: 4a35 2b3e 302f 9a3d 5125 10bc 88b3 cdbd
000003a0: d9ae c0bd f35c 5ebd aa07 803d f527 7cbc
000003b0: ab11 00be 6a9e c43d 0770 05bd 0c20 1c3c
000003c0: 08a6 1abd e648 82bd fef3 c0bb 8561 fa3d
000003d0: 3488 a6bd d031 803c 48f3 ebbc 654f 1c3e
000003e0: d7f3 113e c50d 29be d02e 6c3c 4641 22be
000003f0: 1332 94bd c379 bbb9 0c74 933d 0ad6 5dbb
-0.07466112 0.052692506 -0.084500976 -0.11268498 0.016786776 -0.06505366 0.0045017735 -0.13810828
-0.050973903 0.08879555 -0.1384674 0.07686946 -0.1155545 -0.18222125 0.025579834 -0.09592447
-0.08034946 0.02998373 0.06779324 0.04037883 0.0015242845 0.14049071 -0.030181035 -0.31466916
0.027671248 0.019374482 0.12478619 -0.13831002 -0.049462557 0.08482357 -0.0934308 0.09488703
-0.13590744 -0.03480889 -0.022564044 -0.11798149 0.050654776 0.073600106 -0.055260137 0.0553112
-0.19966532 -0.04422434 -0.12574755 0.04814599 0.053766906 -0.09196259 0.123739846 -0.039775807
-0.11720134 0.17689836 -0.021107657 0.112091936 -0.05917664 0.06927993 -0.02538785 0.06905973
-0.120718084 0.016871497 -0.10317761 -0.02440966 0.05718575 0.028594896 0.007167414 -0.012545541
0.023986418 0.0034189539 0.05394592 -0.03560431 0.12398828 -0.018749535 0.12015276 -0.08730683
-0.10755381 0.09137003 -0.18246444 -0.05409313 0.12259199 -0.018641967 -0.13193047 -0.049778678
-0.052433997 -0.06360676 0.029941227 0.117680684 0.0814589 0.04518066 -0.112714075 0.008520173
0.027099892 0.114888676 0.110990964 -0.054628048 -0.10503193 0.049941503 -0.0068214387 0.08975172
0.0184968 0.113564394 0.08433881 0.044696692 0.04991169 -0.13047393 0.026461745 0.015003188
0.05478125 0.15139323 0.0853292 0.071442306 -0.103859216 -0.13291836 0.073202156 -0.03710102
-0.098771855 0.14638281 0.074267946 0.11459633 -0.041531418 0.11480536 0.035179675 0.06437811
0.10599445 0.10432913 -0.022009578 -0.0547005 0.10897203 -0.050944325 0.115998946 -0.132349
-0.096036464 -0.0058345348 -0.12338379 0.067252904 0.0961428 -0.12272847 0.000524804 -0.029931888
-0.040498123 0.0026610047 -0.024965778 0.009723648 0.04389286 -0.117853254 -0.029047728 0.12106465
-0.09679073 -0.11825405 -0.08365071 -0.10951905 -0.07975811 -0.008972183 0.07079549 0.023586899
-0.08865988 0.0060694516 -0.008094966 0.003966972 -0.027969047 -0.014184222 -0.009040639 -0.12053673
0.008455962 -0.039180204 0.041345224 0.05499026 -0.08238332 -0.047652766 -0.051749364 -0.030650318
-0.10621329 -0.058497414 -0.1214124 -0.09875606 -0.088265285 0.071696445 -0.084774256 -0.06453656
0.09351274 -0.117859304 -0.060605213 0.10346174 0.0802581 -0.12454945 -0.046122447 -0.008573756
-0.0062621087 0.0912901 -0.0670335 -0.022939667 0.06544708 0.061560944 -0.033857226 -0.051950276
-0.07017199 -0.12758763 0.014388774 0.10358986 -0.14345591 -0.03260663 0.07674723 -0.112268515
0.17671046 0.011627321 0.100872815 -0.035978217 0.09936483 0.16080068 0.0809066 0.005508274
-0.051126838 -0.022288786 -0.06263211 -0.07683158 -0.11506148 0.019119674 -0.0915773 -0.056577165
0.038000107 0.022447392 0.028256005 -0.078011915 -0.09158699 0.01577874 0.09892364 0.058513127
0.017706562 0.0274465 0.044107914 -0.03368151 0.16719547 0.075285316 -0.008797959 -0.100440085
-0.094083495 -0.054287862 0.06251462 -0.015390386 -0.1250674 0.096005276 -0.03257754 0.009529125
-0.037755996 -0.063615605 -0.005888461 0.122256316 -0.081314474 0.015648752 -0.028802529 0.15264662
0.14253174 -0.16509159 0.014415458 -0.15845212 -0.072361134 -0.0003575814 0.071998686 -0.00338495

encoder.4.bias f4 [32]
00000000: 78cc dbbc 616a a63d 6882 463d 4a85 d7bd
00000010: c664 98bd 8f95 01be 2004 93bc 1ff4 873d
00000020: 9002 42bd c203 983d b7ba ea3d 1eaa 87bd
00000030: e535 253d 5ecc d43b 7f9b c93d b470 5cbd
00000040: 8a59 95bd 22e5 dc3d 8986 86bd 9232 e7bc
00000050: 8527 2dbd f52a 96bd eb58 97bd 34c6 02bd
00000060: 64d2 b63d 8524 cb3c 4299 46bd 4f53 d43d
00000070: d8b7 f2bc 5721 a73d 7ace ee3d 09b8 163d
-0.026830897 0.08125759 0.04846421 -0.1052347 -0.07441096 -0.12654708 -0.017946303 0.06638359
-0.047365725 0.07422592 0.11461394 -0.06624244 0.0403346 0.006494089 0.09844112 -0.05381842
-0.07292469 0.10785891 -0.06568629 -0.028222356 -0.042274017 -0.07332412 -0.07390007 -0.031927302
0.089268476 0.024797687 -0.048486 0.10367452 -0.02962868 0.08160656 0.11660476 0.036796603

encoder.6.weight f4 [8, 32]
00000000: ee43 48be a344 c9bd 5cc2 3a3d 6d90 af3d
00000010: 4073 eb3c 9d2d 36be e45c 85bd 7a88 3a3e
00000020: 4242 ccbd 9278 0b3e b185 03be 5e83 e9bc
00000030: cb7a 32be 224e 31be e5b6 1c3e 371f 983d
00000040: 0e22 573e c419 d1bd 4101 e83d ff75 28be
00000050: a10b ecbc 03d1 f4bc c07a a23d 8b98 b2bd
00000060: 58a0 693d 3050 2dbe 75c6 673e 40e6 26bd
00000070: 4cef 2f3d fd4b 1f3e 49ca 54be fe4b 9abd
00000080: b063 ce3c 3006 bb3d 92a4 09be 1cef a7bd
00000090: 6872 4cbd 2c30 1d3e e9de e23c e680 b93d
000000a0: 96ef f13d 0df8 f93d b248 25be bd4d c43d
000000b0: f9e4 13be 8453 4abd 1a55 bfbd d2f1 30be
000000c0: 6d3a 8b3d 23da 1bbe fbaa 263e bbd7 23be
000000d0: d9e6 b3bd 0fa0 04be fbd4 d6bc db43 013e
000000e0: 4d7d f2bd db09 213e 5022 0fbd 7b9c 413d
000000f0: 20bb 44bc 20f7 5e3c 3459 ccbd 4c3b 9c3d
00000100: 78f9 f5bd 1b09 26be de68 de3d d3ca 8a3d
00000110: 80ae 893c 9ee0 453d 946e d03c 63e0 c6bd
00000120: c0b4 dc3c 02eb 27bc 73c7 ab3d d055 a5bd
00000130: 1ecc 9fbd 5333 833c c937 df3d 1905 f6bc
00000140: 4e11 fbbd 857c 05be 3989 9f3d 6e6f 58bb
00000150: 922c 9ebb 296e 0d3d 89d9 2abe 44e5 04be
00000160: 54a6 133e ea2c 34be 3de5 d4bd 52dd 6c3c
00000170: 9a6c bd3d b823 f03d 7316 3b3d 4f1f 813c
00000180: 3171 623e 1fce 053e ef63 a2bd 471d 32be
00000190: 1068 953c e5cd acbb 66f9 08be c2b7 6fbe
000001a0: 10b6 1cbe a74d a2bd 7e09 b1bc 73bd 013e
000001b0: d961 88bd 2e0c 173d 7ca5 cb3d d9d2 383e
000001c0: c06a 33bd b41b ed3d 271e ed3d 404d 22be
000001d0: e24a 8fbd f3f5 4d3e 74d4 08be d11b 15bd
000001e0: 42d9 243e aa3d e7bd a952 06be dc3b 513e
000001f0: 8065 2abb ba3c 61be 2eab 17be 457f a8bd
00000200: 4071 723e 65c9 e1bc f0a2 2dbd 93b7 813d
00000210: 8c7f 42bd 4d3f babd a707 c4bd ffb3 9cbd
00000220: c686 fd3d 7022 463c 4533 6f3d 7bde 9a3d
00000230: 73ce b83d 2cde 3c3e 5ea4 70bd 17ec d43d
00000240: 288d e3ba ccff 2f3e 07be 1ebd 4fc6 6a3b
00000250: 06f3 6f3d f293 003b 8913 0ebe c7ce ef3b
00000260: a7a7 0f3e 0c0b e2bd e6cd edbd 2a56 42bd
00000270: fed1 01be cf82 41bd f239 f9bc ebce 393e
00000280: f7d9 d2bd 0c16 cb3d 2006 aa3c 6d4b 293e
00000290: 80e9 c43c 219f 18be d7b8 f8bd 6108 ca3c
000002a0: 005d 1ebc 7223 4e3d aa92 44bc 5f2f b73d
000002b0: b233 1fbe 735e 013e 0a68 17be 70f0 e43d
000002c0: 75f9 9cbd cf7b aa3d a73f ecbd c912 4dbd
000002d0: 5a7a bbbd 432b c8bc 3013 0c3e 6a84 19be
000002e0: 91f4 d43d 4d1f 0ebe 5d4d 903d c8fb e43c
000002f0: 1347 05be 8a95 46bd c881 163e ac3a c93d
00000300: e380 1bbc 650c 20be cf8c a1bd 7602 45be
00000310: cbb9 033e 4453 b7bc c548 33be ac47 f2bd
00000320: 73dc 263e 8456 e4bc 8de4 1ebe d04e 0d3e
00000330: 3897 2fbc 0bbd 323e 7f4f 75bd fc9d 43bd
00000340: 1e13 4bbe f527 a4bd 01ee 3cbc f11b 0dbc
00000350: a5e9 32be c030 863d c873 1d3e 75f0 23be
00000360: 2270 c4bd 4971 ccbd 3aa5 3dbe 6fd8 0d3c
00000370: 7a64 18be 2a89 edbd 4aff d23d 9390 0dbd
00000380: c8f9 99bc ebd3 3abe 8e38 f4bd fe00 3f3e
00000390: 0f60 26be fca2 823d 5413 dabd 6402 ccbc
000003a0: 9604 c23d 2ce5 b43c e846 3bbe 2267 c5bc
000003b0: 5e34 cdbd 8d38 f73a 2fa8 583e ae4a 3f3d
000003c0: 2efb 143e dec4 d23d e46f 48bd 2a32 ff3d
000003d0: 5ed7 18be 0127 e3bd 47b5 95bd e7a1 24be
000003e0: 95ff 3abd fae3 923d de63 9ebc 939c 7dbd
000003f0: 736d 17be 5405 eebd db2d 41be 2c8d 28be
-0.19557163 -0.098275445 0.04559551 0.08572469 0.028741479 -0.17790838 -0.06511858 0.18216124
-0.09973575 0.13620213 -0.12843968 -0.028505024 -0.17429654 -0.17314962 0.15304144 0.07427829
0.21009085 -0.102099925 0.11328364 -0.16451262 -0.028814139 -0.02988482 0.07933569 -0.087205015
0.05703768 -0.1692512 0.22634299 -0.040746927 0.04295282 0.15556331 -0.2078029 -0.075340256
0.02519402 0.091320395 -0.13441685 -0.08199903 -0.049913794 0.15350407 0.027694182 0.090577886
0.118132755 0.12205515 -0.16141012 0.0958514 -0.14442815 -0.049396053 -0.09342404 -0.17279747
0.06798253 -0.15219931 0.16276161 -0.16000263 -0.08784265 -0.12951683 -0.026224604 0.12623541
-0.118403055 0.15726416 -0.034944832 0.047268372 -0.012007505 0.013608724 -0.09977952 0.076284975
-0.12010473 -0.16214411 0.108598456 0.06776967 0.01680684 0.048309915 0.025443353 -0.09710767
0.026941657 -0.010248901 0.08387651 -0.08073008 -0.07802604 0.016015684 0.10899312 -0.030031728
-0.1225916 -0.13035782 0.07789845 -0.0033025402 -0.0048270905 0.034528885 -0.16684546 -0.12978083
0.14418918 -0.17595258 -0.10395286 0.014457064 0.0924923 0.11725563 0.045675706 0.015762
0.22113492 0.1306691 -0.07929217 -0.17393981 0.018238097 -0.005273568 -0.13376388 -0.23409942
-0.15303826 -0.07924967 -0.021610972 0.12669925 -0.06659288 0.03687685 0.09943673 0.18049182
-0.043802977 0.115775496 0.11578017 -0.15849781 -0.06996705 0.20113353 -0.13362294 -0.03640348
0.16098502 -0.11291058 -0.1311747 0.20432991 -0.002600044 -0.21995822 -0.14811394 -0.082274
0.23676014 -0.027561853 -0.042391717 0.06333842 -0.04748492 -0.09094105 -0.09571772 -0.07651519
0.123792216 0.0120931715 0.058398504 0.07561966 0.09023752 0.18444127 -0.058750503 0.10396593
-0.0017360793 0.17187423 -0.038755443 0.0035823768 0.058581375 0.0019619432 -0.1387464 0.007318351
0.14028798 -0.11037263 -0.11611538 -0.047445454 -0.12677762 -0.04724389 -0.030423138 0.18145339
-0.1029548 0.099163145 0.020754874 0.16532679 0.024037123 -0.14904453 -0.121446304 0.024662198
-0.009665728 0.050326772 -0.011997858 0.08944582 -0.15547064 0.12633686 -0.14785782 0.11178672
-0.07664768 0.08324396 -0.11535578 -0.050066743 -0.09154196 -0.024434691 0.13679194 -0.14991918
0.1039821 -0.13879128 0.07046006 0.02795209 -0.13015394 -0.048482455 0.14697945 0.09825644
-0.009491178 -0.15629728 -0.07888185 -0.1923922 0.12863843 -0.022378571 -0.17508228 -0.118300766
0.16295032 -0.027873285 -0.15516873 0.13799596 -0.010717206 0.17454927 -0.059890267 -0.047758088
-0.19831511 -0.08015434 -0.011531354 -0.008612619 -0.17471941 0.06552267 0.15376198 -0.16009696
-0.095917 -0.09982545 -0.1852006 0.008657559 -0.14882079 -0.115984276 0.10302599 -0.034561705
-0.018795863 -0.18244903 -0.119248495 0.18652722 -0.16247581 0.06378743 -0.10648218 -0.024903484
0.09473531 0.022081934 -0.18288767 -0.02409703 -0.10019754 0.0018861458 0.21157907 0.04670208
0.14548942 0.10291456 -0.048934832 0.1246074 -0.14925906 -0.11091424 -0.073099665 -0.16077386
-0.0456539 0.07172389 -0.01933473 -0.0619169 -0.14787845 -0.1162211 -0.18865149 -0.16460103

encoder.6.bias f4 [8]
00000000: 4090 f63b ed29 013d 530d 843d b6d6 393e
00000010: aea8 b03d f6a1 98bd cef3 f93c ba99 fd3d
0.00752452 0.031534124 0.06447854 0.18148312 0.08625923 -0.074527666 0.030511763 0.12382837

decoder.0.weight f4 [32, 8]
00000000: 88f5 0ebd e2f7 323e 19a1 8bbe ed70 a0be
00000010: 6ba5 723e e8d2 443e c205 c4be f89e 20be
00000020: 7eb6 45be a6a3 643e 21fc 5fbe 804d ec3d
00000030: 0cf9 6bbe 139f 85be 000b 5f3b 7017 c3bd
00000040: 784b 06be 3435 2ebe df3c 27be f6f2 e33d
00000050: 77ae 873d d13c 22be c63f 86bc 9044 0d3e
00000060: 7e18 91bd c121 1cbc d638 5a3e 44d2 1abc
00000070: 53d8 8b3e eb87 963d ea05 d4bd 1f2b 633e
00000080: 194e 4dbc d247 58be 6c17 b4bd 4220 14bd
00000090: 5ce0 af3b ad97 453e 3c5e 74be 5f95 8fbe
000000a0: 6c9a 81be aa17 8bbe 2a51 363e eefb c83e
000000b0: 9bbb 9dbc 1518 4f3e f2e3 753e 0bbb 7b3e
000000c0: d21e a03e d696 953e 18d0 84be 7341 a7bd
000000d0: 6c74 aebe 0d6e 683d f2b9 8fbd 317f b33e
000000e0: d705 29bd 6af1 503e fa0c 993e d463 1ebe
000000f0: 48ca 99be 5d95 18be 53e4 46be de4c b5be
00000100: 6e56 12be 78a5 78be f21c 69be 0ce3 593b
00000110: 6304 a93e 58da 6bbd cc16 403e 7a1d 9fbe
00000120: e1cd a03e 5c16 0fbe 9f6d 95be 4176 69bd
00000130: 04a8 0d3c 2937 783c f5d4 57bd ab8c ae3e
00000140: a29c e0bd 4915 833e 7e4b 6e3e 4b24 733e
00000150: 041a a23e c5b9 0bbe 6035 c6bd b0c8 21be
00000160: 53a4 243e bb75 883c b2fb 1bbb 9548 8ebd
00000170: ca21 71be 7f75 1b3d 4dd0 96bd ff1a 863e
00000180: 2077 0ebe 2ba2 d73c c043 c33e a33a ffbd
00000190: 0856 323e 6d13 1c3e 4986 063d 3b1e 7c3e
000001a0: 79ee 95be 1c05 1e3e 9cd6 213e fc5c 4b3e
000001b0: a646 993c 9f5d 523e fc60 97be 040a 53bc
000001c0: 33eb a9bd c09d 82be e9fb 973d aa2b ba3c
000001d0: c352 7a3e eb26 bd3d 77a5 c7bd 6e5e 86be
000001e0: f9b0 833e 8b26 8e3e d78c e6bc 8400 bd3e
000001f0: cbb5 4a3d 3f15 a23e 2f00 44be e393 95be
00000200: 7434 90be 6a65 f1bd b704 0a3c 0cc8 c93e
00000210: eba8 b43e 7c67 f2bd 5efb 83be 299c 09be
00000220: c557 fc3d 33c5 c0bc 2490 843e 50d8 b8be
00000230: 645c b3be 3427 473d 387f aabd 0a03 0f3e
00000240: 4d23 a83e 5f26 c6bd e4bf 853e bf00 83be
00000250: 5a5b 9fbd 16f2 9cbd 1fd0 b93d 5ef1 c43e
00000260: 7623 6dbd 6b40 b03e b2b3 b33d d335 2ebd
00000270: 4f58 6c3e 031c f0bd a288 093e e6ea 97be
00000280: 3599 0b3e b1f2 3b3e 8df3 9bbe 6737 68be
00000290: 26d1 2e3e 18ed 523e 3cce 6dbc 624c 593e
000002a0: c12e b83e 4e4d 233d 5b3c 53be 5d85 5b3e
000002b0: 6f26 6c3d 97bf f7bd 956b 533d 98a7 8cbe
000002c0: 6bbd 75be 0226 40bd ea15 563e 26d6 7cbe
000002d0: 1f4c 3dbd a181 a93d df56 08bd ff5c 923e
000002e0: 132e 66be 0877 60be 3db6 6bbe 2524 ccbe
000002f0: 306d 543e d33c 993e 99e6 a1be 3405 88be
00000300: 8d63 a4be d00e b5bd 8d8f 4cbd 6807 ae3d
00000310: dd2a 93be b824 423e cb7e 893e 56d2 48be
00000320: d9d0 8d3e cff5 84be 5bc1 cb3b 16fb 4ebe
00000330: 7bd9 5ebe f0d5 86be 2b6d 5bbd bc10 1bbe
00000340: 5759 32bd 3e1e 6e3d d0a4 8bbe 2363 18be
00000350: d141 f43d 3a74 c6bd f820 363e 5850 7d3e
00000360: 1434 943e add0 78be 68ea 97be 4818 143d
00000370: c352 d5bd f798 25be 3b2d 33be a5a2 5cbc
00000380: 0556 8abd 38e6 953d 113e 9dbe fd26 c4bd
00000390: f74d f63d d623 2b3e b09d 9b3e 19dd 89be
000003a0: 1d17 91be a8ac 98be adfa dc3d de64 b03e
000003b0: 47a2 9bbc 57b0 b23d 659f 263e 49fa 40be
000003c0: 1fd1 b9be 9784 9ebe b7c3 d6bd 2110 88be
000003d0: 9303 a43e d615 533e 26e9 92be 94fb 1e3e
000003e0: f154 a5be 19d4 bebe d4f4 aabe 7f3b c5bd
000003f0: 757c 8fbe 21d6 ab3d 98a0 6f3e 587f 583d
-0.034902126 0.17477372 -0.27271345 -0.31336156 0.23695914 0.1922108 -0.38285643 -0.15685642
-0.19307896 0.22328052 -0.21873523 0.115382195 -0.23044223 -0.26097926 0.0034033656 -0.09525955
-0.13114727 -0.17012483 -0.16331814 0.111303255 0.066250734 -0.15843512 -0.016387831 0.13795686
-0.0708475 -0.009529532 0.21310744 -0.009449545 0.2731348 0.07350143 -0.103526905 0.22184418
-0.012530827 -0.21121147 -0.0879353 -0.036163576 0.005367322 0.19296141 -0.23864073 -0.2804365
-0.25313127 -0.27166492 0.17804399 0.39254707 -0.019254496 0.2022403 0.24012735 0.2458307
0.31273514 0.2921664 -0.25940013 -0.0816678 -0.34073198 0.056745578 -0.07017888 0.35057977
-0.041265335 0.20404592 0.29892713 -0.15467769 -0.3003714 -0.14900728 -0.19423036 -0.35410208
-0.14290783 -0.24281871 -0.22764948 0.0033246903 0.3301116 -0.057581276 0.18758696 -0.31077176
0.31407073 -0.13973373 -0.29185197 -0.05699754 0.008646015 0.01514987 -0.052693326 0.34091696
-0.10967375 0.25602177 0.23270985 0.23744313 0.31660473 -0.13645084 -0.09678149 -0.15799212
0.1607831 0.0166577 -0.0023801145 -0.06947438 -0.23548046 0.03795385 -0.07363949 0.2619247
-0.1391263 0.026322445 0.38137627 -0.12462356 0.17415631 0.15241785 0.032842908 0.24620907
-0.29283503 0.15431637 0.15804523 0.1985969 0.018710446 0.20543526 -0.2956618 -0.012880806
-0.08296814 -0.2551098 0.07421095 0.022725899 0.24445634 0.09235939 -0.09748357 -0.2624392
0.25720957 0.2776378 -0.02814333 0.36914456 0.049489778 0.31656834 -0.19140695 -0.2921439
-0.2816502 -0.11786921 0.008423976 0.39410436 0.35285124 -0.11836144 -0.25777715 -0.13438477
0.12321428 -0.023531532 0.2589122 -0.36102533 -0.35031426 0.04862137 -0.08325046 0.13966003
0.32839432 -0.096752875 0.26122963 -0.25586507 -0.07781096 -0.07663362 0.09072899 0.384654
-0.057895146 0.34424147 0.087745085 -0.0425318 0.23080562 -0.11724093 0.13431028 -0.296714
0.13632663 0.18354298 -0.30459252 -0.22677384 0.17071971 0.20598257 -0.014514502 0.21220544
0.3597317 0.039868645 -0.20628493 0.21437593 0.05765384 -0.1209709 0.05161627 -0.27471614
-0.23998038 -0.046911247 0.20906797 -0.24691066 -0.046215173 0.08276678 -0.03328597 0.28586575
-0.22478513 -0.21920407 -0.23018737 -0.39871326 0.20744777 0.29929218 -0.31621245 -0.2656647
-0.321072 -0.08840716 -0.04994159 0.084975064 -0.2874364 0.1895932 0.26854548 -0.19611487
0.276984 -0.25968787 0.006218118 -0.20212969 -0.2176265 -0.26335096 -0.053570908 -0.15143102
-0.043542232 0.05813431 -0.2727418 -0.14881568 0.11926616 -0.09690137 0.17786014 0.2473768
0.28945982 -0.24298353 -0.29671025 0.03615597 -0.10416176 -0.16171633 -0.17497723 -0.013466512
-0.06754688 0.07319301 -0.30711415 -0.09577749 0.12026589 0.16712889 0.30393744 -0.26926497
-0.28337947 -0.29819226 0.1079 0.34451956 -0.018998278 0.087250404 0.16271742 -0.18845476
-0.3629236 -0.30960533 -0.104865484 -0.26574805 0.32033977 0.20613798 -0.28693503 0.15525657
-0.32291368 -0.37271193 -0.33389914 -0.096304886 -0.2802464 0.08390451 0.23401105 0.05285582

decoder.0.bias f4 [32]
00000000: a9dc 30be 4f60 85be 5a80 a73e f471 93be
00000010: 239b 36be fded 113d 8a5c 38bd c88e 17be
00000020: 2cdd b6be 986f 0cbe c39f cebd ebb1 0dbd
00000030: b072 8dbe 17fc de3b 4c05 adbe 545b 0d3b
00000040: 1b9a fe3c 8cfc 263e 5d05 c43c d520 debe
00000050: 94e6 773e 20e4 cabc 7268 31be 7e10 76be
00000060: 6569 c2bd 0e75 cdbc 5619 b0bd 4df6 ce3e
00000070: 3384 353e 28b2 b1be 3c3f ac3d 8fdc 0c3e
-0.17271675 -0.2605004 0.32715112 -0.28797877 -0.17832617 0.035627354 -0.045010127 -0.1480056
-0.35715616 -0.13714445 -0.10089066 -0.034593504 -0.27626562 0.006804954 -0.33793104 0.0021569328
0.031079343 0.16307276 0.023928339 -0.43384424 0.24209052 -0.024766982 -0.17324999 -0.24029729
-0.09492759 -0.02508023 -0.085985824 0.40422288 0.17726211 -0.34706235 0.084104985 0.13756011

decoder.2.weight f4 [64, 32]
00000000: 0f2b a4bd 5000 d6bd e41d 7439 3ff2 103e
00000010: 34e5 df3d 3b34 093d 9c6d 59bd 3035 9ebd
00000020: 788a 85bc 17dd 45be 3f18 173e 22b9 19be
00000030: 462b 113e 5fd3 0e3c 1de9 1c3e 3857 fc3d
00000040: 54d7 04bd a33b da3d 0470 38be cc87 03bd
00000050: e9a5 f8bd 677b edbb bfb8 da3d f8b8 c23d
00000060: dc4b fbbc 7963 bdbd 55b3 30be 49f5 153e
00000070: 7aa4 a3bb abee d23b 1d11 a4bd 4736 013d
00000080: 3025 c3bd ec7e 26be 4f2b 313d 61ac febc
00000090: 3b5c 9fbd 6a5d 21be 81a5 e7bd f7ff 37be
000000a0: 54f7 13be d084 583e aa69 a6bd ef2f 0f3d
000000b0: fe07 a13d 6b5c d83d b530 88bd c0c1 58bd
000000c0: a1cc cd3d ae4e 38be 1558 883d 5c02 50bd
000000d0: da71 de3d 9280 89bc bae4 1abe 3308 c23d
000000e0: 96f0 eabd 4115 1cbd e84d 223d 2588 a13d
000000f0: fa8f fabd 2477 f63d a28c 233e 0050 783d
00000100: 1976 07be bb5c 21be 0c3a 24be 3053 31be
00000110: 04cf 253d 63aa 78be eb55 453d 5fd1 02be
00000120: c004 9e3d c353 ac3d 25b0 04bc 2c7e 363e
00000130: 161f 9e3c a15e bcbd afab 9d3d 16ec 4bbb
00000140: f007 17be 6c74 173e 130b b8bd 5558 cc3d
00000150: e916 ec3d 6efc 33bd f746 a4bd e29f 063e
00000160: 624a ab3d a252 eb3d a846 aabd 8135 43bb
00000170: 5a2d 9e3c 410e 84bd 128b f1bc 9a0b 023e
00000180: f010 353c cabd b1bd 6ca7 1e3d 244a 1d3e
00000190: 6a1e 243e e38a c9bd 8f1d 023e 898a a5bd
000001a0: f6c4 08be 1c4b 5b3e 515b 303e 6645 2f3e
000001b0: f796 9d3d 50a5 d4bd 2464 bbbd 16de 92bd
000001c0: 6d1b 253e f9ba 0b3e 3d80 ca3d edf8 363d
000001d0: c04d 61bd 67ca 6abd 2761 b2bb a7ed a6bd
000001e0: a5a0 a53d 26d2 153d 9072 d83b 6f45 b7bd
000001f0: b195 2d3d be05 99bd efe8 d43d 889a a13c
00000200: 4eeb e43c 20f6 e83b 5a74 0cbe 2acb f73d
00000210: 5133 08be f50f 93bd 6d51 183e 444e 043e
00000220: 3557 84bc 24d1 37bd 8203 04be aeb4 c8bd
00000230: 2917 023e b54f aa3d 9096 2cbe fbd3 cf3d
00000240: 692d f93d a31b e1bd 8040 f73d 8cba 1a3d
00000250: 8915 c0bd c53a 003e fac1 df3d 43e7 9cbd
00000260: 587b 75bd 2f2f 423d 90f0 15bd e119 24be
00000270: f1e7 d93d 392c 8c3d 2e1a c2bb 6a9b ab3d
00000280: 47bb cebd a1cf c1bd 4d01 9bbb f116 9fbd
00000290: c761 11bd 4de5 29be 085f 873d 2a9a b13c
000002a0: 47d0 b2bc 755d 35bd 4c82 0dbe faf7 533e
000002b0: 6fd2 8abd 5913 98bc 228c 1abb 374a 653d
000002c0: efe3 87bd 8a41 ff3d a7b7 1b3e 2cd0 193d
000002d0: b4e2 e53d 821b 8e3d a7f3 123e 25c6 16be
000002e0: bbd9 13be 8c45 173e e678 69bd d3a2 edbd
000002f0: 84c4 873d 4544 74bc 013f 183e d69d 853d
00000300: 6fef 273e 795f 173e 804d 573c 5033 6ebc
00000310: a027 93bb 81a0 a4bd 15e0 0a3e 9052 883c
00000320: b8c3 f33c 916c 95bd 377c 2f3e aed4 fe3d
00000330: 0076 9abb 71c7 b0bd 1221 ff3d 278e d8bd
00000340: f6c9 10be beb7 0fbe d994 2dbe d24f 953d
00000350: 08dd edbd cbf0 313e b590 173e 2b78 17be
00000360: 9251 61bd c4c4 acbd 80d1 583c 88cc b23c
00000370: 9805 20be 6899 853d 960b c13d 4dbe a0bd
00000380: 218b 26be a0a1 81bd 2399 493e 8fe0 7fbc
00000390: 9b6e 183e a548 113e 3b80 9bbd fc8f 84be
000003a0: 7a70 d6bd e735 b3bd f7f2 77bd 9e31 22be
000003b0: 68ad 963d 0115 c5bd 6dbd 2abe 6702 94bc
000003c0: 65ca 403e 3678 02be a7d6 4dbe 8859 45be
000003d0: d627 18bb 0ed1 1c3e a8cc 6dbd 650c c2bc
000003e0: d6f3 913d 48c5 a9bb f9b1 2ebe 4d44 c63c
000003f0: 5838 a13c 5254 bcbb f314 28bb da8b 0b3e
-0.08016025 -0.10449278 0.00023280788 0.1415491 0.10932389 0.033497076 -0.053083047 -0.077249885
-0.016301379 -0.1932262 0.14755343 -0.15012029 0.14176664 0.008717387 0.153233 0.12321323
-0.032431915 0.10655906 -0.1801148 -0.032111928 -0.1214102 -0.0072473767 0.10679769 0.09507936
-0.030675821 -0.092474885 -0.1725591 0.1464435 -0.0049939724 0.006437143 -0.080110766 0.031545904
-0.09528577 -0.16259354 0.043254193 -0.031088056 -0.077812634 -0.15758291 -0.11310864 -0.17968737
-0.14449817 0.21144414 -0.081256226 0.034957822 0.078628525 0.10564502 -0.06649915 -0.05291915
0.100487955 -0.17998764 0.06657425 -0.0507835 0.10861559 -0.01678494 -0.15126315 0.0947422
-0.114716694 -0.038106207 0.03962508 0.07887296 -0.122344926 0.12034443 0.15971616 0.06062317
-0.13228644 -0.1575803 -0.16037768 -0.1731689 0.04048063 -0.24283747 0.04817764 -0.12775181
0.0771575 0.08414414 -0.008098637 0.17821568 0.019301932 -0.091977365 0.07698762 -0.003111606
-0.14749122 0.14790505 -0.08986487 0.099777855 0.11527807 -0.043941908 -0.08021348 0.13146928
0.08363797 0.1149037 -0.08314258 -0.002978653 0.019308735 -0.06448031 -0.02948526 0.12699738
0.0110514015 -0.086787775 0.038733885 0.15360314 0.16027227 -0.09840944 0.12706588 -0.08083064
-0.13356385 0.2141537 0.17222334 0.17116317 0.0769481 -0.10383093 -0.0914996 -0.07171266
0.16123743 0.13645543 0.09887741 0.044670988 -0.05500579 -0.057321932 -0.0054437104 -0.08150797
0.08087281 0.036577366 0.006605454 -0.0894879 0.042379085 -0.07471798 0.10395991 0.019727007
0.027944233 0.0071094185 -0.1371626 0.12099297 -0.13300826 -0.07180778 0.14874811 0.12920481
-0.016154865 -0.044877186 -0.12891963 -0.09800087 0.12704147 0.08315984 -0.1685431 0.10147854
0.121668644 -0.109915994 0.12072849 0.03777556 -0.093791075 0.12522419 0.1092567 -0.07661297
-0.059932083 0.04740828 -0.03660637 -0.16025497 0.106399424 0.06844372 -0.005923531 0.08379252
-0.10094314 -0.0946343 -0.0047303797 -0.077680476 -0.03549364 -0.16591378 0.06609923 0.021679956
-0.02182783 -0.04427858 -0.13819236 0.20700064 -0.06778418 -0.018563913 -0.002358206 0.05597898
-0.06635272 0.124636725 0.15206777 0.037552044 0.11224881 0.069388404 0.14350758 -0.14724024
-0.14438526 0.14772624 -0.057000063 -0.11603322 0.06629279 -0.014908855 0.14867784 0.065242454
0.1639993 0.14782514 0.013141036 -0.014538601 -0.0044908077 -0.08038426 0.13562043 0.016640931
0.029756412 -0.07296098 0.17137228 0.12442909 -0.0047137737 -0.086317904 0.124574795 -0.105739884
-0.14139542 -0.14034936 -0.16951312 0.07290615 -0.11614424 0.17377011 0.14801295 -0.14791934
-0.055009432 -0.084359676 0.013233542 0.021826044 -0.15627134 0.065234005 0.09426038 -0.07848797
-0.16264011 -0.06329656 0.19687323 -0.015617504 0.14885943 0.14187868 -0.075928174 -0.258911
-0.10470672 -0.087505154 -0.060534444 -0.1583924 0.07357293 -0.09623147 -0.16673823 -0.018067552
0.18827207 -0.1274117 -0.20101415 -0.19272435 -0.0023217103 0.15314123 -0.058056504 -0.02368755
0.07126586 -0.0051809885 -0.17060079 0.02420249 0.019680187 -0.0057473565 -0.0025647252 0.13627568

decoder.2.bias f4 [64]
00000000: 99cd d93b 54cd 9b3d cd66 6c3d 1500 66bd
00000010: dd3b 03bd 8f05 283b 5c1b d4bd 0dc9 e33d
00000020: 9473 533e 34c0 0cbe a881 22be 6aaf 313e
00000030: a00c c5bb ecd9 063e 4a47 3e3e 8c39 f9bd
00000040: 4615 f239 d465 d13d c643 2ebe 76a7 e2bd
00000050: 324e 1e3e e382 353b 3ca3 f0b8 d3d8 023e
00000060: c0fb 603e e1d1 403e 2cde d23d b409 91bc
00000070: d4c2 0cbe 4ed1 cb3c a337 61be 32dc adbd
00000080: d0ed b1bc c909 52bd b4e1 57bc 2a75 aebd
00000090: 3253 7c3e 9eeb 163d a0cd 033e bfb0 213d
000000a0: 823c 35be da36 15be b56b f2bd 5217 83bd
000000b0: 7f0b c33d 5fe0 0d3e 3831 003e 8f40 9f3d
000000c0: 6993 513e 86d7 b43a 46f7 b3bd bd2f 413c
000000d0: fe3c 94bc 019c 813d a748 323e 69c2 21be
000000e0: abe1 533e 56e1 42be b76d 9dbd 2903 1c3e
000000f0: 018f b8bd 2591 8c3c 3674 c1bd 0473 333e
0.0066468236 0.076075226 0.057715226 -0.056152422 -0.032039512 0.0025638079 -0.10356781 0.11122332
0.20649558 -0.13745195 -0.15869772 0.17352071 -0.006013468 0.13169068 0.18581882 -0.12169179
0.00046173687 0.102245 -0.17018041 -0.11067097 0.15459517 0.0027696423 -0.000114744966 0.12778024
0.21971035 0.18830062 0.10296282 -0.017704822 -0.13746196 0.024880078 -0.2199388 -0.084892645
-0.021719843 -0.051278863 -0.01317637 -0.08518441 0.24641111 0.036845796 0.12871408 0.0394752
-0.17698863 -0.14571705 -0.1183695 -0.06400932 0.09523677 0.13855122 0.12518775 0.077759854
0.20466389 0.0013797141 -0.08787398 0.011791167 -0.01809549 0.063285835 0.17410527 -0.15796818
0.20691554 -0.19031271 -0.07686942 0.1523558 -0.09011651 0.017159054 -0.094459936 0.17524344
