pyCode/CNN1/CNN4Window.pth (torch, 17263 bytes, 6 tensors)

conv1.weight f4 [16, 1, 3]
0	0x3e778497	0.24171673
1	0x3e9b26ac	0.30302942
2	0x40804edb	4.009626
3	0x3f5c86d9	0.8614326
4	0x3e3362b9	0.17518128
5	0x3c2d55e3	0.010579559
6	0x3cb5188a	0.022106428
7	0xbb07bc42	-0.0020711576
8	0x3c37207b	0.011177178
9	0xbb969a96	-0.004596065
10	0x3e6a0aa1	0.22855617
11	0x3d8fd7ad	0.07023559
12	0xbc2c07ef	-0.010499938
13	0xbc67ca69	-0.014147379
14	0xbfca78e6	-1.5818145
15	0xbcbc047b	-0.022951355
16	0x3ebdb04b	0.37048563
17	0xbb608f24	-0.0034265006
18	0xbc8a01c6	-0.016846549
19	0xbb77833b	-0.0037767428
20	0xc02c6181	-2.6934512
21	0xbc48a2d7	-0.012245855
22	0xbfb255c5	-1.3932425
23	0x3fb4df2f	1.413061
24	0xbd51d68c	-0.05123
25	0xbca45c9c	-0.02006369
26	0x3fe0f3bd	1.7574383
27	0xbfaabde1	-1.3339196
28	0xbb9aefff	-0.004728317
29	0xbc7506a1	-0.014955194
30	0x3e8521d9	0.26002386
31	0x3e858e0d	0.2608494
32	0x3fc5c055	1.544932
33	0x3e7cd360	0.24690008
34	0x3eae9b50	0.3410287
35	0x3e7100de	0.23535487
36	0x3d74a731	0.05972976
37	0xbd138cb2	-0.03602285
38	0x3c9e69c9	0.019337552
39	0xbf79ddb8	-0.9760394
40	0xbfc250fc	-1.5180964
41	0x3eec3751	0.46135953
42	0xbea07c34	-0.3134476
43	0x3d64cbb4	0.05585833
44	0x3f960e20	1.1723061
45	0x3e98f3da	0.29873544
46	0xbec0f5e5	-0.37687603
47	0xbf09799b	-0.5370118

conv1.bias f4 [16]
0	0xc0b5c29d	-5.6800065
1	0xbc889081	-0.016670467
2	0xbd9ecbce	-0.077537164
3	0xbf09adde	-0.53780925
4	0xba84eba8	-0.0010141032
5	0xbf2e11c7	-0.67995876
6	0xbfab5af9	-1.3387138
7	0xbfb1d027	-1.3891648
8	0xbd85328c	-0.06503782
9	0xbe2dd4ad	-0.1697566
10	0xbf799898	-0.97498465
11	0x3f1afaee	0.6053914
12	0xbe4420ad	-0.1915309
13	0xc04f193e	-3.2359157
14	0xc02ce0d1	-2.7012217
15	0xbf5a098d	-0.85170823

fc1.weight f4 [100, 32]
0	0x3e81b862	0.25335985
1	0xbf491acc	-0.78556514
2	0xc20984a5	-34.379536
3	0x3ec254a8	0.37955213
4	0x3decf0a9	0.1156934
5	0xbeddeef3	-0.43346366
6	0xbcb7a8bf	-0.022419332
7	0x3cd2f19a	0.02574997
8	0x3db74a50	0.08949721
9	0x3f01cded	0.5070484
10	0x3dc68e58	0.09695119
11	0x3e2c9463	0.1685348
12	0x3e94388c	0.28949392
13	0x4053ac59	3.3073943
14	0xbbda0d81	-0.006654442
15	0x3ff56db9	1.917411
16	0xbed459a5	-0.41474643
17	0xbf1ae04b	-0.60498494
18	0x3f35fe19	0.7109085
19	0xbe9d0d81	-0.30674365
20	0x3eca0514	0.39457
21	0xc0980d6e	-4.7516394
22	0xc04ef9d1	-3.2339976
23	0xbebf3e66	-0.37352294
24	0xbf8df0ef	-1.1089152
25	0xbe346064	-0.17614895
26	0xbe70dfc8	-0.23522866
27	0xbee9ba9a	-0.45650178
28	0x3f2f46b2	0.6846725
29	0xbf66b401	-0.90118414
30	0x3e0d7856	0.13815436
31	0x3da12a5f	0.0786941
32	0xbe0d9f9e	-0.1383042
33	0xbe781ca0	-0.2422967
34	0xc172af46	-15.167791
35	0xbd1c9193	-0.038224768
36	0x3eaef902	0.34174353
37	0x3ef6b2f6	0.4818341
38	0xbd883619	-0.06650943
39	0xbe9ca796	-0.30596608
40	0x3e7d54b1	0.24739338
41	0xc07dc7f9	-3.9653304
42	0xbe5f2432	-0.21791151
43	0xbcd548cf	-0.026035694
44	0xbeb1e1ef	-0.34742686
45	0xc09a584d	-4.823279
46	0x3d90c8b2	0.070695296
47	0x3caa661e	0.020800646
48	0xbec4a417	-0.3840644
49	0xc089e4da	-4.309186
50	0xbc93ebbb	-0.018056741
51	0xbdd2ecd5	-0.102990784
52	0x3c53d9b8	0.012930326
53	0x3fdc4620	1.72089
54	0x3e12de86	0.14342698
55	0x3e027bcb	0.12742536
56	0xbf2ed33f	-0.68291086
57	0xbd8def45	-0.06930403
58	0xbea89960	-0.32929516
59	0xc024f295	-2.577306
60	0x3d97e1fb	0.07416149
61	0x3b8058d3	0.0039168387
62	0xbd8faf17	-0.070158176
63	0x3f887c9c	1.0663028
64	0xbe6c8b75	-0.23100074
65	0x3e1317b0	0.14364505
66	0xbf80c997	-1.006152
67	0xbe802bfd	-0.2503356
68	0xbe0fdaf1	-0.14048363
69	0x3b2c2b87	0.0026271062
70	0xbece3051	-0.40271237
71	0x3de44e51	0.1114775
72	0xbeafcfd7	-0.34338257
73	0x3d2eed35	0.042706687
74	0xbeada779	-0.33916834
75	0x3e39bb79	0.18137921
76	0xbeca65a2	-0.39530665
77	0xbe00012a	-0.12500444
78	0xbe5d242b	-0.21595828
79	0x3e2d001a	0.1689457
80	0xbec8a0b3	-0.39185104
81	0x3c4d2102	0.012520077
82	0xbf91c841	-1.1389238
83	0xbe75ef95	-0.24017175
84	0xbe7e7c22	-0.2485204
85	0x3e0b6047	0.13610946
86	0xbf3e067d	-0.7422865
87	0xbf3fe3ee	-0.7495717
88	0x3db139e6	0.086536214
89	0xbda09b63	-0.07842138
90	0x3e40e15c	0.18835968
91	0xbcbb9998	-0.022900388
92	0xbe27ffb9	-0.16406144
93	0x3e265afc	0.16245645
94	0xbe76fd94	-0.2412017
95	0x3e26b908	0.16281521
96	0xbe58e797	-0.21182095
97	0xbd84c3bc	-0.06482646
98	0xbe24bea5	-0.1608835
99	0xbe2e41eb	-0.17017333
100	0x3ccc7ef7	0.024962885
101	0xbe013df5	-0.12621291
102	0x3cdd659f	0.027025996
103	0x3e536f89	0.20648016
104	0xbdac6845	-0.08418325
105	0xbe2377eb	-0.15963714
106	0xbd94865c	-0.072521895
107	0xbdbbd87a	-0.09172149
108	0xbd50aa5d	-0.05094372
109	0xbc96d25f	-0.01841086
110	0x3b82fb8b	0.0039972714
111	0xbdc74449	-0.09729821
112	0x3bb32bbe	0.005467861
113	0xbd196587	-0.03745034
114	0xbc97364c	-0.018458508
115	0xbcd2094b	-0.025639197
116	0x3dc0e518	0.09418696
117	0x3d9759d1	0.07390178
118	0xbcd7ec7c	-0.026357882
119	0x3cc774b9	0.02434765
120	0xbe68276c	-0.22671288
121	0xbdbbe34d	-0.091742136
122	0xbb13fe8a	-0.0022582137
123	0x3de5af0e	0.1121503
124	0xbd462f7b	-0.048385125
125	0xbd2bd5e9	-0.041952047
126	0x3c5afcd3	0.013365942
127	0xbcebd97c	-0.028790228
128	0xbf5332bb	-0.82499284
129	0xbdb3a945	-0.0877252
130	0xbf8e8b13	-1.1136192
131	0xbe8aad04	-0.27085125
132	0xbe43bff4	-0.19116193
133	0xbd385660	-0.04500425
134	0xbe10daa6	-0.14145908
135	0xbe3df9f7	-0.18552385
136	0xbf05b6fc	-0.52232337
137	0x3e445591	0.19173266
138	0x3e1e8ee0	0.1548419
139	0x3d404929	0.04694477
140	0xbe8a4b5c	-0.2701062
141	0x3d9c5325	0.07633046
142	0xbe210075	-0.1572283
143	0xbf9f308a	-1.2436688
144	0xbe2274d0	-0.15864873
145	0xbf2e93eb	-0.68194455
146	0xbdcb0a5e	-0.09914087
147	0xbe4965a3	-0.19667678
148	0xbe9c3845	-0.3051168
149	0x3f0735af	0.5281629
150	0xbf14b198	-0.58083487
151	0xbf26b82d	-0.6512478
152	0xbd364f32	-0.04450912
153	0xbead7e75	-0.33885542
154	0xbf447e8e	-0.7675561
155	0x3d955253	0.07291093
156	0xbc921a33	-0.017834758
157	0x3e86d3b0	0.2633338
158	0xbf53e11a	-0.8276535
159	0xbe4ff1c5	-0.20307072
160	0x3d1ed31c	0.03877555
161	0xc0ddf30b	-6.9359183
162	0xc132b4e2	-11.169161
163	0x3e058341	0.1303835
164	0x3d8817e0	0.06645179
165	0x3e9d6870	0.30743742
166	0xbdcb625a	-0.099308684
167	0xbe660456	-0.22462592
168	0xbe2650a6	-0.16241702
169	0x3f8e5125	1.1118513
170	0x3d6c8395	0.057742674
171	0xbd0bebc8	-0.034160405
172	0xbbafec3b	-0.005368737
173	0xc02fdb03	-2.7477424
174	0x3d8fd0f7	0.07022279
175	0xbcafe309	-0.021470563
176	0xbbe0ce08	-0.0068604983
177	0xbf555502	-0.83332837
178	0xc1fea059	-31.828295
179	0x3c7ff9a5	0.015623485
180	0xbde665a4	-0.11249855
181	0xbfd3025d	-1.6485096
182	0x3eb4d494	0.35318434
183	0x3ed3fcde	0.4140386
184	0xbe408ead	-0.18804426
185	0x3de45d58	0.111506164
186	0x3e02585c	0.12729019
187	0x3d5127fc	0.051063523
188	0xbea79d84	-0.32737362
189	0x3e043e52	0.12914398
190	0xbca04a7f	-0.019566773
191	0x3f29eae7	0.6637406
192	0xbc1e880c	-0.009675991
193	0x3ea1b1b5	0.31580892
194	0xbdd6448a	-0.104622915
195	0xbe02caa8	-0.1277262
196	0xbe25139e	-0.16120765
197	0x3db3c966	0.08778648
198	0xbec4d094	-0.38440382
199	0xbe626635	-0.22109301
200	0xbd4f3579	-0.050588105
201	0xbfa1d873	-1.264418
202	0xbf053e00	-0.5204773
203	0xbdbae49a	-0.091256335
204	0xbd1d45ab	-0.03839652
205	0xc0aedeb0	-5.4646835
206	0x3d0998de	0.03359305
207	0x3d463454	0.048389748
208	0x3d7f6f88	0.062362224
209	0xbfbefa58	-1.4920149
210	0xbcd16493	-0.025560653
211	0x3da3b4a8	0.07993442
212	0xbcdf23b6	-0.027238708
213	0xbec24ad6	-0.3794772
214	0x3d30a31e	0.04312431
215	0x3e01690d	0.1263773
216	0x3e5ad709	0.21371092
217	0x3d82358d	0.0635787
218	0xbd3eb2a0	-0.04655707
219	0xbd565d87	-0.05233529
220	0x3d77bef2	0.060484834
221	0x39eb76fe	0.0004491135
222	0x3d18d9a6	0.03731694
223	0x3de5c84f	0.112198465
224	0xbd348392	-0.044070788
225	0xbd7a8690	-0.061163485
226	0x3dd3de69	0.10345156
227	0xbda0e280	-0.078557014
228	0xbdc4277a	-0.09577842
229	0x3bb281c4	0.005447598
230	0xbd27ab5c	-0.040934905
231	0xbda2863b	-0.07935759
232	0xbda719cc	-0.08159217
233	0xbc8e6d72	-0.017386172
234	0xbd9791e3	-0.074008726
235	0x3b5eee72	0.0034016636
236	0xbbcc3085	-0.00623137
237	0xbe304e31	-0.17217328
238	0xbcc5b304	-0.024133213
239	0xbc00ce69	-0.007861712
240	0x3dd69c9d	0.1047909
241	0xbe2d20c8	-0.16907036
242	0xbdde303f	-0.10849046
243	0xbe09423e	-0.13404176
244	0xbd86cde3	-0.065822385
245	0xbd915143	-0.070955776
246	0xbe3d9b25	-0.18516214
247	0xbe5cde0d	-0.2156908
248	0x3debc7c6	0.11512713
249	0xbdf3ae6c	-0.11898503
250	0xbdd7a9f0	-0.1053046
251	0xbca7d84e	-0.020488884
252	0xbe1a60db	-0.1507601
253	0x3d992ee4	0.07479647
254	0xbdccef2e	-0.100065574
255	0xbe19b46c	-0.15010232

fc1.bias f4 [100]
0	0xc0e27866	-7.077197
1	0xbe9de0dd	-0.3083562
2	0xbee04a40	-0.43806648
3	0xbe6e21e1	-0.23255111
4	0xbf442daa	-0.7663218
5	0x403ec57f	2.9808042
6	0x40818c7b	4.0483985
7	0xbe4d0291	-0.2002051
8	0xc02dca50	-2.7154732
9	0xbf5605c1	-0.8360253
10	0x404f586d	3.239772
11	0xbef14231	-0.47120813
12	0x404bf7b8	3.1869946
13	0xbf1fa0fd	-0.62355024
14	0x4085ed8d	4.185248
15	0x3f944d30	1.1586056
16	0xbe1ad531	-0.15120389
17	0xc02ce028	-2.7011814
18	0xbed9527c	-0.42445743
19	0xbdc3f2a7	-0.09567767
20	0xbd2b4c55	-0.041820843
21	0xbd6364cb	-0.055516046
22	0xbe16fb81	-0.14744379
23	0x3fad1eff	1.3525084
24	0xbd49b86c	-0.049248144
25	0x3fbb32bf	1.4624861
26	0x3f92ab88	1.1458597
27	0xbf0a939d	-0.5413149
28	0xbe9a117b	-0.30091462
29	0xbf25e98e	-0.648095
30	0xbfd170a1	-1.6362497
31	0xbebd268a	-0.36943465
32	0xc0b662d8	-5.699566
33	0xbe8e5831	-0.2780166
34	0x3e23e129	0.1600386
35	0xbcf93b9d	-0.030423934
36	0xbe947177	-0.28992817
37	0xbeb429b3	-0.35188064
38	0xbe2731a7	-0.16327535
39	0xbe51266e	-0.20424816
40	0xbe129345	-0.14313991
41	0x3edd37b9	0.43206576
42	0xc0b01bbf	-5.503387
43	0xc0468783	-3.102021
44	0xbdae8030	-0.085205436
45	0x3d9f8ea8	0.077908814
46	0xbdd2a9c9	-0.1028629
47	0xbf288798	-0.658319
48	0xc05d9966	-3.4624877
49	0xc0aeae16	-5.4587507
50	0xbe5e6f0e	-0.21722052
51	0xc02730b2	-2.6123471
52	0x3d6e71bf	0.058213945
53	0xbebffc74	-0.37497294
54	0xbe2a3b9e	-0.16624305
55	0xbdf5689b	-0.119828425
56	0x3f39ffea	0.7265612
57	0xbe4cfc27	-0.20018063
58	0xbee58b62	-0.44832903
59	0xc0ddfcf6	-6.937129
60	0xbe6cb0de	-0.23114344
61	0xbd4c29ee	-0.049844675
62	0x3e947c9d	0.29001322
63	0xbeb2bdc3	-0.34910402
64	0xbe073c55	-0.13206609
65	0xbe75d67e	-0.24007604
66	0x3d367046	0.044540666
67	0xbe4599e6	-0.19296989
68	0xbc7c71da	-0.015408004
69	0x3fb2acea	1.3959019
70	0xbf05346c	-0.52033114
71	0xbe33d200	-0.17560577
72	0xc086fc39	-4.218289
73	0xbdb4dc19	-0.08831043
74	0xbe1f9c9e	-0.15587088
75	0xbe2dd5d2	-0.16976097
76	0xbe05acc5	-0.13054188
77	0x3f8f770e	1.1208208
78	0xbe7624de	-0.24037501
79	0xbe89d5a6	-0.26920813
80	0xbeff1932	-0.4982391
81	0x400af09d	2.1709359
82	0xbe8d7f21	-0.27636054
83	0xbf8c32f9	-1.0953056
84	0xbdf744b9	-0.12073655
85	0x3e839c5a	0.25705224
86	0xbed8caef	-0.42342326
87	0xc09efaf5	-4.9681344
88	0x4016f13b	2.3584735
89	0xbed57caa	-0.41696674
90	0x404d280b	3.205569
91	0xbf415b3e	-0.7552985
92	0xc10db996	-8.857809
93	0xc0c95a80	-6.2922974
94	0xbd89c47b	-0.06726929
95	0xbe6f1977	-0.23349558
96	0x3e19c6d2	0.1501725
97	0xbe2b3485	-0.16719253
98	0xbe569d9b	-0.20958559
99	0xbe354727	-0.17702924

fc2.weight f4 [4, 100]
0	0x3dba9ebd	0.09112308
1	0xbd61a5c2	-0.05508972
2	0x3dfe62fc	0.124212235
3	0xbd63107b	-0.05543564
4	0x3d3c9411	0.046039645
5	0xbe9d3e1f	-0.30711457
6	0x3e80b271	0.2513614
7	0x3c7c312c	0.015392583
8	0xbd12ccc3	-0.035839807
9	0xbe3c83cc	-0.18409652
10	0xbcc2ac32	-0.02376375
11	0xbe94ce5b	-0.29063687
12	0x3e8b8a11	0.27253774
13	0x3be4c9c4	0.00698206
14	0x3e0780c4	0.13232714
15	0x3e15aff5	0.14617904
16	0xbe85d869	-0.2614167
17	0xbcfb7d43	-0.030699378
18	0xbcc5a8eb	-0.024128398
19	0x3d22475e	0.039618842
20	0x3e95f834	0.29290926
21	0x3d8ddedc	0.06927273
22	0xbe13feb6	-0.14452633
23	0x3dc9e190	0.09857476
24	0xbd5f51d7	-0.054521408
25	0xbd917186	-0.07101731
26	0x3db65398	0.08902663
27	0xbe916738	-0.28399062
28	0xbe0cd5ee	-0.13753483
29	0xbd8fd434	-0.070228964
30	0xbdc73b7f	-0.09728145
31	0xbda91214	-0.08255401
32	0xbe38081f	-0.17971848
33	0x3e74029d	0.23829122
34	0xbbec0bae	-0.0072035408
35	0x3d915777	0.07096761
36	0xbea4e234	-0.3220383
37	0xbdd58339	-0.10425419
38	0x3e38a83b	0.18032925
39	0xbde738c6	-0.112901255
40	0xbed5af5d	-0.41735354
41	0xbd35dcfe	-0.044400208
42	0x3d86694f	0.06563055
43	0x3c384b76	0.01124846
44	0x3d4ffa6b	0.050775927
45	0xbdc0126b	-0.09378513
46	0xbd705e3d	-0.058683623
47	0xbd4ff65d	-0.05077206
48	0xbeab12ce	-0.33412784
49	0x3d2d5047	0.042312887
50	0x3e2655f1	0.16243722
51	0x3f0859fb	0.532623
52	0xbcabef21	-0.020988049
53	0xbe9acdcf	-0.30235144
54	0x3db5dd56	0.08880107
55	0xbec860f9	-0.39136484
56	0xbdcf33fd	-0.10117338
57	0xbc89bbaf	-0.016813127
58	0xbf0b7232	-0.54471123
59	0xbdd8aa46	-0.10579352
60	0x3d93fd14	0.07226005
61	0xbcd0b579	-0.025477158
62	0xbe7e7452	-0.2484906
63	0x3d89bb28	0.0672515
64	0x3d173075	0.036911447
65	0xbe593ad5	-0.21213849
66	0xbdf54d28	-0.11977607
67	0xbd9f1562	-0.0776775
68	0x3cebc144	0.02877868
69	0xbf026cca	-0.5094725
70	0xbd8a28ab	-0.06746038
71	0x3d54810f	0.051880892
72	0x3d9f1e1b	0.07769414
73	0xbd40306e	-0.046921186
74	0x3cec3871	0.028835507
75	0xbd33d55a	-0.04390464
76	0x3ea33841	0.31878856
77	0xbe2a94ce	-0.16658327
78	0xbdfb9384	-0.12283996
79	0x3e946c0f	0.28988692
80	0xbe49bca9	-0.19700874
81	0xbd1922ab	-0.037386578
82	0x3e5f6df7	0.21819292
83	0x3dc5a8d8	0.09651345
84	0x3c9a6abf	0.018849729
85	0x3c8ceac4	0.017201789
86	0xbe0596da	-0.13045827
87	0x3cdafece	0.026732828
88	0x3d9b5bc2	0.07585861
89	0xbee52dde	-0.44761556
90	0xbe26af66	-0.16277847
91	0xbeb952a8	-0.36195874
92	0x3c5378fe	0.012907265
93	0xbb4edf9d	-0.003156639
94	0xbca04f9d	-0.019569213
95	0xbe1c0a6e	-0.15238354
96	0x3ee2d367	0.44301912
97	0x3e364790	0.17800736
98	0xbe342abc	-0.17594427
99	0x3bfbb9bc	0.0076820534
100	0x3f1cd90f	0.61268705
101	0xbc7fb3b1	-0.015606807
102	0xbe2a03fa	-0.1660308
103	0xbb73e00d	-0.0037212402
104	0xbd27ed53	-0.040997814
105	0xbeb3bed7	-0.35106537
106	0xbcb74c6a	-0.022375304
107	0xbe342aa6	-0.17594394
108	0x3e8f4236	0.27980202
109	0xbea26f14	-0.3172537
110	0xbf1b143a	-0.6057774
111	0x3c87fa58	0.016598865
112	0x3ea09ddc	0.31370437
113	0xbd4429c1	-0.047891382
114	0x3ef9fac8	0.48824143
115	0xbe83d0ec	-0.25745332
116	0x3d21cfd5	0.039504845
117	0x3ec5d790	0.38641024
118	0x3c826949	0.015919344
119	0xbda8e42c	-0.08246645
120	0x3e05104b	0.12994497
121	0xbd97b8ff	-0.07408332
122	0xbeed7f91	-0.46386388
123	0xbd0d5b52	-0.034510918
124	0x3c439868	0.011938192
125	0x3d86149c	0.065469
126	0xbd547751	-0.0518716
127	0xbea36022	-0.3190928
128	0xbd0e7e79	-0.034788582
129	0xbf03f190	-0.5154047
130	0xbe0ccffd	-0.13751216
131	0x3e4e5968	0.20151293
132	0xbeb24546	-0.34818476
133	0x3e6ff7d9	0.2343439
134	0x3f0e8fe3	0.55688304
135	0x3d904be3	0.07045724
136	0xbe41d9f3	-0.18930797
137	0xbe1feea4	-0.15618378
138	0x3e25e544	0.16200739
139	0x3e03df40	0.12878132
140	0xbe7f283c	-0.24917692
141	0xbd93f27e	-0.07223986
142	0x3e8864a8	0.26639295
143	0xbe202513	-0.15639143
144	0xbd63c36e	-0.0556063
145	0xbc083f18	-0.008315824
146	0x3ce3bf1f	0.027801095
147	0x3f0f6c6f	0.5602483
148	0xbe6f7b7e	-0.23386952
149	0x3ec3b071	0.38220552
150	0x3becb2e5	0.0072234743
151	0xbc8c1f80	-0.017104864
152	0xbd8c5cc7	-0.068536334
153	0xbe8881f9	-0.2666166
154	0xbe0e85ce	-0.1391823
155	0xbe1b002c	-0.15136784
156	0x3d63431e	0.05548393
157	0x3d85c2d2	0.065313
158	0x3c15fa86	0.009153968
159	0x3d8a24ee	0.06745325
160	0x3dfbb877	0.12291043
161	0xbe17e3e8	-0.14833033
162	0xbd5ce81e	-0.0539323
163	0x3d75367a	0.059866406
164	0xbde265d8	-0.110545814
165	0xbe1dd806	-0.15414438
166	0x3f83a19d	1.0283695
167	0x3c8d7f2b	0.017272552
168	0xbd1a4d10	-0.03767115
169	0xbd01c2f0	-0.031680048
170	0x3cff630d	0.03117516
171	0xbcf86f85	-0.030326614
172	0xbee216fa	-0.44158155
173	0xbcbf5e38	-0.023360357
174	0x3e2898f9	0.16464604
175	0xbcd8f24c	-0.026482724
176	0xbe8a0965	-0.26960292
177	0x3e943e47	0.28953764
178	0xbdb30d83	-0.087428115
179	0xbe848047	-0.25879118
180	0xbeadacad	-0.33920804
181	0xbef884e3	-0.48538885
182	0x3d5a0020	0.053222775
183	0xbe274d90	-0.16338181
184	0x3e6a8aa8	0.22904456
185	0xbeace898	-0.33771205
186	0x3e7033a8	0.23457205
187	0x3ea3e15e	0.3200788
188	0x3e521d1b	0.20518915
189	0x3edfa03a	0.4367693
190	0x3c88cf21	0.01670033
191	0x3df4139e	0.11917804
192	0xbebc03e7	-0.36721727
193	0xbedd6b8f	-0.43246123
194	0x3d308aec	0.043101236
195	0xbf0d4d88	-0.5519643
196	0xbee9145d	-0.45523348
197	0x3d4727f1	0.048622075
198	0xbeb7c20b	-0.3589023
199	0xbcff2d7e	-0.031149622
200	0xba9f00ed	-0.0012131013
201	0x3d882eb9	0.06649537
202	0xbe3f5a7c	-0.18686861
203	0xbcd36128	-0.025803164
204	0x3e2ee68d	0.17080136
205	0x3d0ae116	0.033906065
206	0xbf24d61d	-0.6438921
207	0xbc94045f	-0.01806849
208	0x3d65f6b7	0.05614349
209	0x3d291de2	0.041288264
210	0xbc735faa	-0.014854351
211	0x3deaa003	0.11456301
212	0xbcf7095e	-0.030155834
213	0x3e04d14d	0.12970467
214	0xbd226c77	-0.03965422
215	0xbe2d085c	-0.1689772
216	0x3e85a0a0	0.2609911
217	0xbcddcfbb	-0.027076593
218	0xbb0fd995	-0.0021949757
219	0xbc659af7	-0.014013997
220	0xbe8023c9	-0.25027302
221	0xbd0a78db	-0.033806663
222	0x3e13465e	0.14382312
223	0xbed27627	-0.41105768
224	0xbcd9372c	-0.026515566
225	0x3eb01757	0.34392807
226	0xbc425a9c	-0.011862423
227	0x3e844d17	0.25840065
228	0x3cc8ed12	0.024527106
229	0x3da37cf7	0.079828195
230	0x3c99f954	0.018795647
231	0xbd3302ab	-0.043703716
232	0x3c56c239	0.01310783
233	0xbe23dd6d	-0.16002436
234	0x3ba26758	0.004956167
235	0xbdddcdaf	-0.10830247
236	0x3e541800	0.2071228
237	0xbd26e292	-0.040743418
238	0xbe93f133	-0.28894958
239	0xbe39bb2b	-0.18137805
240	0x3eb96ab0	0.3621421
241	0x3d3c0b0a	0.045908965
242	0xbc98e86e	-0.018665519
243	0x3eb6a863	0.35675344
244	0x3e14e441	0.14540197
245	0x3d065ae1	0.032801513
246	0xbd95ab36	-0.073080465
247	0x3e2ead09	0.17058195
248	0x3e748899	0.23880233
249	0xbd168abe	-0.03675341
250	0xbe201f34	-0.15636903
251	0xbd447b55	-0.04796918
252	0x38f8e56c	0.00011868295
253	0xbe4f6f1d	-0.2025723
254	0x3beab4a9	0.0071626497
255	0x3d84c487	0.06482797

fc2.bias f4 [4]
0	0xbe4967c9	-0.19668497
1	0xbe8746ca	-0.26421195
2	0x3e2c5198	0.16828
3	0xbf7cc41b	-0.98736733
