pyCode/CNN1/CNN4Collector.pth (torch, 16071 bytes, 5 tensors)

conv1.weight f4 [16, 1, 3]
0	0xbea0ad0e	-0.3138203
1	0xbecd6f1e	-0.40123838
2	0xbc8cbb5f	-0.01717919
3	0xbde65cf8	-0.11248201
4	0x3ee3c35f	0.44484994
5	0xbf3ce346	-0.7378429
6	0xbeac96e7	-0.3370888
7	0xbe77064b	-0.24123494
8	0x3e55366b	0.2082154
9	0x3ed18b12	0.40926415
10	0xbf22d572	-0.6360694
11	0xbdc15ec9	-0.09441907
12	0xbf27eabf	-0.6559257
13	0xbd95ab24	-0.07308033
14	0x3ec0a45a	0.3762539
15	0x3f3b1675	0.7308114
16	0xbed2766a	-0.41105968
17	0xbeae92f2	-0.34096485
18	0x3cb3cd35	0.021948436
19	0x3d3f22aa	0.046663918
20	0x3d137103	0.03599645
21	0x3ea23002	0.31677252
22	0x3ebd2f4a	0.3695014
23	0x3edde456	0.4333827
24	0xbcea4e47	-0.028601779
25	0xbe6524de	-0.22377345
26	0x3ed6e5ac	0.419721
27	0x3f547966	0.8299774
28	0xbed352d8	-0.41274142
29	0x3f0b5bcf	0.54436964
30	0xbed55592	-0.41666847
31	0x3f176e22	0.59152424
32	0x3d0dc107	0.034607913
33	0xbec4de68	-0.38450933
34	0x3ec94705	0.39311996
35	0xbf1f7f1d	-0.62303334
36	0x3eaa0214	0.3320471
37	0x3ed67816	0.41888493
38	0x3f14bf81	0.5810471
39	0x3f552fc0	0.83275986
40	0x3f0b6a91	0.5445948
41	0xbee25045	-0.44201866
42	0x3c985201	0.01859379
43	0xbd7bf8ff	-0.061516758
44	0x3dab60da	0.08368082
45	0x3ed94802	0.4243775
46	0xbef01e50	-0.46898127
47	0x3eacf7fe	0.33782953

conv1.bias f4 [16]
0	0xbef5b606	-0.47990435
1	0x3dabc5ea	0.083873585
2	0x3e93f355	0.28896585
3	0xbf7ccf03	-0.98753375
4	0x3d2f3e3f	0.042783972
5	0xbe1265d3	-0.14296655
6	0xbdd6b33d	-0.10483406
7	0xbf57342f	-0.84064
8	0xbd9bdb8a	-0.07610233
9	0xbf16e172	-0.5893775
10	0x3e63a30e	0.22230169
11	0xbe4dbdc1	-0.20091917
12	0xbf41a338	-0.7563968
13	0x3eab854c	0.33500135
14	0xbe8cd825	-0.27508655
15	0xbf865e6a	-1.0497563

fc1.weight f4 [100, 32]
0	0x3dca9daa	0.09893353
1	0xbe122f28	-0.14275801
2	0xbe27a76d	-0.16372462
3	0x3e2638d2	0.16232613
4	0xbd2c74ac	-0.042103454
5	0xbdb3a4c7	-0.08771663
6	0x3dd999f7	0.106250696
7	0x3dd4116c	0.103548855
8	0xbe4dd603	-0.2010117
9	0x3dbc42e4	0.09192446
10	0x3e498400	0.1967926
11	0x3d6024ab	0.05472247
12	0xbe3ecdb8	-0.18633163
13	0xbd9b1cd0	-0.07573855
14	0x3e04ec3e	0.12980744
15	0x3da72520	0.08161378
16	0xba195e53	-0.0005850542
17	0xbccb6e67	-0.024832917
18	0x3d2911a0	0.041276574
19	0x3d01d99b	0.031701665
20	0xbe4173ba	-0.18891802
21	0xbe75ab2c	-0.23991078
22	0xbdd0ccb0	-0.10195291
23	0xbd89e0ce	-0.06732331
24	0xbe09e3a2	-0.13465741
25	0xbe08cb00	-0.13358688
26	0x3e21448b	0.15748803
27	0x3d975dbb	0.073909245
28	0xbe01ae35	-0.12664111
29	0x3bad5d7c	0.005290685
30	0x3e33de13	0.17565183
31	0x3e409c52	0.18809631
32	0xbd0d5494	-0.034504488
33	0xba7d4e7e	-0.00096628803
34	0xbe32574d	-0.17416115
35	0xbdd01b92	-0.101615086
36	0xbdd1e1bd	-0.10248134
37	0x3cfa58a6	0.030559849
38	0xbe1f18d6	-0.15536818
39	0xbc74665a	-0.014916981
40	0x3c5ba44a	0.013405869
41	0xbe1bdc7b	-0.15220825
42	0xbc863b8d	-0.016385818
43	0x3dfa8900	0.12233162
44	0xbe15df07	-0.1463586
45	0xbe670091	-0.2255881
46	0x3daa0f1e	0.083036646
47	0xbdf4ddb6	-0.119563505
48	0xbe140094	-0.14453346
49	0xbe1e757f	-0.15474509
50	0x3d7b9caa	0.061428703
51	0xbddce9e1	-0.10786796
52	0xbe5db8da	-0.21652547
53	0x3da0f9c8	0.07860142
54	0xbe48e0cd	-0.19617005
55	0x3bf0f98f	0.0073539685
56	0xbd23bbf0	-0.039974153
57	0xbe26dc0f	-0.16294883
58	0xbe0fc3b4	-0.14039499
59	0x3d2bd82e	0.041954212
60	0x3d1e20c7	0.038605478
61	0x3d75d81d	0.060020555
62	0x3df92d7c	0.121668786
63	0x3dbc6239	0.09198422
64	0xbc1cb512	-0.009564655
65	0xbc4e43cc	-0.012589406
66	0xbe3f447f	-0.18678473
67	0xbe2c5162	-0.1682792
68	0x3ddef777	0.10887044
69	0x3cac5074	0.021034457
70	0xbdcd4775	-0.10023395
71	0xbdf0b8cf	-0.117539994
72	0x3d45339f	0.048144933
73	0x3d8ad990	0.06779778
74	0xbd8a89ae	-0.067645416
75	0xbdd2a2d6	-0.10284965
76	0x3d9b090d	0.07570086
77	0x3e265f87	0.16247378
78	0xbd2b4f12	-0.041823454
79	0x3e45916d	0.19293757
80	0x3d145d90	0.03622204
81	0xbd26ad0f	-0.040692385
82	0xbe817732	-0.2528625
83	0xbd959b96	-0.07305066
84	0x3b1d03de	0.0023958604
85	0x3d809d7b	0.06280037
86	0x3cf51de1	0.029921474
87	0xbe8ce1f3	-0.27516136
88	0xbe8657ea	-0.26238948
89	0xbc8768cf	-0.016529469
90	0xbe1d29f3	-0.15348034
91	0xbe1d30c5	-0.15350635
92	0x3ddf16a9	0.10892994
93	0x3b88d7af	0.004176102
94	0xbe6c2abd	-0.23063178
95	0x3e8a9e28	0.2707379
96	0x3c5232b8	0.012829475
97	0xbe13fbed	-0.14451571
98	0xbd280b4c	-0.0410264
99	0xbd28f433	-0.04124851
100	0xbded9798	-0.1160118
101	0x3d1b9100	0.03798008
102	0x3da1cc9d	0.07900355
103	0x3dac2c21	0.084068544
104	0x3c86245c	0.01637476
105	0xbe2f8501	-0.1714058
106	0x3d20f426	0.039295338
107	0xbdc059f7	-0.093921594
108	0xbe35ffdd	-0.17773385
109	0xbc84d05a	-0.016212631
110	0x3de78c3a	0.11306043
111	0xbdbfde6e	-0.09368597
112	0xbdac10e3	-0.084016584
113	0x3dcc8b13	0.09987464
114	0xbe56c7b1	-0.20974614
115	0xbe40ec4e	-0.18840143
116	0xbe1d8c3c	-0.15385526
117	0xbdc3bb9e	-0.095572695
118	0x3daefe3b	0.08544584
119	0xbd4ee98c	-0.050515696
120	0xbe6b01b4	-0.22949868
121	0xbe4bd77d	-0.19906421
122	0xbce32a82	-0.02773023
123	0x3ced2f73	0.02895329
124	0xbd9fb875	-0.07798854
125	0x3db3418a	0.08752735
126	0x3affcdfc	0.0019516344
127	0x3dc00232	0.09375419
128	0xbee22b2a	-0.44173557
129	0xbd64d423	-0.05586637
130	0x3ca226b0	0.019793838
131	0x3e8ae96d	0.27131215
132	0xbe640e5e	-0.22271106
133	0xbdb992fb	-0.090612374
134	0x3e0d3ba9	0.1379229
135	0x3e04f11e	0.12982604
136	0xbf230e2c	-0.636935
137	0x3ce49e08	0.027907386
138	0x3ec142a1	0.37746146
139	0x3d08fdbf	0.033445116
140	0x3d8a8714	0.06764045
141	0xb9ef101c	-0.00045597635
142	0x3f37b45d	0.7175959
143	0xbeb2fd75	-0.34958997
144	0x3e00db33	0.12583618
145	0xbe128d20	-0.14311647
146	0x3e59a2e9	0.21253552
147	0xbee791e3	-0.4522849
148	0x3ca91f27	0.020644737
149	0xbccd1db2	-0.025038574
150	0xbebe335d	-0.37148562
151	0x3e380a42	0.17972663
152	0x3ea4e47e	0.32205576
153	0xbee54a69	-0.44783333
154	0x3e5d3f32	0.21606138
155	0x3c37da89	0.011221536
156	0xbe334ab2	-0.17508963
157	0x3e34e3c0	0.17665005
158	0xbf120c6c	-0.57050204
159	0x3e3d7eed	0.1850545
160	0x3e02686a	0.12735143
161	0xbe5ce236	-0.21570668
162	0x3e2a09e2	0.16605332
163	0xbeba198f	-0.36347625
164	0xbda80295	-0.082036175
165	0xbe0fa5ae	-0.14028046
166	0xbd5fd18e	-0.054643206
167	0xbce9b5ed	-0.028529132
168	0x3d10eadd	0.035380233
169	0x3cff43d5	0.031160275
170	0xbea74043	-0.32666215
171	0x3b56d662	0.003278159
172	0xbc90c04e	-0.017669823
173	0xbe781e6d	-0.24230357
174	0xbe6eed67	-0.2333275
175	0x3ccb398d	0.024807716
176	0xbdeabe01	-0.114620216
177	0xbe76f4d9	-0.2411684
178	0x3a34a375	0.0006890812
179	0x3ceb762a	0.028742868
180	0xbdd482d3	-0.10376515
181	0xbe8fa28e	-0.28053707
182	0x3d8ce4c6	0.068795726
183	0xbd6272ab	-0.055285137
184	0xbc63f45a	-0.013913238
185	0xbd1a6ac8	-0.03769949
186	0x3d06c0da	0.03289876
187	0xbe0062ae	-0.12537643
188	0x3d50b4ba	0.050953604
189	0xbdb771f7	-0.08957284
190	0xbe18fc26	-0.14939937
191	0xbce41496	-0.027841847
192	0x3bd5b1df	0.006521448
193	0x3d61bd9c	0.055112466
194	0xbad7ae16	-0.001645508
195	0x3cb0f5a9	0.021601515
196	0xbe7dce78	-0.24785793
197	0xbe06a758	-0.13149774
198	0x3eb01e24	0.34397995
199	0xbde5b5f0	-0.112163424
200	0xbd26d765	-0.04073276
201	0xbe8cc402	-0.27493292
202	0x3e823228	0.2542889
203	0xbe23930e	-0.15974066
204	0xbe2403e1	-0.16017105
205	0xbe24ce5e	-0.16094348
206	0x3e33e691	0.17568423
207	0x3e1d362d	0.15352698
208	0x3d93a611	0.07209409
209	0xbe05fd6e	-0.13084957
210	0xbddb769d	-0.10715983
211	0x3bf9226e	0.0076029813
212	0xbd96cceb	-0.07363304
213	0xbdc4bf53	-0.09606805
214	0xbdc9473a	-0.098280385
215	0x3e36e5a3	0.17861037
216	0xbcd355d4	-0.025797762
217	0xbdfa172c	-0.12211451
218	0x3e1516ae	0.14559433
219	0x3e02f423	0.12788443
220	0xbd584146	-0.052796625
221	0x3d17b2f5	0.0370359
222	0x3ea7fc25	0.3280956
223	0xbe303af6	-0.17209992
224	0x3d815638	0.06315273
225	0xbca85768	-0.020549491
226	0x3d83c26a	0.06433566
227	0xbe3cf1c3	-0.184516
228	0xbdacd1fa	-0.08438487
229	0xbdf6b51e	-0.12046264
230	0x3e12591b	0.14291804
231	0x3d6e8ec8	0.058241636
232	0xbdcf980a	-0.10136421
233	0xbdefcc18	-0.1170885
234	0xbd5d44b0	-0.054020584
235	0xbdd78354	-0.10523096
236	0xbe11d00c	-0.1423952
237	0xbdd92621	-0.10602976
238	0xbdabc444	-0.08387044
239	0xbe082479	-0.13295163
240	0x3ce908f3	0.02844665
241	0xbde67f1f	-0.11254715
242	0xbc8d3505	-0.017237196
243	0x3d49f832	0.049308963
244	0x3df21ab5	0.118215
245	0xbd953445	-0.0728536
246	0xbe0f0099	-0.13965072
247	0x3de43ef2	0.11144818
248	0xbdbecd16	-0.09316461
249	0xbda8e969	-0.082476445
250	0xbdb3c8b7	-0.08778518
251	0xbe656c0c	-0.22404498
252	0xb9ba2200	-0.00035502017
253	0xbbb69933	-0.005572462
254	0xbd112960	-0.03543985
255	0x3da39d52	0.07988991

fc1.bias f4 [100]
0	0xbe070f22	-0.13189366
1	0xbcd8a45d	-0.026445562
2	0xbdc6c680	-0.097058296
3	0xbe1939c4	-0.14963442
4	0x3eb2d398	0.34927058
5	0x3cc5bc15	0.024137536
6	0xbea156fd	-0.3151168
7	0xbd97b3d6	-0.07407348
8	0xbe6bdd34	-0.23033601
9	0xbf4a36f1	-0.78990084
10	0xbe316b79	-0.17326154
11	0x3d918c5a	0.07106848
12	0x3e66e49a	0.22548142
13	0x3d1fcdc2	0.039014585
14	0x3d6781d2	0.05652029
15	0xbdeeb66a	-0.116558865
16	0xbdea6eb6	-0.11446898
17	0xbe93f8b8	-0.28900695
18	0x3da00a80	0.07814503
19	0xbd16375a	-0.03667388
20	0xbd4437af	-0.047904667
21	0xbe964f0a	-0.29357177
22	0xbdea3055	-0.11435
23	0x3ebba477	0.36648914
24	0xbd9a0c73	-0.07521906
25	0xbec97788	-0.39349008
26	0xbe842e24	-0.25816453
27	0xbbf3acb7	-0.0074363607
28	0x3d777f23	0.06042398
29	0xbdf2c75d	-0.11854432
30	0xbc8c0354	-0.01709143
31	0xbb8a4620	-0.0042197853
32	0xbe9c228e	-0.30495113
33	0xbea1de15	-0.31614748
34	0x3e06d77d	0.1316814
35	0x3d96255c	0.073313445
36	0xbc8b5011	-0.017005952
37	0x3e4f3e54	0.2023862
38	0xbe4fed94	-0.20305473
39	0xb979dbc8	-0.00023828365
40	0xbdf9c764	-0.12196234
41	0xbe7d2bb1	-0.24723698
42	0x3ec73e10	0.38914537
43	0x3c26f535	0.010190298
44	0xbe50da40	-0.20395756
45	0xbe0ce702	-0.13759997
46	0x3dd57eb4	0.10424557
47	0x3d76f2ac	0.060290024
48	0xbcd07d01	-0.025450232
49	0x3e36672a	0.17812791
50	0xbf3df978	-0.74208784
51	0x3e7a1a5c	0.24424118
52	0x3d803a27	0.06261092
53	0x3c4ad35b	0.012379493
54	0xbe6c0f4d	-0.23052712
55	0xbe5b9cd0	-0.21446538
56	0x3cb2dff8	0.021835312
57	0x3d4066a2	0.04697288
58	0xbea840aa	-0.32861835
59	0xbdac3b56	-0.08409755
60	0x3e834595	0.25639024
61	0xbe84a435	-0.2590653
62	0xbdb4c382	-0.08826353
63	0xbc7ccbd7	-0.015429459
64	0x3c9bebc8	0.019033328
65	0xbe327675	-0.17428
66	0x3c00e5d1	0.0078672925
67	0x3c3fbb48	0.011702366
68	0xbc08a568	-0.008340217
69	0x3da87be7	0.082267575
70	0xbe36719b	-0.17816775
71	0x3e684d5f	0.22685765
72	0xbe215d1e	-0.15758178
73	0x3e7f5242	0.24933723
74	0xbe4fa71e	-0.20278594
75	0xbda5b9ef	-0.08092105
76	0x3e11eb4d	0.14249916
77	0x3e821bcf	0.2541184
78	0xbd659350	-0.05604869
79	0xbe2c1861	-0.16806175
80	0x3d1ccef4	0.038283303
81	0xbd839fa3	-0.06426933
82	0xbd8a6fc2	-0.06759597
83	0x3ebc2e1c	0.3675393
84	0x3e5b55a3	0.21419387
85	0x3d31770c	0.043326423
86	0x3dfc261f	0.123119585
87	0xbd143289	-0.036181007
88	0x3c391836	0.011297276
89	0x3f2740c9	0.6533323
90	0xbe82c1e9	-0.25538567
91	0x3d2b76d9	0.04186139
92	0xbeaaede5	-0.33384624
93	0xbdf0d6a9	-0.11759693
94	0xbe25c60a	-0.16188827
95	0xbcc56fd5	-0.024101177
96	0xbe3d3490	-0.18477082
97	0x3d6e4a18	0.05817613
98	0xbe7a831f	-0.24464081
99	0x3ed47cc7	0.41501448

fc2.weight f4 [1, 100]
0	0xbc711df1	-0.014716611
1	0xbc889ace	-0.01667538
2	0x3c5f7069	0.0136376405
3	0x3d00c800	0.031440735
4	0xbdc2c649	-0.09510476
5	0xbce75626	-0.028239321
6	0x3bef12c5	0.0072959387
7	0x3cbaa200	0.022782326
8	0x3e17aa17	0.14810978
9	0xbec9f338	-0.39443374
10	0xbcd08ae0	-0.025456846
11	0x3c72d5fe	0.0148215275
12	0x3d933323	0.07187488
13	0xbb0f05db	-0.0021823558
14	0xbd04f2cd	-0.032458115
15	0xbb37f4d3	-0.002806951
16	0x3d0ce89d	0.034401525
17	0xbdca04ac	-0.09864172
18	0x3d7d45c6	0.06183412
19	0x3e04e80d	0.12979145
20	0xbaa460f8	-0.0012541106
21	0xbd76564c	-0.060140893
22	0xbbdef86a	-0.0068045156
23	0x3e2a4425	0.16627558
24	0xbc249612	-0.010045545
25	0xbca1a46a	-0.019731719
26	0xbe162b2f	-0.1466491
27	0xbd3ba17c	-0.0458083
28	0xbd117ed0	-0.03552133
29	0xbd7be0b4	-0.06149359
30	0xbd089f79	-0.03335521
31	0xbc4164c0	-0.011803806
32	0x3d580b70	0.052745283
33	0xbc728895	-0.0148030715
34	0xbe34bbc5	-0.17649753
35	0xbc4f4d47	-0.012652702
36	0xbce0e7c5	-0.027454266
37	0x3dad0ecd	0.08450089
38	0xbddca545	-0.1077371
39	0xbd0972b3	-0.03355665
40	0x3d01ebbf	0.031718966
41	0x3d1c9e46	0.03823688
42	0x3e52e097	0.20593487
43	0x3dc16579	0.094431825
44	0xbbf7f461	-0.007566974
45	0xbb6f6e3d	-0.0036534213
46	0xbd00c4f5	-0.031437833
47	0x3c7a28a4	0.015268479
48	0x3d3f06a8	0.046637207
49	0xbe0be579	-0.13661756
50	0xbeb41c98	-0.35178065
51	0x3dbf0f0d	0.093290426
52	0xbb451387	-0.0030071454
53	0xbdeb2ad3	-0.114827774
54	0x3cea5c85	0.02860857
55	0xbbff7c18	-0.0077967755
56	0x3d927881	0.071518905
57	0xbcad22f1	-0.021134825
58	0xbd6a7bcf	-0.05724698
59	0xbde69a92	-0.11259951
60	0x3df63d2d	0.12023387
61	0xbd985010	-0.07437146
62	0xbdf86238	-0.12128109
63	0xbc94b3c4	-0.018152125
64	0x3d70395e	0.05864846
65	0x3d4018ab	0.046898525
66	0xbe1331d3	-0.14374475
67	0xbda2238b	-0.079169355
68	0x3da71c2d	0.08159671
69	0x3d2851b6	0.04109355
70	0x3ab8c542	0.0014096873
71	0xbe254131	-0.1613815
72	0x3ca6b688	0.02035071
73	0x3ef80f93	0.48449382
74	0xbd9bebf7	-0.07613366
75	0x3d612aac	0.054972336
76	0x3dafa38f	0.08576118
77	0x3dc2f1a2	0.09518744
78	0x3d4b33be	0.049609892
79	0xbca8b3a7	-0.020593477
80	0xbe9f4806	-0.31109637
81	0x3ca159a9	0.019696074
82	0xb9a96af3	-0.00032313875
83	0xbe00207f	-0.12512396
84	0xbcc12906	-0.023579132
85	0x3d5cdf7b	0.053924065
86	0x3bc51138	0.0060140155
87	0x3c43ed66	0.011958456
88	0x3da0d222	0.0785258
89	0x3e82a139	0.25513628
90	0xbda93990	-0.08262932
91	0xb9c452ea	-0.0003744581
92	0xbd8fd9ad	-0.0702394
93	0x3c7cb668	0.015424348
94	0x3d07a16b	0.033112925
95	0x3d23076c	0.039802
96	0x3c7c449f	0.01539722
97	0xbb8bbbb1	-0.004264318
98	0xbdd692de	-0.104772314
99	0x3ed3bad1	0.41353467
