pyCode/CNN1/CNN4Magnet.pth (torch, 13231 bytes, 6 tensors)

conv1.weight f4 [16, 1, 3]
00000000: 7728 a73d 0504 9ebe 3942 ac3e 3340 843e
00000010: 2a55 9d3d 4da5 6abd 7e08 25be ce4a 153f
00000020: 152e ab3e 80b7 3b3f a5c6 b7ba a16c 97be
00000030: 9824 953e 24ba ef3e f812 d93c d18c 293f
00000040: 1c39 c1be 5df1 d5be 1642 b43e 7c75 8b3e
00000050: 0bc0 04bf 0058 2bbe 1fd3 863e 64cf 0ebe
00000060: 1ebd 8ebe d240 dfbe 0794 19be 8e87 30be
00000070: 8829 8ebd f239 b73e 9345 4cbe 901b 1bbd
00000080: 9ef9 9abe 9bc6 2bbf 6d04 f53d 9fae ab3e
00000090: 2a14 a53d 077a 523e 9e91 48be c74f ef3e
000000a0: b14e 38be cfdd 2a3e efd7 f3bd 83dd a43e
000000b0: 198f b5be 98ff c1bd 7b30 32be 21d8 09bf
0.08162015 -0.30862442 0.33644274 0.2583023 0.076822594 -0.05728655 -0.16116521 0.5831727
0.33433595 0.73326874 -0.0014020993 -0.29575065 0.2912948 0.46821702 0.026498303 0.66230494
-0.37738883 -0.41785708 0.3520667 0.2723807 -0.51855534 -0.16732788 0.26332948 -0.139463
-0.2787866 -0.4360414 -0.14997874 -0.1723921 -0.06941515 0.35786396 -0.19948415 -0.037868083
-0.30268568 -0.6709992 0.11963735 0.33531663 0.080604866 0.20554362 -0.19586799 0.46740553
-0.17998768 0.16686176 -0.119064204 0.3220025 -0.35460737 -0.09472579 -0.17401306 -0.5384541

conv1.bias f4 [16]
00000000: b234 253b 169f 26bf 6571 9d3e dd35 903e
00000010: 9b8a 75be f453 513e 8d56 86bc 5047 f33b
00000020: cf31 10bf f520 d23e 1726 b7be 115c b53e
00000030: 226b 4abf 88a5 4fbe a328 bebe 18f3 fbbd
0.002520841 -0.65086496 0.30750576 0.28166094 -0.23978655 0.20442182 -0.016398693 0.0074242726
-0.56326 0.4104077 -0.35771248 0.35421804 -0.7906972 -0.20277989 -0.37140378 -0.12302226

fc1.weight f4 [100, 16]
00000000: e5ce 57be ca76 b33d 773b 94bd 5e28 b03d
00000010: 3618 8cbe 0218 cfbd 4daa a5bd 117d 803d
00000020: 3386 52be a0f2 25bc c9c0 39be 73f6 8bbe
00000030: fe26 a6be 7e33 6bbd 9c1d 003e cb5a a2bd
00000040: aceb 803e af71 2bbd a130 fb3e a995 11be
00000050: 0a35 ad3d b0e9 29be 02df 5ebe 4f3e 9d3e
00000060: 2b57 d5bc 28a7 ecbc c007 a63c d6d7 413e
00000070: c6d3 0cbe 73bf d03a 1926 f8bd 00c9 0e3e
00000080: 5bcd b53d e4f9 db3d c62b 263e ecbf 9e3d
00000090: c78f 85bd a1fb 803e a33f 003e 0f59 c43d
000000a0: ae84 9bbd 31e6 473d 9282 893e 6a88 bbbe
000000b0: 109a fbbd 0f4a 143c 0aa3 ca3d e640 883d
000000c0: 103f 78be d0e8 b3bd 9363 92bd 5b7a 58be
000000d0: ef01 7dbe 26f5 83be 2dbf ed3d 446e 93be
000000e0: 11e2 82be 53da dfbd db35 123d 6ce3 cd3d
000000f0: 02c8 c5bd fcf6 90bd 8329 d33d bcb6 8d3d
00000100: 2dd3 0bbe 2d8b 56bd 5989 e3bd 3ca6 1e3d
00000110: 7944 2f3c aa12 7e3d c591 5b3d ba92 68be
00000120: 6623 2ebe 809f 59bc df4b 9cbe 7582 09be
00000130: 4de9 33be 3b22 293e cd66 00bd 7eed 1dbe
00000140: 9934 2d3e 47d2 7e3d 4cae ce3e 3841 1bbf
00000150: 3519 623b 999f c2be f512 c33d 0fc3 6bbd
00000160: 1306 ad3d c77e 9cbe 3029 083e 2442 67bc
00000170: 8a6d 6cbe 8598 e53e c1c2 b73d 78ae 463b
00000180: 2e61 62be f381 f63d 1ecb 12be 632d 883e
00000190: 4fcd 28bd 5861 5c3d f02d f6bc 8de0 7e3e
000001a0: 5597 e93d 02a9 01be 6524 4d3e 6a3e 6bbd
000001b0: 7f49 8c3d c119 52be 31ba adbd 1944 0d3d
000001c0: 947d 7d3e 30f4 9c3d f625 7fbe 2875 5dbd
000001d0: 7275 32be 62de 05be 00b5 60be 48db 3d3d
000001e0: 401e 9d3d 84b7 56be f4ac dfbd d495 dd3d
000001f0: 40d1 ecbc e08f 7abc 56c6 043e a42f a03d
00000200: 823a 4b3d 7fb4 ce3d de5c 813d 6b70 b23d
00000210: 3739 88be a419 4cbe ae5e acbd eae4 143e
00000220: 8c03 cf3d 3a4d 9ebe b34a 98be 2eb7 09be
00000230: b4f3 87be 5a1f 1e3e 2291 bc3d 5249 ed3d
00000240: cdb3 11bd e48b 223e 17a5 013e 0394 b03e
00000250: 9ea8 023e 7e50 7f3e 0355 133e 6ed2 01bd
00000260: ed87 0dbe e04d 3bbe c62b 4f3b 9fa2 8dbe
00000270: c79b 4ebe 7048 ca3c ec39 2e3e 9973 b9bd
00000280: 8bf5 6ebe a22e 9ebd 7db4 40bd 4eaf 223d
00000290: 8656 d0bd 7223 a53e cce4 e33e d391 28be
000002a0: 57f9 5f3e 1649 5cbb aaec 173d 6a7e 50be
000002b0: 7d44 c33d d348 b3be bb8c 173e 8aa2 a83e
000002c0: b85a 89bd 5300 bc3d 1dd7 623e 357c 8bbd
000002d0: 0157 563e 66bb c7bd 9f73 e4bd d433 4ebe
000002e0: fb4f f43c 0280 4d3e 96c5 0e3e a9ce b13e
000002f0: 2124 3e3c 038c 823e a50a 53be 1243 70bc
00000300: 0291 04be 24f2 363e 9713 bcbc 260f e93c
00000310: c93e 09be b689 e8bd ef5a 0c3e 17e6 c83e
00000320: d558 aabd c742 a3bd 90d9 b1be 993c 843e
00000330: 5aea ebbd aa46 e5bd 8737 ed3d 5349 f0bd
00000340: 1c62 68be 3463 5a3e de06 5cbd 8710 933e
00000350: f631 86bd ebdb bc3d bb1b edbd 0a98 0abe
00000360: 854a 41bd 60f7 3abb 4105 04be 082a 88be
00000370: d1ea c03c 5ef3 e2be 58bd ed3d d453 0a3d
00000380: 3044 45be 4c14 d73d bc6e c3bd b0e6 b0bc
00000390: 208d e7bd 8034 84bc d054 51be eaae 30be
000003a0: d048 a2bc 6019 dbbd 962c 68be 9cf8 f0bd
000003b0: 00e6 6aba ee22 12be 5422 ac3d a007 7c3c
000003c0: 6c68 4dbe b527 38be d0bd d43d b910 d03c
000003d0: c019 afbd 6d51 cd3d 2b41 953e 4391 e0bc
000003e0: 9d7e a6be c85d 92bd e159 47bd e4c4 1abe
000003f0: 53b6 73be f717 cabe 3818 2dbd ea31 fe3c
-0.21075018 0.087628916 -0.072379045 0.086014494 -0.2736222 -0.10112001 -0.08089123 0.062738545
-0.20559005 -0.010128647 -0.18139948 -0.27336463 -0.32451624 -0.057422154 0.12511295 -0.07927474
0.25179803 -0.041856464 0.49060538 -0.14217247 0.08457382 -0.16593051 -0.21764758 0.307116
-0.026042541 -0.0288883 0.020267367 0.18929991 -0.1375266 0.0015926197 -0.121166416 0.13943863
0.08877059 0.10741022 0.16227636 0.0775145 -0.06521564 0.25191978 0.12524275 0.09587299
-0.07593666 0.048803512 0.2685743 -0.36627513 -0.122852445 0.00905086 0.098943785 0.066530034
-0.24242806 -0.0878464 -0.071478985 -0.21140425 -0.24707769 -0.2577297 0.116087295 -0.28795063
-0.255631 -0.10930314 0.03569589 0.10053143 -0.09657289 -0.070783585 0.10310652 0.069196194
-0.13654776 -0.052378822 -0.11110181 0.038732752 0.0106974775 0.06202952 0.053605814 -0.22712222
-0.17005691 -0.013282657 -0.30526635 -0.13428672 -0.17569466 0.16516964 -0.03134804 -0.15422627
0.16914596 0.062212255 0.40367353 -0.6064639 0.0034499888 -0.38012388 0.095251 -0.05755907
0.08448424 -0.30565473 0.13296962 -0.01411489 -0.23088661 0.44842926 0.08972693 0.0030316394
-0.22107384 0.120365046 -0.14335296 0.26597127 -0.041211423 0.05380377 -0.030051202 0.24890347
0.114058174 -0.12662128 0.20033415 -0.05743257 0.06849956 -0.20517637 -0.08482779 0.03448877
0.24754936 0.076637626 -0.24916825 -0.054066807 -0.17427614 -0.13073114 -0.21944046 0.0463517
0.07671785 -0.20968443 -0.1092166 0.10819593 -0.028908372 -0.015293092 0.12966284 0.07821587
0.049616344 0.10093021 0.06316541 0.08712848 -0.2660615 -0.19931656 -0.08416496 0.14540449
0.101080984 -0.30918294 -0.2974449 -0.13448784 -0.26553118 0.15441647 0.092073694 0.1158625
-0.035571862 0.15873677 0.12660633 0.34487924 0.12759635 0.24933049 0.14387898 -0.031694822
-0.13821383 -0.18291426 0.0031611784 -0.27663133 -0.20176612 0.024692744 0.17014283 -0.09055252
-0.23335855 -0.07723738 -0.047047127 0.039717965 -0.10172753 0.32253605 0.44510496 -0.16461878
0.2187246 -0.0033612899 0.037090935 -0.20360723 0.095345475 -0.35016498 0.14799778 0.32936507
-0.06706756 0.09179749 0.22152372 -0.068108 0.20931627 -0.0975254 -0.111548655 -0.20136958
0.029823294 0.20068362 0.1394256 0.34727982 0.0116052935 0.25497445 -0.2060953 -0.014664428
-0.12945941 0.17865807 -0.02295856 0.028449606 -0.13402857 -0.11354391 0.13706563 0.39238045
-0.083177246 -0.07971721 -0.347363 0.25827482 -0.115193084 -0.11195119 0.115828566 -0.117327355
-0.22693676 0.21326905 -0.053717487 0.28723547 -0.06552498 0.092216335 -0.11577555 -0.13534561
-0.047190208 -0.0028528795 -0.12892629 -0.26594567 0.02354947 -0.443263 0.1160838 0.03377135
-0.19264293 0.10501918 -0.09542605 -0.021594375 -0.11306214 -0.016138315 -0.2044251 -0.17254224
-0.01981011 -0.10698199 -0.22673258 -0.117661685 -0.0008960664 -0.14271137 0.08404985 0.015382677
-0.20059365 -0.17983897 0.10387766 0.025398599 -0.08549833 0.10025296 0.29151282 -0.027413016
-0.32518473 -0.071467936 -0.0486697 -0.1511417 -0.2380002 -0.3947141 -0.042259425 0.03102966

fc1.bias f4 [100]
00000000: ddc6 bd3c 5403 b93e 2f6c 293e 5f72 c73d
00000010: 4b0b 5abe 64ef 88be 2268 7a3e 1036 8cbd
00000020: e932 3cbb 2cb3 8f3d b48a 92bd eeb3 673e
00000030: bddf a83d 4829 483e f812 403d 0367 8f3d
00000040: 075d 533e 1bb8 25be e7f9 42be 1059 06bc
00000050: 595d 12be 8817 633e 6b7b 38bd 3141 9fbe
00000060: 9dfd 01be 9557 993c c292 10be a5f0 f43d
00000070: d765 b1bd 8e93 43bd 5308 cebd acfa 123d
00000080: c5c2 ba3d d7cf a6bc a0e3 ae3d ce6b 63be
00000090: 385a 13be 3559 88be db6e 25be 83a8 433e
000000a0: db4a e03c 5312 463e 88ca 223e 941e 5e3e
000000b0: 01f1 6b3b f218 32be 699e 24bd 1848 c4be
000000c0: 9031 153d 2449 1ebd 03c8 03be 5283 a93d
000000d0: 4c4c 273b 364d 26be cfdb dc3e 9dbc fe3d
000000e0: ad1a 48be 7073 43be 15f1 40be d77a 8cbe
000000f0: a66a 903e 7634 c3be f7c7 6fbc aff9 93bd
00000100: 9ea2 aa3e 3c0d 04bd 1c2a 75bd 78ed 88be
00000110: 7481 0dbe 92c8 2ebe 8832 3d3d ee78 94bb
00000120: 1b57 a0be aaa3 8bbe d7a9 96bd c0aa 6b3c
00000130: 59fc 17be b726 2abd d707 6f3d 70c1 46be
00000140: 0fa2 8b3d 2eb8 bbbe 00fc 5fbe 70f6 6c3d
00000150: 4496 b93d 6034 903d a069 d0ba 5fdc 1bbe
00000160: b796 3a3e f169 603e a1ab 383e d214 ee3d
00000170: 161e 663d cdde 34be eca5 66bd 7668 a03a
00000180: 5ba7 52be 4a2c a33c 2562 0bbd 33ad d1bd
0.023166114 0.36135352 0.16545175 0.097386114 -0.2129337 -0.2674514 0.24453786 -0.06846249
-0.0028716868 0.07016596 -0.07155362 0.22627231 0.082458 0.19546998 0.04689309 0.0700207
0.20640956 -0.16183512 -0.19040643 -0.008199945 -0.14293422 0.22176945 -0.045039576 -0.31104425
-0.12694402 0.01871852 -0.14118484 0.11959962 -0.086620025 -0.04774814 -0.100601815 0.03588359
0.091191806 -0.020362778 0.0853951 -0.22209093 -0.14389884 -0.2663056 -0.1615557 0.19107251
0.027379444 0.19342928 0.15897572 0.21691352 0.0036001804 -0.17392328 -0.040190134 -0.38336253
0.03642422 -0.03864397 -0.12869267 0.082770005 0.0025527654 -0.16240391 0.4313645 0.12438319
-0.19541426 -0.19087005 -0.18841965 -0.2743747 0.28206366 -0.38125962 -0.014635078 -0.07225358
0.33327192 -0.032239184 -0.05985461 -0.26743674 -0.13818914 -0.17068699 0.04619077 -0.0045310175
-0.31316456 -0.27273303 -0.07356613 0.014383972 -0.14842357 -0.041540828 0.058357086 -0.19409728
0.068180196 -0.36663955 -0.21873474 0.05785221 0.09061864 0.0704124 -0.0015900619 -0.15220784
0.18221556 0.21915413 0.18034221 0.11625065 0.056181036 -0.17663117 -0.05631058 0.0012238163
-0.20571654 0.01991858 -0.034029145 -0.10238113

fc2.weight f4 [10, 100]
00000000: 4c64 a63c 08fc bb3d f2fb 68be 3940 3c3d
00000010: 5982 4f3c 448d c33e ff8a 50be 931f a9bd
00000020: c1f0 00bd bc98 f7bd b290 4ebd bcb4 0f3e
00000030: 609e 44be fcd5 9abc ca55 74bd a991 6ebe
00000040: 6182 ca3d 55bd 753e 77da 2bbe 6c68 723e
00000050: 2ecb 02bd 0e20 67be f56f 2d3c b40d 07bd
00000060: a3bd 97bd d657 bebd 9967 bdbb 4f78 a0bd
00000070: 4ce9 77bd cee7 0f3e 8ccd 123c 3a2e 6cbd
00000080: 24cc 873d a73c 1c3e dcc3 d7bd 7691 1cbd
00000090: 8770 44bd c29d 65bb c191 89be bbdb e1bd
000000a0: 207f 123e 854c 38be e36e b83c 7c44 0f39
000000b0: f71d 0b3d 3215 82bd 4560 81bc 3d85 243e
000000c0: 8d9d d0bd 3d44 f5bc c35c f83d 8f90 aabe
000000d0: d8f2 ac3e 4809 663e c5cc 2fbd efac 2fbe
000000e0: 7e2c a03d dd30 8d3d 7cae 96ba c431 073e
000000f0: a027 20bd 7023 b63c 806d 0c3e f2e8 93bd
00000100: 116e c9bd a457 8b3e 786c 07be 5299 62be
00000110: fdbb c73d 3b7a b03d 8ef1 ea3c 348b a2bd
00000120: a33d 7ebd b306 8c3d 685a 0aba 604e 953c
00000130: c5e3 f03c 05aa 98bd 885a 63bd bf9e 9a3d
00000140: 3b61 ad3d f428 c23d 09b7 8b3d c44c d3bc
00000150: fe60 033b 976b 08bd a480 523d 3f05 c43d
00000160: d14a 973d 918a f93d 10df 013f 6b81 0abe
00000170: 9be4 8f3d 87af 123f 1d2f 5dbd 5969 0fbe
00000180: c3e0 d93c 522c 293e 0f4d 733e 4c33 42bd
00000190: 77df b7bd 5efe 2c3e 0f2f eebd 1509 983d
000001a0: e64a c0bc 225a 5a3e 4499 9ebd 80c2 22bc
000001b0: 462a d0bd 3086 91bd 536b 05be e808 593d
000001c0: dbd5 9b3c 9472 9ebc c068 ca3a 3560 33bd
000001d0: 7c7c b9bd 13b9 ca3c 2b0e 13bd 4004 263e
000001e0: 5bdf e13d 4355 c8bd f2e5 023d 864f b4bd
000001f0: 6b97 efbd d30b 9d3c a7d5 d63b c08c b9bb
00000200: d612 83bc 9d9f 63bd c363 0ebe f7b1 06bd
00000210: 3bbe 89bd 3569 dd3c 3f43 37be fc9f 38be
00000220: 5d0d 323d a451 03bd fe42 503c d03d 9ebd
00000230: 3497 33bd 158e 6dbd 7f6b 4a3e 2e9e 10be
00000240: f594 453c 7621 02bd 9a12 843d 5a9a fa3d
00000250: ee6c d13c 9e19 5abd 1052 283d e5a4 9d3d
00000260: 41cf ed3d 6271 843e 3c69 31be 468b e6bd
00000270: 2165 953d 8990 9a3d c881 e2bd 92bb 1ebd
00000280: 95bb 6bbe 3e80 94bd 2cdd 313e 119d a63d
00000290: 454b 92bd 248b c53d 9d24 083d f4af 19be
000002a0: f435 f5bc 609f a9bd 0763 633d ee2c f5bc
000002b0: 79fa fa3d b78e ab3d 5702 c5bc e938 b63d
000002c0: 0a8d 6dbd 8182 be3c e665 b2bd 808e 84bb
000002d0: e806 4fbd cfbd 77bd 447e 18bd 31ba ddbc
000002e0: 5862 41bd bc14 e53c 9262 843c 7883 e13d
000002f0: c208 9c3b e3ac fa3d e192 90bd cfe1 7c3c
00000300: c5e9 753c af0d 1abd 95bc 04be 2323 a13c
00000310: dea5 ad3d 316a 4fbd f4c2 413e c066 14be
00000320: 1727 b43c 8d32 273e 3707 01be bf21 a0bc
00000330: dafd 02be af54 603e 23a8 003c b41a e33c
00000340: 64e0 053c 0a0f 193d c9f1 f9bd 4bcf 2f3e
00000350: 0c43 32ba 96e6 a2bd 17f2 69bd b5ff b6bc
00000360: 406d 443c 0980 843d 6a2e 223d 5c62 273e
00000370: 3be5 37bd 8c05 aebd 1536 353c 769a 0bbe
00000380: 9cb6 cfbd 3e18 30bc 7bec c53c 9171 be3c
00000390: d139 efbb 3b5c b0bd b36d bebd ab79 00bc
000003a0: 06dd 0fbd d253 cc3d 58d4 1cbe 0f43 c6bd
000003b0: 97cd da3d 473d 003c 9ec5 4bbd 8de1 47be
000003c0: b509 fabc e21b 18be bd3b 553e 9b10 82bd
000003d0: 8401 c3bc d80f 9d3c 4c73 ffbc a434 af3d
000003e0: c78f bf3d 3198 89bc 059d d8bc 04bb 2f3d
000003f0: 9718 053e be83 7c3e dcef 25be 793a a6bd
0.020311497 0.091789305 -0.2275236 0.045959685 0.012665355 0.38193715 -0.20365523 -0.082579754
-0.0314796 -0.12089679 -0.05043096 0.14033788 -0.1920104 -0.018900864 -0.059652127 -0.23297752
0.09888149 0.23998006 -0.16782556 0.23672646 -0.03193205 -0.22570822 0.010585775 -0.032972053
-0.07409217 -0.09294097 -0.005780172 -0.07835447 -0.060525224 0.1405327 0.008960139 -0.057661273
0.066307336 0.15257512 -0.10535404 -0.03822466 -0.047958877 -0.0035036658 -0.26869014 -0.110282384
0.14306307 -0.1799794 0.022513812 0.00013663055 0.033964124 -0.06351699 -0.015792975 0.16066451
-0.101863004 -0.029939765 0.12127068 -0.33313414 0.33779025 0.22464478 -0.042919893 -0.17155813
0.07820986 0.068940856 -0.0011496092 0.13202578 -0.03910029 0.022233695 0.13713646 -0.07222165
-0.098354466 0.27215302 -0.13224971 -0.221288 0.09752653 0.086170636 0.028679635 -0.07936707
-0.0620705 0.06837215 -0.0005277754 0.018225849 0.029405484 -0.07454304 -0.05550626 0.0754981
0.08465811 0.094804674 0.068220206 -0.02579344 0.0020046826 -0.03330573 0.051392213 0.09571313
0.07387317 0.121846326 0.5073099 -0.13525932 0.07026025 0.57299083 -0.05400001 -0.1400503
0.026596433 0.16520813 0.23759864 -0.0474122 -0.089781694 0.16893908 -0.116300695 0.07423607
-0.023473214 0.21323445 -0.07744077 -0.009934068 -0.10164313 -0.07105672 -0.13029222 0.05298701
0.019022873 -0.019341744 0.0015442595 -0.043792922 -0.09056947 0.024746453 -0.035902184 0.16212559
0.1102893 -0.097818874 0.031957574 -0.088042304 -0.116988026 0.019170677 0.006556231 -0.0056625307
-0.016000193 -0.05557214 -0.13905244 -0.032884564 -0.06725737 0.027027706 -0.17896746 -0.18029779
0.043469775 -0.03206028 0.012711285 -0.077266335 -0.04384537 -0.057996828 0.19767569 -0.14122841
0.01205944 -0.031770192 0.064488605 0.122364715 0.025564637 -0.053247087 0.041093886 0.07697467
0.11611796 0.25867754 -0.173253 -0.11257033 0.072946794 0.07547099 -0.1105991 -0.0387531
-0.23020776 -0.07251023 0.17369527 0.08135427 -0.07143263 0.096456796 0.033238042 -0.15008527
-0.029932953 -0.082823515 0.05551436 -0.02992865 0.12254805 0.0837683 -0.024048967 0.088975735
-0.057995833 0.023255588 -0.08710842 -0.0040453076 -0.050543696 -0.06048375 -0.03722979 -0.027066322
-0.04721293 0.027963988 0.016160283 0.11011404 0.004761786 0.12240007 -0.07059265 0.015434696
0.015009348 -0.037610706 -0.12962563 0.019670075 0.08478902 -0.05063838 0.18922025 -0.14492321
0.021991296 0.16327877 -0.12600408 -0.019547341 -0.12792149 0.21907304 0.007852587 0.027722694
0.008171175 0.037367858 -0.1220432 0.1716892 -0.0006800152 -0.07954137 -0.05711564 -0.022338727
0.011988938 0.06469733 0.039595045 0.16346115 -0.044896346 -0.08497152 0.011060257 -0.13633141
-0.10142252 -0.010747967 0.024160614 0.023247512 -0.0073005934 -0.086113416 -0.09298267 -0.007841508
-0.035122894 0.09976925 -0.15315378 -0.09680759 0.106837444 0.00782711 -0.04974901 -0.19519635
-0.030522207 -0.14854386 0.2082357 -0.063508235 -0.023804434 0.019172594 -0.031182908 0.08554962
0.09353595 -0.016796203 -0.02644206 0.04290296 0.12997662 0.2465963 -0.1620478 -0.081166215

fc2.bias f4 [10]
00000000: 93a5 aabc 50e1 a33d 7801 133d 6b19 123c
00000010: c9d4 8f3d 3681 6c3b efd6 6dbb 31c7 1f3d
00000020: 9667 423d e1a2 f63b
-0.020830905 0.08001959 0.035890073 0.008917193 0.070230074 0.0036087758 -0.003629144 0.039008323
0.04746207 0.007526741
