pyCode/CNN_xgboost/CNN_XGBoost4Collector.pth (torch, 425203 bytes, 4 tensors)

conv1.weight f4 [16, 1, 3]
0.029910564 0.32751817 -0.19168147 0.08635908 0.19809842 -0.12092078 0.5404943 -0.20925647
0.5079807 0.09328878 0.30038345 0.15688837 -0.15909913 0.27703285 0.16733843 0.1189757
0.29978508 0.27289677 -0.34102705 0.55946314 0.49513054 0.31118232 -0.31282055 -0.11125252
-0.02539754 -0.07815269 -0.24524823 0.105385065 0.280272 0.019890904 -0.043499112 0.4529841
-0.5362033 -0.20159173 -0.21489275 0.48783803 0.083447695 0.24970323 0.49831665 -0.20879629
0.36615056 0.3715821 0.3653611 0.18545288 -0.09111211 -0.39361677 -0.1955145 0.49641526
00000000: 0007 f53c 76b0 a73e 2648 44be 08dd b03d
00000010: 50da 4a3e 50a5 f7bd d65d 0a3f 5447 56be
00000020: 060b 023f 300e bf3d dccb 993e 58a7 203e
00000030: e2ea 22be 40d7 8d3e c45a 2b3e 88a9 f33d
00000040: 6e7d 993e 20b9 8b3e 199b aebe fa38 0f3f
00000050: c081 fd3e 4a53 9f3e 042a a0be 5cd8 e3bd
00000060: 800e d0bc 840e a0bd 5a22 7bbe 20d4 d73d
00000070: d07f 8f3e 40f2 a23c 202c 32bd 88ed e73e
00000080: 9f44 09bf 106e 4ebe d80c 5cbe e8c5 f93e
00000090: a0e6 aa3d 34b2 7f3e 5c23 ff3e b2ce 55be
000000a0: 1678 bb3e 0240 be3e 9c10 bb3e 5ce7 3d3e
000000b0: fc98 babd 2388 c9be f434 48be 242a fe3e

conv1.bias f4 [16]
0.22541028 -0.24686074 0.20514655 -0.14506793 -0.122882456 0.5242989 0.37766623 -0.16793743
0.21133411 0.20254916 0.44907022 0.29399544 -0.23722792 0.087170124 -0.41816613 -0.15228793
00000000: f4d1 663e 10c9 7cbe f011 523e b08c 14be
00000010: cca9 fbbd 7438 063f 785d c13e caf7 2bbe
00000020: f867 583e 0c69 4f3e 88ec e53e 9286 963e
00000030: e0eb 72be 4086 b23d df19 d6be 5ef1 1bbe

fc1.weight f4 [100, 32]
0.029617772 0.05828668 0.03608705 -0.010040447 0.114093825 0.1591719 -0.14154279 -0.011975989
0.16046761 -0.0011276752 -0.08848979 -0.12500426 0.006624162 0.012941763 0.0850576 -0.06263161
0.033517197 -0.010040671 -0.020108193 -0.1388805 0.15387122 0.051752046 0.07398598 -0.050442547
0.024603322 0.16381638 -0.15874675 0.14265065 0.1728427 0.027507007 -0.048154876 -0.10035356
0.13906933 0.112813726 -0.08908461 0.091792 -0.1662568 0.08545746 -0.1612047 -0.0830836
0.14767928 -0.007954583 -0.16404232 0.14662938 0.107772455 -0.14218006 -0.100008674 0.037845567
-0.15578762 0.06070158 0.06873323 0.013606787 -0.021334752 0.0113288015 0.13215332 -0.022880957
-0.030634105 0.16184588 -0.055242546 0.0051193684 0.09752317 -0.16794643 -0.026091889 -0.08827729
0.15935667 0.029353991 0.09407784 -0.0021022856 -0.15222946 0.09010668 -0.033396453 -0.10268123
0.1138425 0.0720458 0.069928005 0.1606314 -0.028928041 -0.031079575 -0.16949195 -0.0019230694
0.1640126 0.0069502294 -0.10584804 0.14041881 0.0875711 -0.073622346 0.0003386438 0.017380282
0.13976817 0.0739813 -0.11468893 0.00068861246 -0.036794677 0.027266547 -0.074909426 0.07695152
-0.12701751 -0.14075907 0.12013842 0.08669616 -0.116806574 -0.042439193 0.09392594 -0.122808434
-0.121871576 -0.12405838 -0.1725399 -0.048597798 0.06416163 0.13538586 -0.027520627 -0.0060414374
0.09380539 -0.07868446 0.13443317 -0.018954843 0.17063294 -0.043941036 0.115339294 -0.03579603
0.093005344 -0.15608212 -0.16142525 -0.018793494 0.05642529 -0.036869556 0.13321279 0.14802395
-0.15212013 0.10329972 -0.11422537 -0.12462199 -0.013872072 -0.039152056 0.077404305 -0.047058955
0.14084093 -0.08830376 -0.11923893 -0.11317927 -0.05725567 0.15200575 0.047336206 0.03262742
-0.12533419 -0.07564362 -0.11285065 -0.16244882 0.103742495 -0.10627749 0.1135333 0.14852624
0.17532505 0.14734386 -0.023253873 0.006030053 -0.12098436 0.043990076 0.034813672 0.016299173
-0.016719863 -0.1383254 0.009604573 0.013190284 0.12457661 -0.15206048 -0.047117725 0.056122407
-0.00029796362 0.15764605 -0.030845135 -0.013731465 0.1731972 -0.02839829 0.07064764 0.14818974
0.047480464 -0.030921623 0.12157811 0.058723345 -0.17049353 -0.16745555 -0.07109965 0.17513837
0.15328382 0.1092173 0.054990724 -0.089500494 0.010274097 0.10703008 0.15923254 -0.063199304
-0.15542662 0.119777694 -0.14558305 -0.15816824 -0.16689068 0.0044335574 -0.0073993653 0.13574593
0.07556023 -0.12227371 -0.07873343 0.005212173 0.025644332 0.14563085 0.16655166 -0.11742072
-0.15519963 -0.055943407 -0.12504187 0.098310396 0.1651965 -0.087315224 -0.13790655 -0.047497585
-0.03104271 -0.07821833 0.16676931 0.038308203 0.1380509 -0.04238093 -0.09454438 0.15302806
0.007600948 -0.06810634 -0.055387005 -0.045109883 -0.14351307 -0.13831457 -0.117490366 0.012227982
0.005761236 0.13935418 0.07389097 0.027624786 0.019023448 -0.08901073 0.07616605 0.14289643
-0.07408303 -0.14883414 0.111738786 -0.11793575 0.0901898 0.030897856 -0.1189961 0.08452861
-0.057593264 0.11521937 0.16762881 -0.031081155 0.012592256 0.049838558 -0.17298926 -0.072761625
00000000: f8a0 f23c 04be 6e3d 04d0 133d b080 24bc
00000010: 06aa e93d f5fd 223e 98f0 10be f036 44bc
00000020: 9f51 243e 80ce 93ba 233a b5bd 1e01 00be
00000030: 800f d93b b009 543c ae32 ae3d 0045 80bd
00000040: 5449 093d a081 24bc f0b9 a4bc b136 0ebe
00000050: 6b90 1d3e f4f9 533d f685 973d d89c 4ebd
00000060: e88c c93c 7bbf 273e 828e 22be 0313 123e
00000070: adfd 303e 6056 e13c 0c3e 45bd 2b86 cdbd
00000080: 3168 0e3e e20a e73d fe71 b6bd 72fd bb3d
00000090: 393f 2abe 5204 af3d d812 25be bc27 aabd
000000a0: 3d39 173e f053 02bc b6fa 27be 0326 163e
000000b0: ceb7 dc3d a697 11be 59d1 ccbd f403 1b3d
000000c0: ca86 1fbe 38a2 783d 02c4 8c3d 00ef 5e3c
000000d0: 38c6 aebc 709c 393c 3353 073e d870 bbbc
000000e0: 60f4 fabc edba 253e 0246 62bd 60c0 a73b
000000f0: 3aba c73d 26fa 2bbe a8be d5bc b9ca b4bd
00000100: 652e 233e c877 f03c e2ab c03d 80c6 09bb
00000110: 0ae2 1bbe da89 b83d b8ca 08bd 894a d2bd
00000120: 4226 e93d c08c 933d 6a36 8f3d 8f7c 243e
00000130: 80fa ecbc 989a febc 4c8f 2dbe 800f fcba
00000140: ebf2 273e c0be e33b dbc6 d8bd f3c9 0f3e
00000150: 7a58 b33d 50c7 96bd 008c b139 1861 8e3c
00000160: 631f 0f3e 8283 973d 08e2 eabd 0084 343a
00000170: 04b6 16bd 185e df3c 1d6a 99bd c298 9d3d
00000180: e110 02be 2523 10be 220b f63d c28d b13d
00000190: 4938 efbd b8d4 2dbd 3e5c c03d fd82 fbbd
000001a0: ce97 f9bd 5212 febd 4dae 30be 7c0e 47bd
000001b0: 2c67 833d 97a2 0a3e f072 e1bc 40f7 c5bb
000001c0: 0a1d c03d 5125 a1bd d9a8 093e 3047 9bbc
000001d0: 67ba 2e3e 84fb 33bd 0237 ec3d dc9e 12bd
000001e0: 9679 be3d fed3 1fbe a94c 25be d0f4 99bc
000001f0: 341e 673d 8804 17bd ef68 083e 9793 173e
00000200: 61c5 1bbe ce8e d33d feee e9bd d039 ffbd
00000210: b047 63bc e85d 20bd 2686 9e3d e4c0 40bd
00000220: 9b38 103e 9ad8 b4bd 8a33 f4bd 88ca e7bd
00000230: ec84 6abd 65a7 1b3e 9ce3 413d 54a4 053d
00000240: 9b57 00be 0beb 9abd 3e1e e7bd fc58 26be
00000250: f276 d43d 03a8 d9bd 2684 e83d 4317 183e
00000260: 6988 333e 4fe1 163e e87e bebc c097 c53b
00000270: a6c6 f7bd f02e 343d c898 0e3d d885 853c
00000280: 18f8 88bc 2ca5 0dbe 805c 1d3c 101c 583c
00000290: 0622 ff3d beb5 1bbe 84fe 40bd 9ce0 653d
000002a0: 0038 9cb9 f76d 213e f0ae fcbc f0f9 60bc
000002b0: 9b5a 313e 88a3 e8bc b6af 903d 0dbf 173e
000002c0: e07a 423d 584f fdbc f2fd f83d e487 703d
000002d0: db95 2ebe 7879 2bbe b19c 91bd 7957 333e
000002e0: 6ff6 1c3e 52ad df3d f43d 613d 094c b7bd
000002f0: b054 283c 9632 db3d db0d 233e a36e 81bd
00000300: 2828 1fbe 024e f53d b913 15be dbf6 21be
00000310: 64e5 2abe 6047 913b 6076 f2bb fb00 0b3e
00000320: 52bf 9a3d a46a fabd fe3e a1bd e0ca aa3b
00000330: 1014 d23c 4120 153e 858c 2a3e 467a f0bd
00000340: a7ec 1ebe ea24 65bd fa0a 00be f656 c93d
00000350: 4529 293e 53d2 b2bd 6037 0dbe d48c 42bd
00000360: 484d febc ef30 a0bd 93c5 2a3e 10e9 1c3d
00000370: 375d 0d3e a097 2dbd 7ca0 c1bd 63b3 1c3e
00000380: 6011 f93b 567b 8bbd 7cdd 62bd 24c5 38bd
00000390: 17f5 12be 56a2 0dbe ca9e f0bd e057 483c
000003a0: c0c8 bc3b ddb2 0e3e 2654 973d 604d e23c
000003b0: 10d7 9b3c 424b b6bd f2fc 9b3d 7153 123e
000003c0: d8b8 97bd fa67 18be 4ed7 e43d 4c88 f1bd
000003d0: 6eb5 b83d 801d fd3c 3ab4 f3bd 561d ad3d
000003e0: eae6 6bbd 22f8 eb3d e3a6 2b3e e89d febc
000003f0: c04f 4e3c 8423 4c3d 1924 31be 0c04 95bd

fc1.bias f4 [100]
0.02941367 0.11112325 -0.03820014 -0.11382599 -0.12082787 0.16333874 0.088911876 -0.06854568
-0.040718645 -0.09930918 -0.15978816 -0.11689298 0.06850289 -0.086149946 0.0938267 -0.02650033
0.13160367 0.15559898 -0.16767931 0.11752136 0.111848965 -0.1567823 -0.073182546 -0.09109563
-0.0006175786 0.00676769 -0.17383018 0.09409259 0.08014144 0.08752097 0.13260333 -0.0032353401
0.095411584 0.08617215 -0.108419456 -0.08676864 -0.025199533 0.006785542 -0.13228813 0.0053030252
-0.087719835 -0.122507185 0.03812109 -0.04671426 0.08760114 -0.15467851 0.15015282 -0.11383845
0.15546949 0.027300894 -0.02297759 -0.10614675 -0.07333785 0.115764454 -0.17260873 0.14374147
-0.031597763 -0.10880255 0.02814293 0.12688388 -0.08904999 -0.105234 0.1289001 -0.017564356
-0.08346559 -0.030598551 0.17662652 -0.15639415 -0.11856001 0.12886088 -0.07636699 0.1602935
0.09920438 0.14827336 -0.07602587 0.1397524 0.17208003 -0.07520464 -0.13628407 0.019218937
0.15222 -0.0728616 -0.02841577 -0.062207565 -0.14113179 0.08019923 0.0712259 -0.07028031
-0.16860667 0.14876871 0.016951188 0.16292085 0.10248132 0.15800782 -0.12402211 0.0016094595
-0.14525743 -0.15963772 0.1662495 -0.053458855
00000000: f0f4 f03c 9694 e33d c077 1cbd 9a1d e9bd
00000010: 9a74 f7bd 4542 273e 6e17 b63d ad61 8cbd
00000020: 98c8 26bd 9d62 cbbd 829f 23be 9665 efbd
00000030: 3e4b 8c3d 626f b0bd 3628 c03d 3817 d9bc
00000040: 1dc3 063e 5755 1f3e 20b4 2bbe 0aaf f03d
00000050: 1211 e53d 8a8b 20be bbe0 95bd 5890 babd
00000060: 00e5 21ba 80c3 dd3b 8a00 32be 9eb3 c03d
00000070: 3221 a43d 323e b33d 2bc9 073e 0008 54bb
00000080: 2667 c33d 067b b03d 050b debd c2b3 b1bd
00000090: 406f cebc 4059 de3b 8a76 07be 00c5 ad3b
000000a0: 75a6 b3bd 0ce5 fabd dc24 1c3d 7457 3fbd
000000b0: 3a68 b33d 0b64 1ebe a9c1 193e 2224 e9bd
000000c0: 6533 1f3e 20a6 df3c 803b bcbc 7863 d9bd
000000d0: 2832 96bd ea15 ed3d 58c0 30be f730 133e
000000e0: a86c 01bd dfd3 debd 008c e63c d9ed 013e
000000f0: d75f b6bd ec84 d7bd 63fe 033e 20e3 8fbc
00000100: 02f0 aabd d0a9 fabc 95dd 343e ca25 20be
00000110: 97cf f2bd 1bf4 033e 4c66 9cbd fb23 243e
00000120: aa2b cb3d f9d4 173e 74b3 9bbd 411b 0f3e
00000130: bf35 303e e404 9abd 0d8e 0bbe 0871 9d3c
00000140: 8fdf 1b3e 7638 95bd 30c8 e8bc 5ccd 7ebd
00000150: da84 10be 7e3f a43d e2de 913d 20ef 8fbd
00000160: 3aa7 2cbe d356 183e 38dd 8a3c b9d4 263e
00000170: bae1 d13d cdcc 213e 4eff fdbd 80f4 d23a
00000180: 5dbe 14be 1278 23be 4f3d 2a3e acf7 5abd
