pyCode/CNN_xgboost/CNN_XGBoost4Gun.pth (torch, 714639 bytes, 4 tensors)

conv1.weight f4 [16, 1, 3]
00000000: 2ff4 8dbe 2842 9a3e 1a06 033f c05e 33bd
00000010: 0405 003f 68e9 263e 1eda cfbe fb97 13bf
00000020: 26b3 c03e 783d 003f 5014 eebe 0c5f 673e
00000030: a202 b33e b00b a8be 9a70 963e dd97 00bf
00000040: 6017 f2bd 2cf9 033f 9c8f f93e 64a6 743e
00000050: 06f4 a13e 78b6 07bf a882 a7bd 28f7 d03d
00000060: aa90 bd3e bcd7 3abe 001f 693c a8ed 0e3f
00000070: 91ff 02bf 22c5 be3e 782a c23e 64eb e6bd
00000080: 0016 3b3d 16a3 ffbe 5046 dc3e b07d 08bd
00000090: b7a6 0dbf b082 ca3d 4822 ef3e 585d fcbd
000000a0: 5056 abbd 2ca3 e93e 0290 dabe 8cd5 e53e
000000b0: dadf c3be 10e4 21be 304e 3c3e 899a 0ebf
-0.2772536 0.30128598 0.51181185 -0.043791533 0.50007653 0.16299975 -0.40596098 -0.5765378
0.3763668 0.50093794 -0.46499872 0.22594851 0.34962946 -0.32821417 0.29382783 -0.50231725
-0.11820865 0.5155208 0.48742378 0.23891598 0.31631488 -0.530128 -0.081792176 0.10203391
0.37024432 -0.18246359 0.014228582 0.55831385 -0.51171213 0.37259775 0.37923026 -0.11275366
0.045675278 -0.49929112 0.43022394 -0.03332299 -0.5533251 0.09888208 0.46705842 -0.123224914
-0.08366072 0.45632303 -0.42687994 0.44889486 -0.38256723 -0.15809655 0.18389201 -0.5570455

conv1.bias f4 [16]
00000000: 6002 073d 9937 99be 8c65 35be dc0c 7b3e
00000010: 8029 263d d4fa aabe 0089 673b 18f0 e13e
00000020: c22e ccbe b8b6 953d 8429 c83e d2b0 0dbf
00000030: 48a2 6fbe 00f3 e63c c802 fc3d 34a0 033f
0.03296125 -0.2992523 -0.17714518 0.24516624 0.04056692 -0.33394492 0.003532946 0.4412849
-0.39879423 0.073102415 0.39094174 -0.5534793 -0.23401749 0.028192043 0.12305218 0.51416326

fc1.weight f4 [100, 32]
00000000: 13e3 133e 730c 163e 1694 cb3d 1b2e 2c3e
00000010: 179f 2fbe ba7c 2fbe 38fd 1fbd 5837 c93c
00000020: 34d0 42bd a07a 23bd 004a 4dbb 4c7d 23be
00000030: 864c 63bd e882 383d 80e2 60bb 7309 88bd
00000040: ca00 1ebe a013 80bd ded7 c23d 2f10 b3bd
00000050: 7332 95bd f9b7 e9bd 8233 ffbd f5fa 2b3e
00000060: 0bcb 0a3e 5e15 e03d b036 1dbe 64a5 05bd
00000070: bbd7 063e 4058 54bb dd3b 0c3e 9b71 063e
00000080: 7c30 343d 2951 d3bd 0a88 ac3d 0b0b 0bbe
00000090: f435 0dbd 00b0 1f38 aa06 8d3d d83c 3a3d
000000a0: 1199 13be 4086 473b 9425 33bd 98de 873d
000000b0: f881 debd 2c48 0e3d f6c3 963d b59a 20be
000000c0: 5867 94bd 1029 4ebc 2808 4abd 1626 8a3d
000000d0: f796 0b3e 9870 10be 2f8a 243e fc89 47bd
000000e0: 9c68 0cbe 7374 94bd 0479 7f3d 5802 443d
000000f0: 6c7b 663d ce58 d3bd e1b6 b0bd eef8 00be
00000100: 45b0 12be 708c 1ebc f006 5b3d a27b 9d3d
00000110: 8c65 0ebd 9a13 ea3d 0d5e 063e 384b 39bd
00000120: 42ec be3d 6b4e 103e 0066 633d e09e d23b
00000130: 8850 003d 4a55 ba3d f710 31be 664c 06be
00000140: 7a6a fd3d c9ba 0b3e 741a 6fbd 1c48 6ebd
00000150: 6a62 ed3d 777a 2d3e e342 023e 6791 0f3e
00000160: 4c37 0dbe 6ade f83d f044 333d 0fb7 323e
00000170: 029d 31be 1631 b53d 50c8 2d3d eb69 0fbe
00000180: 3d8a 173e 15d6 033e c246 2fbe 2491 39bd
00000190: 8c4e 19bd 45d3 87bd 2143 31be 1232 64bd
000001a0: 801a 1c3c 88cb ee3c ebb0 243e b18f 063e
000001b0: 627c 9b3d d0ef dfbc 2662 d73d a734 f5bd
000001c0: dda9 113e af76 053e 0a69 d83d 9b1e 1e3e
000001d0: f632 db3d e482 47bd 2033 753c c889 903c
000001e0: 81ef c9bd f924 2a3e 0a8f 88bd 8c5c 46bd
000001f0: a784 053e fb96 013e 4d62 ccbd 028a dbbd
00000200: 5bd4 243e 23f1 bdbd d527 083e 962b e03d
00000210: 4e8a 9c3d aeba f53d 2a63 983d 5064 683d
00000220: 2352 313e 1c3a 6d3d 146b 6dbd 13b9 d2bd
00000230: 44c0 10be 72ac a23d 92d5 84bd c6c8 bd3d
00000240: f73e 233e 051e a4bd 87c6 1e3e aa7a be3d
00000250: f72b 07be 08cb 18be 04f6 cabd 58db 6b3d
00000260: 1c20 41bd 6115 91bd 4c6f 583d 00cc 4139
00000270: beb9 a23d 7fb6 343e 60d3 ac3b ec7c 01bd
00000280: b0f7 20be abb4 333e 358e dfbd 31df 2c3e
00000290: cc02 10bd dd45 09be 32b7 dfbd 2d3e 173e
000002a0: ac9c 28bd 2ff2 253e a9dc 343e e4f2 623d
000002b0: 9291 0bbe b190 163e 6431 97bd 7790 0dbe
000002c0: ac7f 3dbd 7cfa 2ebd 8931 003e b4b1 4b3d
000002d0: 618c 1f3e 2f21 193e 1897 e7bc 94b3 0abe
000002e0: 600d 51bc d640 c5bd 47ef 093e 1866 4dbd
000002f0: e0d6 d7bc e287 b93d e81b 533d c614 993d
00000300: c1cb 1bbe 9e4f 5abd 3cc4 82bd 6598 c1bd
00000310: 20e7 403d 835c 97bd f2aa f83d 4c4b 653d
00000320: 8f40 e5bd 7d8d dfbd 5dee 293e a812 b0bc
00000330: 0458 29bd 9cfb b9bd 2034 88bb 2005 433c
00000340: 0847 553d 5643 59bd 9a69 863d 5692 8bbd
00000350: 6509 88bd 4e25 903d 76b4 1dbe 262e f83d
00000360: e631 dcbd 3552 f3bd 917c 26be 2ce7 1d3d
00000370: e7ce fdbd 6446 25be 6ea7 b1bd 408f 61bc
00000380: 6158 10be a230 a53d 0090 dabb 511d 2d3e
00000390: b241 aa3d e05e 6d3d 2ce7 05be 74d2 1fbd
000003a0: 989c 8bbc 8a65 c93d a947 2d3e c806 aabc
000003b0: f5da 203e ead6 ed3d 6018 1cbd 8219 f13d
000003c0: 08bd 593d 206b 3d3d 2e12 79bd d43c 5f3d
000003d0: 0826 073d e2bf c43d e6c7 993d ee3b b03d
000003e0: cf2f 2e3e 522d 823d c514 d5bd 0761 213e
000003f0: a23b b2bd 9e3c 9a3d 80b3 133d 6531 d1bd
0.1444209 0.14653187 0.099403545 0.16814463 -0.17150532 -0.17137423 -0.039059848 0.024562523
-0.04756184 -0.039911866 -0.0031324625 -0.15965766 -0.0554929 0.045046717 -0.0034314692 -0.06642427
-0.15429989 -0.06253743 0.0951383 -0.08743321 -0.07285013 -0.11412043 -0.12460996 0.16794951
0.13554017 0.109415755 -0.15352893 -0.032628432 0.13168232 -0.0032401234 0.13694711 0.13129275
0.04399155 -0.103182144 0.08424385 -0.13578431 -0.03447528 3.8072467e-05 0.06886037 0.04546818
-0.14413859 0.003044501 -0.04373701 0.06634253 -0.10864633 0.034736797 0.07361595 -0.15684016
-0.07246274 -0.012583032 -0.049324185 0.067455456 0.13631807 -0.14105451 0.16068338 -0.048715577
-0.1371178 -0.072487734 0.06237127 0.047853798 0.056270048 -0.103196725 -0.086286314 -0.12594959
-0.14325054 -0.009677038 0.053473413 0.07689597 -0.03476481 0.1142952 0.13121815 -0.04523775
0.09322406 0.14092414 0.055517197 0.006427631 0.0313268 0.09098299 -0.17291628 -0.13115081
0.123738244 0.13645472 -0.058374837 -0.058174238 0.115910366 0.16941248 0.12720828 0.1402031
-0.13790625 0.12151797 0.043766916 0.17452644 -0.1734505 0.08847253 0.04242736 -0.14005248
0.14798827 0.12874635 -0.17116836 -0.045304433 -0.037428424 -0.06632093 -0.17310764 -0.055711813
0.0095278025 0.029149786 0.16083114 0.13140751 0.075920835 -0.027336031 0.10516767 -0.11972933
0.14224954 0.13033555 0.105669096 0.15441363 0.107030794 -0.04870881 0.014965802 0.017643824
-0.09860135 0.16615666 -0.066679075 -0.048428103 0.13038884 0.1265525 -0.09979687 -0.10719682
0.16096632 -0.09274509 0.13296445 0.10945813 0.07643567 0.11998497 0.07440789 0.05673629
0.17316489 0.057916746 -0.057963446 -0.10289206 -0.14135844 0.079430476 -0.06486048 0.0926681
0.15941988 -0.08013538 0.1550542 0.0930074 -0.13200365 -0.149212 -0.09910205 0.05758223
-0.047149763 -0.07084156 0.052840516 0.0001848191 0.07945584 0.17647742 0.0052742213 -0.031613275
-0.15719485 0.17549388 -0.10915796 0.16882016 -0.035158917 -0.13405557 -0.109236136 0.14769812
-0.04116504 0.16205667 0.176623 0.05540742 -0.1362975 0.14703633 -0.073824674 -0.1382464
-0.046264336 -0.04271935 0.12518896 0.049730018 0.15580894 0.14954065 -0.02827029 -0.13545066
-0.0127595365 -0.09631507 0.13470183 -0.050146192 -0.026347578 0.09059121 0.051540285 0.07474665
-0.15214445 -0.053298585 -0.06385085 -0.09452895 0.047095418 -0.07390692 0.1214198 0.05598001
-0.11193954 -0.109156586 0.16594835 -0.021493271 -0.041343704 -0.09081194 -0.0041566044 0.011903077
0.052069694 -0.053042732 0.06563111 -0.06815021 -0.06642417 0.07038365 -0.15400872 0.12118177
-0.10751705 -0.11880914 -0.16258456 0.03855054 -0.12392979 -0.16140133 -0.08674513 -0.013767064
-0.14096214 0.080659166 -0.006669998 0.16905715 0.08313312 0.057951808 -0.13076466 -0.039019063
-0.017042443 0.0983382 0.16921867 -0.020755187 0.15708525 0.11613257 -0.038109183 0.11772443
0.05315879 0.04624474 -0.060808353 0.05450137 0.032995254 0.09606911 0.07508831 0.08605181
0.17010425 0.063563004 -0.10404352 0.15759669 -0.0870278 0.07531093 0.036059856 -0.102144994

fc1.bias f4 [100]
00000000: 50bd 723d 4104 91bd f8f8 993c b6f9 fe3d
00000010: 80cb 62bb 963c c63d 3d68 debd ecc3 8dbd
00000020: ac11 783d 7e14 bb3d 6d7d 14be 18d8 703d
00000030: 14fb 01be 51dd 163e c687 c93d e804 473d
00000040: 3613 1abe 0cae 323d 75e4 063e cb01 1f3e
00000050: d30c 96bd b0c5 7d3c b3d2 a1bd 5948 febd
00000060: 804f 44bc c5bf 80bd 7006 babc 3fc9 abbd
00000070: 8a34 2bbe 26d2 903d 5aac 883d a8dd 8d3c
00000080: fac2 0dbe f41e fdbd 9ed1 e33d 1a52 31be
00000090: 7431 eebd baf1 0bbe 063d 17be 26b7 b83d
000000a0: 503d 233c 44ce 613d e8b8 f13c d673 bc3d
000000b0: fc7e 1a3d 5d89 1d3e 0210 da3d ba86 db3d
000000c0: 8080 2cbc f074 683d 4938 d6bd 49a3 333e
000000d0: 9942 1c3e c079 033c 702d e4bc a55d 2ebe
000000e0: 2f97 34be 7c67 b0bd cea8 c23d b803 cb3c
000000f0: c8f6 673d 7e97 eabd b2d7 ad3d 6fb3 203e
00000100: ba7d fa3d 4ad0 f53d b462 17bd 09fb 213e
00000110: 082b df3c 199c 053e cc43 2c3d f7d9 c2bd
00000120: 1291 dabd bcd9 5cbd 7857 96bd 9232 9a3d
00000130: 24c3 4ebd 803e 90ba e835 dbbd 3204 f43d
00000140: 38b6 ffbc b8fd a8bd 90f6 9e3c 2097 113c
00000150: 6425 4f3d 9296 ecbd 60f5 ec3c e4f2 6f3d
00000160: e8eb 0ebd 80f7 71bc 1ba2 153e d446 05be
00000170: 3f21 263e ac5f 50bd 13a3 113e a5c5 073e
00000180: 68a3 89bc e054 ea3b a17b 0a3e f08a 3abd
0.059262574 -0.070808895 0.018795475 0.12449972 -0.0034606159 0.096795246 -0.108597256 -0.06922135
0.06056373 0.09134768 -0.14500971 0.058799833 -0.12693435 0.14732863 0.0984035 0.048588663
-0.15046391 0.043623015 0.13173087 0.15528028 -0.07326665 0.015489027 -0.07901516 -0.12416143
-0.011981845 -0.06286577 -0.022708148 -0.08387994 -0.16719261 0.07071333 0.066734985 0.017317608
-0.13843909 -0.123594195 0.11123966 -0.17316476 -0.11630526 -0.1366643 -0.14769372 0.09019308
0.0099633485 0.05512835 0.029507115 0.092017815 0.037718758 0.15384431 0.106475845 0.107190564
-0.010528684 0.056752145 -0.10459954 0.17542757 0.1525978 0.008024633 -0.027853698 -0.1702791
-0.17635797 -0.08613488 0.09504853 0.024782047 0.056631833 -0.11454676 0.08488406 0.15693448
0.12231012 0.120026186 -0.036959365 0.15818419 0.027242199 0.13047828 0.042056844 -0.0951423
-0.10672201 -0.053918585 -0.07340902 0.07529177 -0.05047907 -0.0011004955 -0.10703641 0.11914863
-0.031214818 -0.08251518 0.01940468 0.008886129 0.050572768 -0.115521565 0.028925598 0.058581248
-0.034892946 -0.014768481 0.1461262 -0.130153 0.1622362 -0.05087249 0.14222364 0.13258989
-0.016801551 0.007151231 0.13523723 -0.045542657
