pyCode/CNN_xgboost/CNN_XGBoost4HighFreMoredata.pth (torch, 993943 bytes, 4 tensors)

conv1.weight f4 [16, 1, 3]
00000000: 5036 1a3e e290 33be 9c08 debe d0be f43e
00000010: 90e9 b73e 7e4e b2be c8b7 663e 2e3a 60be
00000020: e84b c7bd b80e 4c3e 1c0f f1be f4a8 063f
00000030: 9854 0d3e 2074 683e 289b 5abe b434 133e
00000040: 24b9 54be 31f6 95be cb85 08bf e94a 8bbe
00000050: 6231 d9be 0823 72be 6650 c3be dcb6 df3e
00000060: 15a7 01bf 9610 9d3e 303b cc3e dc7c 033e
00000070: c0ce c2bd 7723 0bbf f80d d0bd 1e72 a83e
00000080: a701 80be dc2e 9c3e dc8f 06bf 32ec a43e
00000090: b11b babe 7cb9 583e a0cb 6ebd dc17 ba3e
000000a0: 0074 483d b88b d73d d005 30bd 8cfb cd3e
000000b0: bc41 123f 6e37 1abe a0fd b63e d0fb cabe
0.15059781 -0.17535737 -0.43365943 0.47801828 0.35920382 -0.3482551 0.22531044 -0.21897194
-0.09731275 0.1992749 -0.4708184 0.5260155 0.13801801 0.22700548 -0.2134825 0.14375573
-0.2077375 -0.29289392 -0.5332915 -0.2720559 -0.4242049 -0.23646176 -0.38147277 0.43694198
-0.5064557 0.30676717 0.39888906 0.12840599 -0.09512091 -0.5435099 -0.10158914 0.32899565
-0.2500126 0.305045 -0.5256326 0.32211453 -0.36349252 0.21164507 -0.05829966 0.36346328
0.04893875 0.10524696 -0.042974293 0.40230978 0.5713155 -0.15060207 0.35740376 -0.39645243

conv1.bias f4 [16]
00000000: 7f0e 0fbf 7874 adbe 98bb 9b3d 10ab c73d
00000010: d003 79bd 43ba 85be 6eaf d3be 50c5 de3e
00000020: 94ab 8a3e fdee a6be 3868 70be 240f 4e3e
00000030: 2097 3e3e f872 a73e 9258 893e 1c17 85be
-0.55881494 -0.3387792 0.0760414 0.097494245 -0.06079465 -0.2611867 -0.4134478 0.43509912
0.2708403 -0.3260421 -0.23477256 0.20122963 0.18612337 0.32704902 0.26825386 -0.25994194

fc1.weight f4 [100, 32]
00000000: 9641 8e3d 887d 993c 0078 c7b9 402e 353b
00000010: 2c16 6a3d 937d 04be 2020 183d 7eca cb3d
00000020: 5092 c43c a4ef 96bd db15 03be ad58 013e
00000030: f6f2 963d 1e88 993d 7321 2f3e ae2a 06be
00000040: f5ea 043e 1c90 883d 848d 4cbd 809f 73bb
00000050: a631 c53d 9084 0f3d e9eb 043e b08e 903c
00000060: 2b89 1a3e dff1 c0bd 0e15 e13d ce87 963d
00000070: 89c1 1abe fd21 193e ad6c 01be 64c5 2fbe
00000080: 9ac4 2cbe 00f5 7a3d 67b4 2bbe 0083 2dba
00000090: 0010 18bc 0735 30be 2874 313d 179b 323e
000000a0: 8034 e9bc d909 0bbe 35ff 2c3e 1138 11be
000000b0: 149d e5bd a617 2dbe a8c6 da3c 9d17 c3bd
000000c0: 4756 313e 283e 363d 753e 91bd cdf5 0a3e
000000d0: 2261 ee3d 5099 313c 6036 393d 0287 d1bd
000000e0: 8ccb 103d 3f85 11be 903b 53bc 085a 0abd
000000f0: 70f3 aebd 38d0 b93c 1ed5 d23d d1b1 02be
00000100: 9acb a2bd 00f8 aebd c93a 313e e79f 003e
00000110: 69a2 083e fe39 d23d a409 8abd 3f18 b2bd
00000120: 69b4 233e 509b 873c 9021 16bc 7095 0d3c
00000130: 00c7 8e3a 5018 633d 8867 04bd 5027 10bc
00000140: 56c2 13be c02e 08bc 086b ea3c 8686 e8bd
00000150: 0f59 0a3e f63c dd3d fce3 123d 5241 67bd
00000160: 5431 1a3d 41a9 193e fa1e fa3d 2fcd aabd
00000170: a816 51bd 650b ebbd 6cdf 24be 980a 21be
00000180: d13b e5bd 9d02 90bd b39f 84bd 7663 f73d
00000190: 5b8d 193e 0fa9 09be f7d0 273e b91b 213e
000001a0: c299 1fbe b754 29be 4012 653c 2cbe 1cbe
000001b0: 2093 d2bd 4d6f 273e d770 1f3e e055 2a3c
000001c0: cc46 4bbd 6b80 29be 1a13 b73d 6e47 82bd
000001d0: a7b5 2e3e 7447 1dbd 5e42 2dbe b287 b3bd
000001e0: 200f 51bd 2ca3 efbd 753e 1a3e 0eed ed3d
000001f0: 401f df3c 7a24 c63d 9e09 993d ce0f 1bbe
00000200: 93d5 1b3e 894a 19be 5a28 c43d 27f0 343e
00000210: 1a3e a93d 4031 7f3b f610 ef3d 382d 0dbd
00000220: cec3 f03d f82c 84bd 241e 6b3d 246b 8b3d
00000230: b0a7 483c 5129 2c3e 5cc8 313d dc8f 39bd
00000240: f7ff 86bd 76d4 8f3d 0e3f 15be 6a75 fc3d
00000250: 4f66 31be ca9e a83d be23 c53d 365b f63d
00000260: a726 0d3e 3bf6 283e 7e3d 9b3d d830 a6bc
00000270: 53e2 14be 082d b8bc 8af6 1abe 11f3 e8bd
00000280: 4fe5 19be a76c 2f3e 60ff d7bd 6d0c 073e
00000290: 184d 873d 28b0 2dbe 18da 863d 58ff 40bd
000002a0: 665b b73d 4f59 223e 6eef 10be c828 6ebd
000002b0: 8cf3 1dbe 7633 5cbd e860 0ebe b65e 9e3d
000002c0: ff11 0f3e 1439 4abd 1c00 23bd 8f4c 15be
000002d0: 5607 9a3d 819d 263e 6027 fe3b 3ca2 2e3d
000002e0: e35f 273e 3a42 cb3d 0f0a 023e 74be 2c3d
000002f0: 389a 1cbe 825f 1dbe 441b 023d 603a 2dbc
00000300: d63e c83d 04d7 493d 1b34 f4bd c00f e3bc
00000310: 70ee f5bc 94f1 13be f24c ea3d eb3c 17be
00000320: fd67 f2bd be85 e63d 78e4 b9bc 6205 b33d
00000330: 1068 27be 08bf f6bc 927f e9bd 0e5c 60bd
00000340: 988e af3c c824 d8bc d819 a4bd 0d4e bfbd
00000350: 3a24 7fbd 990f d1bd e8f1 903d cca2 003d
00000360: b018 4abd 5c89 1dbe 089a 3bbd cce9 6f3d
00000370: 1ad1 a73d 301b 2fbc 125d 853d 20a7 16bd
00000380: 8ab0 803d 9ef7 c93d 2d24 123e 8666 bfbd
00000390: 86d4 a33d 58ed 21be 00ac 333c 0424 7dbd
000003a0: 0300 dfbd 831d 0fbe 3020 033d 74f5 08bd
000003b0: 0b33 153e a59b b0bd da05 7dbd f618 8a3d
000003c0: 1f70 22be 29e8 d7bd f898 ed3c 00a7 7d3b
000003d0: ebbd 9bbd 6076 993b d6af b93d 0f40 173e
000003e0: 7f99 113e ad6e 80bd c843 7a3d 3243 f93d
000003f0: 90b9 b9bc 6ad6 dc3d 5478 153d 3aea d63d
0.06946103 0.018736616 -0.00038045645 0.0027645975 0.05715005 -0.12938528 0.03714001 0.09950732
0.023995548 -0.073699266 -0.12801306 0.12631483 0.0737056 0.074966654 0.17102604 -0.13102219
0.12980254 0.06668112 -0.049939647 -0.0037173927 0.0962861 0.03503853 0.12980618 0.017646164
0.15091388 -0.09421133 0.10990344 0.073501214 -0.1511289 0.14954372 -0.12639113 -0.17165142
-0.16871873 0.061268806 -0.16768037 -0.0006618947 -0.009281158 -0.17207728 0.043323666 0.17441975
-0.028467417 -0.13577975 0.16894229 -0.14181544 -0.11211601 -0.16903552 0.026706055 -0.09525988
0.17318068 0.04449287 -0.07091991 0.13570328 0.1163962 0.010839775 0.04521787 -0.10230829
0.035350367 -0.14210986 -0.012892619 -0.033777267 -0.08542526 0.022682294 0.10294555 -0.12763144
-0.0794899 -0.08543396 0.17307581 0.12560998 0.13343205 0.102649674 -0.0674012 -0.08696031
0.1598679 0.016553551 -0.009163275 0.008641586 0.0010893047 0.055443108 -0.032325298 -0.008798435
-0.14429602 -0.008311927 0.02861549 -0.11353783 0.13510536 0.10802643 0.035861954 -0.05645878
0.0376447 0.15005971 0.122129396 -0.08339917 -0.051046997 -0.11476783 -0.16100854 -0.15726697
-0.1119305 -0.070317484 -0.06475773 0.120795175 0.14995329 -0.13443397 0.16388308 0.15733232
-0.15585998 -0.16536222 0.013981402 -0.1530692 -0.10281968 0.16351052 0.15570389 0.010396451
-0.049628064 -0.16552894 0.0893919 -0.063612804 0.17061482 -0.03839822 -0.16919848 -0.08766116
-0.051039815 -0.117010444 0.15062888 0.1161748 0.02723658 0.09674926 0.074725375 -0.15142748
0.15218191 -0.14969839 0.09578009 0.17669736 0.08263798 0.0038939267 0.11673157 -0.034466952
0.11756097 -0.064538896 0.05740179 0.06807545 0.012247011 0.16812636 0.04340397 -0.04530321
-0.0659179 0.070229456 -0.14574835 0.123270825 -0.17324184 0.082334116 0.09625958 0.12029116
0.13784276 0.1650018 0.07580088 -0.020286962 -0.14539461 -0.02248241 -0.1513311 -0.11374486
-0.1502888 0.17131291 -0.10546756 0.13188334 0.06606501 -0.1696173 0.06584567 -0.047118515
0.0895298 0.15854381 -0.14153835 -0.05814436 -0.15424937 -0.053760014 -0.13904154 0.077329084
0.13971709 -0.04937084 -0.039795026 -0.14579986 0.075209305 0.1627102 0.0077561587 0.042635188
0.16345172 0.09924741 0.1269915 0.042173818 -0.15293205 -0.15368465 0.031764284 -0.010573
0.0977761 0.04927732 -0.11924001 -0.027717471 -0.030020922 -0.14447623 0.114404574 -0.14769332
-0.118362404 0.11255978 -0.02269195 0.08741261 -0.1634829 -0.030120388 -0.11401285 -0.05477529
0.021430299 -0.026384726 -0.08012742 -0.09341059 -0.062290408 -0.10208053 0.0707739 0.031405255
-0.04933995 -0.1538443 -0.045801193 0.058572575 0.0819418 -0.010687634 0.065118924 -0.036780477
0.06283672 0.09861682 0.14271612 -0.09345727 0.0799952 -0.15813196 0.010966301 -0.061801925
-0.10888674 -0.13976102 0.03201312 -0.033437207 0.14570253 -0.08623437 -0.06177316 0.06743042
-0.15863083 -0.10542328 0.029003605 0.0038704276 -0.07604583 0.004683301 0.09066741 0.1477053
0.1421871 -0.0627111 0.061099797 0.121710196 -0.02267149 0.10783084 0.036491707 0.10493894

fc1.bias f4 [100]
00000000: 2063 ef3b e614 c5bd ecb3 cdbd 8286 ac3d
00000010: b0f4 923c 4424 2b3d f6bb 9dbd a475 193d
00000020: 000c a3ba 608d cf3b f24e 1ebe b67c e0bd
00000030: 32e7 ad3d 005f 913d 5d82 2ebe c0e9 763b
00000040: dafe 03be d2c5 b33d 1214 ff3d 7eb4 27be
00000050: 7e49 e53d e0e7 48bc dd48 c2bd 84fe 2c3d
00000060: f836 d9bc 441e 76bd 6898 1bbd cb68 33be
00000070: 9628 84bd 54d7 2abe 2e6d 79bd d41d 7d3d
00000080: 4443 883d 58b0 13be 47c6 1f3e 2568 2d3e
00000090: 7e19 c03d 3889 8d3d 681b 0abe 54c8 bebd
000000a0: 0258 ce3d 00ac 023c d17d 90bd c826 663d
000000b0: c8a2 183d d384 d7bd e04e b7bc 54e4 753d
000000c0: 01de 013e a9d3 93bd e711 07be 4456 733d
000000d0: d2fd fd3d 2539 2c3e de29 ad3d 76e9 13be
000000e0: 2fed 32be 307e d2bc 6a3a d13d 3bc8 233e
000000f0: 508f 75bc 8420 8fbd 206a 0bbd 6753 13be
00000100: b8a8 a5bc b1e8 233e 571f 0c3e 9074 683d
00000110: d141 063e 5b38 92bd 4572 0f3e c08b f3bd
00000120: 4020 a4bd d55b 113e c5d1 323e 40f9 433b
00000130: 824c 0fbe 7c70 51bd 4805 cabd 8004 e13b
00000140: 7292 c83d 3717 013e 9402 1c3d 844b 17be
00000150: 9e9d d43d 6e9e b53d d798 163e b13b 163e
00000160: f03a 0dbd 655a bebd 3844 26bd b4fd 8a3d
00000170: ee21 de3d 0958 15be a0b9 44bd e055 ebbb
00000180: 228b de3d 506a efbd 7c41 713d 1015 dcbd
0.007305518 -0.09623127 -0.10044083 0.08424093 0.017938942 0.041782632 -0.07701866 0.037465706
-0.0012439489 0.006333992 -0.15459803 -0.10961287 0.08491363 0.07098198 -0.17041917 0.0037675947
-0.12890187 0.087779656 0.12455 -0.16377446 0.11195658 -0.012262315 -0.09486554 0.042234913
-0.026515469 -0.060087457 -0.037987143 -0.17520444 -0.06453054 -0.16683704 -0.060895137 0.061796024
0.06653455 -0.14422739 0.1560298 0.16934259 0.09379862 0.06910938 -0.13487017 -0.09315553
0.1007538 0.007975578 -0.070552476 0.05618933 0.037264615 -0.10523381 -0.022376478 0.060032204
0.12682344 -0.07218105 -0.13190423 0.05940844 0.12401928 0.16818674 0.08455251 -0.14444527
-0.17473291 -0.025694937 0.1021622 0.1599435 -0.014987782 -0.06988624 -0.034036756 -0.14387284
-0.020222053 0.16006733 0.1368383 0.056751788 0.13111044 -0.07139655 0.14008434 -0.118918896
-0.08013964 0.14195187 0.17462833 0.0029903203 -0.13994029 -0.051132664 -0.098642886 0.0068669915
0.09793557 0.12606512 0.038088396 -0.147749 0.103816256 0.08868109 0.14706741 0.14671208
-0.034480035 -0.09294585 -0.040592402 0.06786671 0.10846315 -0.14584364 -0.04802859 -0.007181868
0.10866381 -0.116901994 0.05890034 -0.10746205
